pre-trained/ddqn_dnn18000.pth (torch_old, 650004 bytes, 44 tensors)

feature.0.weight f4 [128, 36]
00000000: 4bad 033c 903b 61bb 4c56 e4bc c0c6 bfb8
00000010: da48 5c3b 7251 d23c d65c c93c b12f 2dbd
00000020: 6d24 073c 6c5d 00bc 93d3 5a3d 1b5b 9b3d
00000030: 6a00 b0bd e2ad ffbc 42c0 e13d 2fb0 623e
00000040: a01b 673d 1ce8 85bc 0fcd 3cbb f6a2 593c
00000050: 36e7 333e ac29 32c0 d507 613d 3d2a 653c
00000060: 5e7a 0f3d 32cd 993d 1de7 043d 8344 3ebd
00000070: 33a8 00bd c997 803d d1ca 093d 4bc6 9cbb
00000080: 5f16 fb3c 5448 09be eb48 613d ae59 463e
00000090: 3ebc f9bc 629c bc3d bc13 ce3b 3721 8ebd
000000a0: db0b ad3d a76e 853d 8879 883e 1b0f ac3d
000000b0: 3e3d 96bd 3322 16bd 7975 e2bc a342 36bc
000000c0: a2dd ef3d 27e1 443d 966a 26bd 07af 0a3d
000000d0: 12b3 f63d 66b7 4f3d 3045 fdbd 695c a4bd
000000e0: f6eb 893c 08b0 e43d 065c 1c3e 4763 0b3e
000000f0: df21 e0bf 15b6 0bbe 28fb 333e 20a9 da3d
00000100: f86c 153e 1603 5c3c 2bf2 a7bf e559 f0bd
00000110: b24b 913d cdaf 64bb 1927 b0bd 9559 163e
00000120: 1e61 a7bc 66ca e1bc a720 983c 49e4 e0bb
00000130: 38e5 24bc 7dd4 36bc f804 42be 1ae5 1a3d
00000140: 9ded e23c fc44 403d ff8d 313d 65c3 fa3a
00000150: 32aa 4abf 1929 efbf a054 ff3d b4ee 21bc
00000160: 248e b43d cf74 053d edae d83e 75de d33e
00000170: 305b 9e3c ea41 563b 6389 b7bc 78a0 8fbc
00000180: 0120 463e 0613 6b3e 6fcb f13d 90cc 37bc
00000190: 906c 3bbd 9a61 f9bc 1873 463c 0cf8 373d
000001a0: bfa3 083d 211e 9a3c c857 c8ba 5862 4d3e
000001b0: 74c1 f7bd 5ec9 943d b857 2f3d 2f2d 56bd
000001c0: 0e21 2abc 32a6 12bc 9c2b 54bd abc1 15be
000001d0: 5d6b 373c 9450 973d a8fe 303c f9ba 0d3d
000001e0: 67de b13c a8ff bbbd 2c0c 063e d5f0 2c3e
000001f0: 51a6 5bbd 9b11 f93c 66ab 8a3d f6fb 1f3e
00000200: 4da6 cc3f 4b4f 9dbe 995a f4bd 4e86 fabc
00000210: 5f82 cf3b d328 8d3c bd31 07bd 19fc 453e
00000220: 9fbf 1bbd ef10 0d3d c01d cdba 5f73 c4bd
00000230: 87f2 2bbe c32f 0fbe 2f17 7a3b 140c 6c3e
00000240: f83f 84be c918 e3be 5765 f8be df8d 41be
00000250: 13b6 5dbe c473 433d 6751 8cbe 16c9 52be
00000260: e775 8fbe 6850 adbe 81a9 163e e3e4 8dbe
00000270: 220b 4abe a3c8 c2be 728e 88bf d1ff 41bf
00000280: ed57 353e 99ff a0be 9138 abbe 696c fdbe
00000290: c35f c5be cbd4 27bf 087e 81be 1738 dabe
000002a0: d66e 923d ba3c f23d dafb 01bb 152e 67bd
000002b0: 96f2 87be 6aa4 a53e 0448 92be 250b c4bd
000002c0: 756d 95bc 1188 a8be 7c1b 083f 26dc 25bd
000002d0: e12f 993d 24d4 d53c 2493 3e3d 3c74 743d
000002e0: acf0 4cbd da24 163c 8224 8abd a48c 34bd
000002f0: 766e 553d 9633 393d 5ecc 3bbc d221 5ebd
00000300: 17a7 903b f979 033e 396e 6b3d 7dde b63c
00000310: 29f6 5e3c 4a3d 4dbd 13b4 28bd e5e2 e2bc
00000320: 7538 493e e487 a73d a9e9 0abd b66c d7bd
00000330: 39c0 abbd 700c d6bd b41e 14be a1b3 c93c
00000340: 38a1 613c ef26 33be be92 d03f cb12 1bbf
00000350: cfd3 02bd c68f 9d3d 0620 32bd 1d01 fd3d
00000360: 9cfb 39bd 47ed 223d 10e6 493c bfba ec3d
00000370: 431b 9c3d 6672 abbe 5033 9b3d d044 5ebd
00000380: f658 eb3c d73d 5cbd beaa 373d f81d 063e
00000390: 08ad 633d c556 a93c 105e 203d b38f e93d
000003a0: 3d11 d2bf 9d35 d2bf 26ab 0abd dda9 38bd
000003b0: 46bc 173d 3545 2d3e d17f fb3d d7cf 25bd
000003c0: b8c0 203c 9904 8cbc d179 843c 6a59 1e3c
000003d0: f0f5 963d 6bde e2bd 7069 3a3d ed8a a93c
000003e0: e57a d8bc 8467 94bd 33ff 4bbe 8da6 5abb
000003f0: 56ce 85be f07c 86bd 76fb aa3d 99c2 9c3d
0.008036922 -0.0034367777 -0.02787318 -9.14461e-05 0.003361276 0.025673602 0.0245804 -0.04228181
0.008248431 -0.0078347735 0.05342443 0.07585736 -0.08593829 -0.031210843 0.110229984 0.22137521
0.05642283 -0.01634603 -0.0028808748 0.013283482 0.17568669 -2.7837934 0.05493911 0.013987121
0.035028808 0.07509841 0.03244697 -0.046452057 -0.031410407 0.06278951 0.033640686 -0.0047843806
0.030650316 -0.13406497 0.05500118 0.19370148 -0.030485269 0.09209515 0.0062889736 -0.06939929
0.08449527 0.06515246 0.2665522 0.08401319 -0.073359 -0.03665371 -0.027643906 -0.011124286
0.11712195 0.048066285 -0.040628992 0.033858325 0.12045874 0.05071201 -0.12366712 -0.08025438
0.016836148 0.11166388 0.15269479 0.1361209 -1.7510337 -0.13643678 0.17576277 0.10676789
0.1459235 0.01342847 -1.3120779 -0.11735896 0.07094516 -0.0034894824 -0.08601207 0.1468261
-0.020432051 -0.027562331 0.018570257 -0.006863151 -0.010064416 -0.01115906 -0.18947208 0.037816145
0.027701193 0.04694079 0.04334831 0.0019131718 -0.7916595 -1.8684417 0.12467313 -0.009883571
0.08816174 0.0325821 0.42320958 0.4138066 0.019330591 0.0032693096 -0.022404378 -0.017532572
0.19348146 0.22956476 0.1180638 -0.011218205 -0.04575783 -0.030442048 0.012112401 0.04491429
0.033359285 0.018813195 -0.001528495 0.20057046 -0.12097445 0.0726497 0.042808264 -0.052289184
-0.010383857 -0.008950757 -0.0517994 -0.1462466 0.011195031 0.07388416 0.010802902 0.03460214
0.021712495 -0.09179622 0.1309058 0.16888745 -0.05362541 0.030403903 0.06770973 0.15623459
1.5988251 -0.30724558 -0.11931343 -0.03058162 0.00633268 0.01723138 -0.03300642 0.19334449
-0.03802454 0.034439977 -0.0015649125 -0.09592318 -0.16791736 -0.13983063 0.003816079 0.23051482
-0.25830054 -0.44354847 -0.48514816 -0.18901776 -0.21651487 0.047717825 -0.27405855 -0.2058452
-0.2801964 -0.33850408 0.14713098 -0.2771369 -0.1973081 -0.380437 -1.0668471 -0.7578097
0.17709322 -0.31445006 -0.33441594 -0.49496773 -0.38549623 -0.6555907 -0.25291467 -0.42620918
0.071500465 0.11827989 -0.0019833953 -0.05644043 -0.26552266 0.32352 -0.2857057 -0.09572438
-0.01824067 -0.3291631 0.5316694 -0.040493153 0.07479835 0.026102133 0.046527043 0.059681162
-0.05003421 0.00916406 -0.067452446 -0.044079438 0.052107297 0.04521521 -0.011462299 -0.054231472
0.00441445 0.12839498 0.057478163 0.022322888 0.013608494 -0.050107278 -0.041187357 -0.027696082
0.19650443 0.08180216 -0.033914242 -0.10518782 -0.08386273 -0.10451591 -0.14464837 0.024621787
0.013771348 -0.1749532 1.6294782 -0.6057555 -0.031940278 0.07693438 -0.04348757 0.12353728
-0.04540597 0.039777067 0.012322918 0.115590565 0.07622387 -0.33485717 0.075781465 -0.054264843
0.028728943 -0.053769913 0.044840567 0.1309737 0.055584937 0.020671258 0.039152205 0.114043616
-1.6411511 -1.6422611 -0.033854626 -0.04508387 0.037044786 0.16920932 0.122802384 -0.040481415
0.009811573 -0.017092036 0.016171368 0.009664873 0.073711276 -0.11077579 0.04551071 0.020696128
-0.026425788 -0.072463065 -0.1992157 -0.0033363432 -0.26133984 -0.06566799 0.083487436 0.07654304

feature.0.bias f4 [128]
00000000: 571f 5cbd ed9a 7dbd 3058 febd 16f3 76bc
00000010: 07e5 88be 1c03 ccbb 3125 90bd c9d2 09bd
00000020: d162 eabc 37f9 18b0 9e71 e8bd 8f78 eabb
00000030: 5ec6 6abd 0b62 8fbd d094 0dbb b186 76bd
00000040: ab61 853d 5e70 bbbd c0ba ebbd 22b2 9fbd
00000050: bbe3 e0bc 45da 92be e783 00bd e4a0 32be
00000060: cad4 bcbc 52ad 3abe 1f1d b6bd 8410 86bd
00000070: 1bfe 4abd f393 b93b 3c51 36be effd 00b9
00000080: 4e81 d2bd 6bbc 673d 0cca 3bbe 58d5 19be
00000090: 2269 f4bd e7a4 3ebe d112 39be d3ce d23b
000000a0: f649 fb3c 3385 e63c 2aaa 2dbd ffab d9bd
000000b0: 6cea 3ebd d2ad e9bc a994 45bd 2500 9dbb
000000c0: 9702 b4bd 36e9 a73d e3c3 70bc d5c2 0cbe
000000d0: e1ae 04be 2206 75bc 1333 60bd 5cdc adbd
000000e0: cdab 3fbe 40b1 ad3b 87c1 cd3c 3a33 eebc
000000f0: cf25 febd ba98 ddbd a379 1fbb 42cf 1abe
00000100: 8fc7 33bc 2e49 9dbd ae3e 35ba a352 bcbd
00000110: b608 81bc 991f e2bd 5b6d 8d3c 3307 acbd
00000120: fc31 0c3d ff9d c73e 867f 893d 439d 98bd
00000130: b222 00be f163 90bd 3634 203d 0f17 9dbd
00000140: e862 053e 5205 8abd 895d 1a3e d3f8 5ebe
00000150: 6ab0 39bb c961 0b3e bc20 c0bc b996 a5bc
00000160: f1ba 413d 6cdd 87bd c379 933c f585 e1bd
00000170: 7e75 f3bd c2a3 9abc 04e0 e5bd 519f 83be
00000180: 861b 4ebe cdfe b53e 1903 c8bd d760 1cbd
00000190: 7e33 993d 7deb 7dbc 3c58 b83d abef 5b3e
000001a0: 94a9 0fbd f212 363c 7df1 cebd bd1b be3c
000001b0: 5182 95bd aafb 5f3d 752e 2dbd 9a3f 90be
000001c0: 9e07 92bd 28a0 4d3d 9f9b 453d c407 66b9
000001d0: 36ba 07be 25f4 53bd 8978 3fbe 001f 963b
000001e0: 7017 01be 5c0b 08bd 49d3 8bbd 57b0 6abc
000001f0: 93ca ca3d 7aa0 69bd f41d 4fbc 2571 75be
-0.053740826 -0.061915327 -0.12419164 -0.015072605 -0.26737234 -0.0062259566 -0.07038344 -0.033648286
-0.028611572 -5.5651433e-10 -0.11349796 -0.007155485 -0.057318084 -0.07001122 -0.0021603592 -0.060187045
0.06512769 -0.09152292 -0.11510229 -0.07797648 -0.02745234 -0.2868215 -0.031375792 -0.17444187
-0.023050684 -0.18230179 -0.08892273 -0.06546119 -0.04955874 0.005663389 -0.17804426 -0.00012301629
-0.10278569 0.056576174 -0.18338794 -0.1502279 -0.11934115 -0.18617593 -0.18073584 0.006433347
0.030674916 0.028139686 -0.04239861 -0.10628509 -0.04661028 -0.028525267 -0.048237476 -0.004791277
-0.087895565 0.08198778 -0.0146951405 -0.13746198 -0.12957336 -0.014955075 -0.05473621 -0.08489296
-0.1871788 0.005300671 0.025116695 -0.029077161 -0.12409555 -0.10820146 -0.0024333976 -0.15118125
-0.010972871 -0.076799735 -0.0006913942 -0.09195449 -0.015751224 -0.11041183 0.017264059 -0.08399811
0.034227356 0.3898773 0.06713776 -0.0745187 -0.12513235 -0.07050312 0.039112292 -0.07670414
0.13026011 -0.06739296 0.15074743 -0.21774606 -0.002833391 0.13611521 -0.023453109 -0.020213472
0.04729742 -0.0663403 0.018002396 -0.110118784 -0.11887644 -0.018876914 -0.11224368 -0.25707486
-0.20127687 0.3554596 -0.09766216 -0.03817829 0.074805245 -0.015498039 0.09001204 0.21478145
-0.03507383 0.011112915 -0.10104654 0.023206586 -0.073002465 0.054683365 -0.042280633 -0.28173524
-0.07130359 0.050201565 0.048244115 -0.00021937402 -0.13254628 -0.051746506 -0.18698324 0.004581332
-0.12606597 -0.03321396 -0.06827409 -0.014324269 0.09901919 -0.057037808 -0.012641419 -0.23968942

feature.2.weight f4 [128, 128]
00000000: b6cc b4bd 3dd9 273d 7717 fb3d 6410 a03d
00000010: 77c1 90be 9c1a 2a3e 8417 f7bd df03 2f3d
00000020: 29a3 523d de7f 7180 b908 143e c88b db3d
00000030: 438e 9ebd 4719 a63d 1aae 363f 7bf3 a7bd
00000040: 70a6 18be 1535 ef3d 1d85 943e ebbd 8f3e
00000050: 16ad 133e 7164 6c3e d4d1 103e 1023 b43e
00000060: 2569 fa3c 1c65 503b 7bf9 9ebd bb20 033f
00000070: 47bf 4bbe a9eb 1e3d 6387 da3e 3474 1e80
00000080: 09c5 e83d 7de2 803d 9b95 0c3f 5861 253e
00000090: ac91 66bd ccbf 0a3e f250 7f3c ea15 4f3d
000000a0: f4e3 183e bd09 5b3e 3500 2bbe 42be 003e
000000b0: 4c2c b8be e85e a73c 400a 2b3e 2923 99bd
000000c0: ecb2 86bd 8777 c83d 23a4 93bd 2420 36be
000000d0: da9b 553e e4ec 9f3e b8ba 163e d978 5c3d
000000e0: 58e0 96bd 31d8 febd ac2c 903d 7d0b 9c3b
000000f0: 0802 3e3e 2cfc 5dbd a817 f000 b10d 983e
00000100: d051 703e 1e43 cebd 47ae 5ebd 0b02 b03d
00000110: f9a2 033e edf5 a13e b98c 0ebe e929 44bd
00000120: 2487 053e b80c 84be d853 8c3e 0956 febd
00000130: a3b8 e83c 31e6 db3d aa3f bd3c bcdb a73e
00000140: 4e0f c4bd 007f 823e 647e d83e f233 583e
00000150: 33e7 94bd 42b9 3a3e 7fc3 943e 7e7b fa3d
00000160: 1422 d03d f2b3 5c3e e725 a2be ee83 23be
00000170: 0b51 4fb6 7739 fa3d a10b ebbd bf90 383d
00000180: c5de b13e b5f8 48be 7ac9 113e 16de 72be
00000190: 1767 7bbe 2fe4 2a3d e336 babb a9c5 8ebd
000001a0: 3448 d5bd 6498 a9bc 84b5 01bd 6291 dfbd
000001b0: ec6a 053d e663 4d3c 4ad5 9b3c 37c3 9dbe
000001c0: 45ba 053f dbdb 183b a190 d43d 72f9 58bd
000001d0: 1245 babd 8062 4b3d f9fd 16bd bf71 aa3e
000001e0: 7fa5 90be 3a84 4cbe b24e 373e d56c 433d
000001f0: c4d7 2cbd 8350 a23d 4c67 eabd 3191 943e
00000200: eac2 4a3e 0601 e73d 10c5 a43d 4377 103d
00000210: eaa3 90bc 426e 2d3e 8e36 23bf 237d 253d
00000220: fdba 3e3e fb43 4e00 f44f 26bd 03ad 3c3d
00000230: e90c d2be a0f6 023e 06d5 613e c686 c9bd
00000240: ac68 2a3d c66e 8e3b b321 08be bac6 b43d
00000250: 3ebb b13c 82c7 6abd e091 a53d 15f8 5dbd
00000260: 7d4a 5b3f 103c c1bd f3dd f23d c307 843e
00000270: 0894 d4be 7f58 11be e2f1 083f d37d 0c80
00000280: ab6c 163e edd8 09bd f4df bb3c 2696 56be
00000290: b4bd 923e 2049 73bf 8290 a2bd a29a 6e3e
000002a0: 4835 d0be 3807 033b d47b e43c 3571 b73d
000002b0: 7f01 5fbe a9a5 073e b929 ed3c c121 c13d
000002c0: 46d5 1c3c 0ccd b83c 08e8 033e e7be 0ebb
000002d0: dc31 773e 9dcd cabe 56c4 0e3e d7e9 03bf
000002e0: 7ff9 3a3e 59e9 6b3f 1a97 25be 105d 0d3f
000002f0: ebef b13c 6391 163e 83fb 5a80 5129 8abe
00000300: 39aa 1c3e 6b05 9f3d 764f 56bb f915 4b3e
00000310: 07c0 dabe 9b98 b5be d4c2 583e 6a9e 193e
00000320: cd06 9a3b 1923 efbd 41fe 093e e631 c7bd
00000330: a710 a5bd ae67 cb3a b808 a4bd 64c3 8b3e
00000340: 6aa1 6b3d 820d 9d3c 6a69 083e 9419 303c
00000350: 89a0 893e 77d9 263f fd8a 203e 8dc0 453d
00000360: e58a dabd 4efb b53d ac5f 5e3a e106 3e3e
00000370: 6c05 c4b9 c1ef d93d f234 4fbe e18d 163c
00000380: 8c87 66bc 6c80 983d 0222 b83e 1a07 333e
00000390: 712f d7bd 72be 38bd 2931 eabe 9ddf 80bd
000003a0: d9af 7a3e c974 1dbc 2ec2 003f 5da0 c63c
000003b0: 7c10 7b3e 68dd f83b 45bb bebd a8e8 393e
000003c0: 61ea d13e 38ca 113d f6e3 023e 720e 7fbf
000003d0: e026 0ebe 2945 1c3d 1116 523f 88b0 cebd
000003e0: dc2a 9a3e bce0 023e 153c 383e 492c 723d
000003f0: 78dd b2bc 0afe a7bd 9183 9ebf 5053 22be
-0.08828108 0.04097866 0.12260335 0.07815626 -0.28272602 0.16611713 -0.12065032 0.0427283
0.051425133 -1.0423281e-38 0.14456452 0.107200205 -0.07741978 0.0811029 0.7135941 -0.08200737
-0.14907241 0.116800465 0.29007807 0.28074583 0.14421496 0.2308519 0.14142543 0.35183
0.030567715 0.0031798547 -0.077624284 0.5122182 -0.19897185 0.03879896 0.42681417 -2.796751e-39
0.113657065 0.06293199 0.5491578 0.16150415 -0.056291267 0.13549727 0.015583264 0.05055801
0.14930707 0.21390434 -0.16699298 0.12572578 -0.35971296 0.020430997 0.16703129 -0.074774094
-0.065770954 0.09788423 -0.07209041 -0.17785698 0.20860234 0.3123542 0.14719665 0.053826187
-0.07367009 -0.12443579 0.070397705 0.0047621117 0.18555462 -0.054195568 2.2049005e-38 0.29697946
0.23468709 -0.10071395 -0.054365423 0.0859414 0.12855138 0.3163294 -0.13920869 -0.04789153
0.13039833 -0.25790954 0.27407718 -0.12418754 0.028408354 0.10737265 0.023101646 0.32784832
-0.09573232 0.25487518 0.42283928 0.21113566 -0.0727066 0.18234733 0.29055402 0.122305855
0.1016275 0.21553019 -0.31669542 -0.15968296 -3.0892577e-06 0.12217992 -0.114768274 0.045059916
0.34740272 -0.19626124 0.14237013 -0.23717532 -0.24551044 0.04172152 -0.0056828125 -0.069712944
-0.10414162 -0.020702548 -0.031667247 -0.109164014 0.03257267 0.012536025 0.019022603 -0.30813
0.5223735 0.0023324403 0.10379148 -0.052972265 -0.09095205 0.049654484 -0.0368633 0.33289906
-0.28251263 -0.19972315 0.17901114 0.047711212 -0.042197958 0.07925513 -0.114454836 0.29017022
0.19800916 0.11279492 0.08045399 0.035269987 -0.017656285 0.16936591 -0.6375512 0.040402543
0.18626018 7.187555e-39 -0.040603593 0.046063434 -0.41025475 0.12789392 0.22053918 -0.09840159
0.04160373 0.0043467013 -0.13294105 0.088269666 0.02169573 -0.05731917 0.08084464 -0.054191668
0.85660535 -0.09435284 0.1185874 0.25787172 -0.4151919 -0.14193915 0.53494084 -1.147163e-39
0.14689891 -0.033654142 0.022933938 -0.20955715 0.28660357 -0.95033455 -0.07937719 0.23301175
-0.4066565 0.0019993316 0.027891077 0.089571394 -0.21777914 0.13246788 0.028950559 0.09430266
0.009572333 0.022558711 0.12881482 -0.0021781267 0.24140114 -0.39609995 0.13942084 -0.51528686
0.18259238 0.92152935 -0.16170922 0.5522013 0.021720847 0.14703898 -8.35542e-39 -0.26984647
0.1529931 0.07764705 -0.003270117 0.198326 -0.4272463 -0.3546799 0.21168071 0.15001836
0.0047005177 -0.11676616 0.13475896 -0.09726314 -0.08059817 0.001551857 -0.080094755 0.2729751
0.057526983 0.01917148 0.13321462 0.010748286 0.2688029 0.65175575 0.1567802 0.048279334
-0.10671023 0.08885823 0.0008482884 0.18557312 -0.00037388073 0.106414326 -0.20235041 0.0091891
-0.014070403 0.074463695 0.35963446 0.17483178 -0.105070956 -0.045103498 -0.4574063 -0.06292651
0.24481143 -0.009610363 0.50296295 0.024246389 0.24518007 0.007594753 -0.093130626 0.18155158
0.4099913 0.03559324 0.12782273 -0.99631417 -0.13882017 0.038151894 0.8206492 -0.100922644
0.30110824 0.12781042 0.1799167 0.059124265 -0.02183412 -0.08202751 -1.2383901 -0.15852094

feature.2.bias f4 [128]
00000000: 954b c0bd 7b32 a5be c81b 83ba 9770 37bd
00000010: 6d7b afbc fa59 01be 46d6 653e 0806 b9bd
00000020: efc7 723e 1cc1 833e 0cb4 0abc c97c 28bb
00000030: 24ea 8ebe 38da 83bc 1487 49be 2e7e a0be
00000040: 712f 6d3f 2395 409c 24eb 8b87 2fc5 5ebd
00000050: 1e58 febe 65ed 05bd 600b 9cbd 77a8 b9be
00000060: 3b24 0fbf 1a9c 0b3f 183f 98bc 06b8 18bd
00000070: 409a 1a3e 2f77 633e e4ac 3dbe 77c8 1b3f
00000080: 8922 33be 05ab fcbe da18 67be 31fd 43be
00000090: 943f 70be 1859 1f3e 9695 a3be 071e 203d
000000a0: b116 abbd b36d 09be e63c 6191 e4d5 7cbe
000000b0: e7c0 1a3e f1f6 66ba 4984 75be 4ad3 59bd
000000c0: e005 333f bbfd e3b7 7945 f83c da4c 08be
000000d0: a696 19b2 05dd 9cb3 f721 9ebe 9955 e9b8
000000e0: cd9a 6599 37b0 953c 606c ec3d 18ce d63d
000000f0: c2cb fbbc 911d bcb7 14f7 50bb d46c 06be
00000100: e7a5 4dbd cf0a 2bbe f8ce 14be 8703 19be
00000110: 7bb3 803e 1346 283f 9c7f 5c3e 640c 1ab6
00000120: 3f1d a8be 4f26 0d3d a05b 8ebe 29e5 4a3e
00000130: a5d1 00be bab9 42be 6fee dcbd 768a a29b
00000140: 0ff1 3297 0671 bdbd bb17 ccbe f9c6 7bb2
00000150: 4258 62be ecfd 30be ae2f 979b 9cc7 be3d
00000160: bdd1 4cba da8f 06be df13 6c3e 6bde e4be
00000170: b4a7 7b3e 2b3b 99be dd9e 52bc b45b 58b8
00000180: 2d3c a73b ee51 b0bd 7ce5 16be 5ef5 ce3d
00000190: 83f0 3bb4 7f6a 3a3e 7688 fcb3 d272 5fbe
000001a0: b25c 363e 7a49 29be e978 02a9 faa5 4bbe
000001b0: f331 24ba e92b 043d 812b 863d 2cae b2bc
000001c0: 0018 8c3c 95a7 09be ec34 293c e274 26be
000001d0: 1a66 773e 4d20 41bd dd1f 75bd 3805 e6be
000001e0: 33a3 8f3e d3a8 45be f25a 98ba bb0e 043f
000001f0: 0317 8aba a29d 95a5 121a cbbe c1e4 ed3d
-0.09389416 -0.32265076 -0.0010002786 -0.04478511 -0.021421159 -0.1263198 0.2244502 -0.090343535
0.23709081 0.25733268 -0.008465778 -0.0025709143 -0.2791301 -0.016095266 -0.19680434 -0.31346267
0.92650515 -6.3720226e-22 -2.1052599e-34 -0.054387268 -0.49676603 -0.0326971 -0.07619357 -0.3626134
-0.5591466 0.5453507 -0.018584773 -0.037284873 0.15097904 0.22213434 -0.18522984 0.6085276
-0.17493643 -0.49349228 -0.22568074 -0.19139554 -0.23461753 0.1556133 -0.31950063 0.039091136
-0.083539374 -0.13420753 -1.7768136e-28 -0.24690968 0.15112649 -0.0008810601 -0.23976244 -0.053180017
0.6993084 -2.7178661e-05 0.030306565 -0.13310567 -8.940026e-09 -7.304519e-08 -0.30885288 -0.000111262496
-1.1870284e-23 0.018272502 0.115441084 0.10488528 -0.030736808 -2.2425114e-05 -0.0031885551 -0.13127452
-0.050207045 -0.16703342 -0.14532077 -0.14942752 0.25136933 0.65731925 0.21533054 -2.2955e-06
-0.32834813 0.034460362 -0.2780428 0.1981398 -0.12579973 -0.19016162 -0.10787665 -2.689013e-22
-5.781916e-25 -0.09250073 -0.39861855 -1.4655364e-08 -0.2210398 -0.17284364 -2.5011667e-22 0.09315416
-0.0007813236 -0.13140813 0.23054455 -0.4470094 0.24575692 -0.29927954 -0.012855259 -5.158382e-05
0.005103609 -0.08609377 -0.14735979 0.10105394 -1.750323e-07 0.18204688 -1.17594865e-07 -0.21821144
0.17808798 -0.16531935 -2.897067e-14 -0.19887534 -0.00062635465 0.03226844 0.065512665 -0.021811567
0.017101288 -0.13442834 0.010327559 -0.16255525 0.24160042 -0.047149945 -0.05984484 -0.44925857
0.280542 -0.19302683 -0.0011623784 0.51584977 -0.0010535422 -2.5954196e-16 -0.39668328 0.11615897

advantage.0.weight f4 [64, 128]
00000000: e78c 893d 0171 8d3f e29d 08b9 1015 b63e
00000010: d82e 0d3f 75ca b63e d50c 3c3e 5eb6 623d
00000020: fc73 d03e 4018 d1be 741b 8333 dfca 8fba
00000030: 9e7d 2d3e 1ba1 2ebf 0eab 7c3f 36dd cd3d
00000040: 4c8e d43d f20f 1d00 19bd 1980 e1d2 83bc
00000050: 0016 31be db81 aebe ec41 983c c3e8 423d
00000060: 9ba3 19bd 3f5f 843e eb51 023d 898b 4b3c
00000070: 07a4 17bf 309a bbbe 6bf5 243f 47a1 583e
00000080: 86c9 7bbe 54a0 743e 2d10 5f3e 39fd 01bf
00000090: 5f42 163f 6b83 e3be 2070 e13e 95b6 663e
000000a0: 899d 223f 4394 013e b9e3 0400 0137 5c3c
000000b0: d58a 283f b9fb dab7 accb 203e 31c8 afbe
000000c0: 5c8c 95be c1b9 4181 c3f0 943e 34c9 adbd
000000d0: 0d31 0f80 4696 da86 b0bf 6b3f b352 5c34
000000e0: 74a0 fb8d 03c7 bebe 022c 463d 80fb a2be
000000f0: 6ede 49bc 8620 b234 5409 223d c685 c43d
00000100: 5a10 603f fe16 d7be bde0 073f 63ae 79be
00000110: e6e3 073f c4e0 abbe 9b00 43bf b4e7 2408
00000120: 7589 ca3b 6e36 28be 06e3 b73d 607c 1d3e
00000130: 5fe1 73be 8441 863d d9d4 943e 7741 0800
00000140: ebf7 fb8a 5a5a f4bc afb7 d2bd aefc d398
00000150: f15d b9be a9f8 febd dd54 1500 4aca 9dbe
00000160: 2768 d236 a773 d83d 9335 983d 6a1d bbbc
00000170: ee6d af3b e735 9bbe 5cee 90be d3e4 6735
00000180: 277d c9bd 2cec b2be 6368 ddbe 6dc3 703c
00000190: 57c5 3fb3 5b60 e4be a3e9 122a c312 1abe
000001a0: 2be3 c4be 6850 9f3e 9cb1 5199 ff43 853e
000001b0: 908f d318 47b9 13bf 9d50 d5bd 2533 bbbc
000001c0: c4b9 eabc a6af 6fbd 43c5 c93e be54 9e3e
000001d0: 760e 3cbc cacc 6bbe 68e9 dd3b d8d0 5cbf
000001e0: 6c19 2bbd 6341 a6bd 071e a83d 97bf 383e
000001f0: aff8 37af 73ff cb80 b591 82be e773 2dbf
00000200: 73c7 38bb 5a07 7fb9 801b 8500 4266 0fba
00000210: b376 03b8 7178 a4b9 97db a4b9 c94b f7b5
00000220: 1c22 c8b9 e70b 11ba 2e66 0281 f027 2281
00000230: 2c46 69b5 572a fdb8 b0fd 22b9 538f 39b3
00000240: 2b46 33bb 88ab f000 18ad a600 84f2 4d01
00000250: c64e 78ba fc6e 87b7 4884 ba00 af7a 2c32
00000260: cb14 49b6 0a2c d4b9 3633 deb9 5810 c0b7
00000270: 450e b2b7 3b14 8db6 e8f2 95ba 0948 7ebb
00000280: 4e95 79ba 16d2 09b5 def0 abb9 cf60 d0b8
00000290: 9439 98ba 09cf 6bb9 ce95 fb33 844f f6ba
000002a0: 8aa7 30bc c738 2cb8 34ec 3200 903b ccb5
000002b0: 6d62 46ba fc24 5a80 666c 51b9 6728 01b8
000002c0: a41a 60bb 2e1b 0100 28c8 69bb 302b e7b8
000002d0: 7ef2 0001 57cc cb81 85f1 8ab2 249f 8f80
000002e0: 30f7 ea80 6eb7 c7b9 5386 d5b7 d7dc fa28
000002f0: e4f0 5580 5056 a180 4699 d6b6 f222 92b9
00000300: b62c 73b7 4796 d8b9 f7b9 27b9 52d5 06ba
00000310: 6346 8db7 bd97 00bb 94f3 b2b8 20f8 b500
00000320: f912 feb7 0b3d 24b9 901f 12b7 daeb 5ab8
00000330: 9b67 67bc b8ab 4ab8 4a75 43b8 ded0 5800
00000340: 94e4 2a80 442f 1abb 8cdf a5b8 52ef 1500
00000350: aeb7 7faf abbc 0bb9 10ec 4400 dadb 53b8
00000360: 06a6 2380 6f3b a1b9 2447 0db6 2ab9 bfb7
00000370: 26f4 c7bb 7129 3eb9 b347 81bb e46c 8a81
00000380: f109 29b8 01a0 66b6 f1bf fab3 a9e2 b5bb
00000390: 7c8a 8500 ac06 c7b5 14f3 f100 55c9 f2b7
000003a0: 517e e9b7 66bb efba 204b 8a01 d92d fcb7
000003b0: d0ce 9780 178a 70b7 027d 0bb5 eeee b800
000003c0: d2d5 15ba 6174 b2b8 c49b 55bb 9b24 14ba
000003d0: 0979 bcb8 d6ce fbb7 0674 6eb7 fe83 70b7
000003e0: 4762 13bb 87af 1cb5 f229 84b9 b21e efba
000003f0: 70d0 6b81 0402 5e00 c6c4 ae27 2808 0ab6
0.06716328 1.1050111 -0.00013028787 0.35562944 0.551496 0.35701337 0.1836427 0.0553497
0.4071349 -0.40838814 6.1051566e-08 -0.0010970494 0.1694245 -0.6821458 0.9869851 0.10051958
0.103787035 2.66895e-39 -2.363723e-39 -0.016091766 -0.17293549 -0.34083447 0.018586121 0.04758526
-0.037509542 0.25853917 0.031816404 0.0124234045 -0.5923466 -0.36641073 0.6443698 0.21155272
-0.24588594 0.23889285 0.21783514 -0.5077701 0.58695024 -0.444362 0.44030857 0.22530587
0.6352163 0.12654214 4.49033e-40 0.013440848 0.6583684 -2.6104843e-05 0.15702695 -0.3433242
-0.29208648 -3.5581773e-38 0.29089937 -0.08485642 -1.395129e-39 -8.2223293e-35 0.92089367 2.0519182e-07
-1.5507697e-30 -0.3726121 0.048381813 -0.31832504 -0.012321098 3.3178748e-07 0.039559677 0.09595828
0.8752495 -0.4200973 0.530773 -0.2438293 0.5308212 -0.3356992 -0.761728 4.962432e-34
0.006180937 -0.16427013 0.08978848 0.15379477 -0.23816441 0.06555465 0.2906864 7.58168e-40
-2.4263677e-32 -0.02982824 -0.10288941 -5.4797363e-24 -0.36204484 -0.12449772 1.958989e-39 -0.30818397
6.2706126e-06 0.10568934 0.074320935 -0.022841174 0.005353681 -0.30314562 -0.28306854 8.638719e-07
-0.09838324 -0.3494581 -0.43243703 0.014695031 -4.4650132e-08 -0.44604763 1.3048464e-13 -0.1504622
-0.38454565 0.31116033 -1.0840915e-23 0.2602844 5.4687183e-24 -0.57704586 -0.104157664 -0.022851536
-0.028653033 -0.05851712 0.3940831 0.30924028 -0.011478057 -0.2302734 0.006772209 -0.8625617
-0.04177229 -0.0811794 0.08208852 0.18041836 -1.6732103e-10 -1.8734244e-38 -0.2550179 -0.6775498
-0.0028195053 -0.00024321434 1.2223986e-38 -0.00054702547 -3.134338e-05 -0.00031370253 -0.00031444125 -1.842499e-06
-0.00038172386 -0.00055330846 -2.395054e-38 -2.9783355e-38 -8.690138e-07 -0.000120718665 -0.0001554403 -4.320402e-08
-0.0027355056 2.2102053e-38 1.5306787e-38 3.782655e-38 -0.00094721874 -1.6144935e-05 1.7128856e-38 1.0039613e-08
-2.9963437e-06 -0.00040468603 -0.00042381295 -2.2895794e-05 -2.1225898e-05 -4.2044826e-06 -0.001144019 -0.003880026
-0.00095208443 -5.134219e-07 -0.00032795122 -9.936245e-05 -0.0011613839 -0.00022488473 1.17153476e-07 -0.0018792008
-0.010782132 -4.1060874e-05 4.676509e-39 -1.5216519e-06 -0.0007567767 -8.278462e-39 -0.00019972175 -3.0793624e-05
-0.0034195567 1.01586e-40 -0.003567228 -0.00011022983 2.3683867e-38 -7.4863636e-38 -1.6175145e-08 -1.3189565e-38
-2.157818e-38 -0.00038092904 -2.5454128e-05 2.785135e-14 -7.892432e-39 -1.4816478e-38 -6.3955404e-06 -0.00027873326
-1.4494339e-05 -0.00041310696 -0.00015995638 -0.00051434815 -1.6841286e-05 -0.0019621693 -8.5330714e-05 1.6711235e-38
-3.0287994e-05 -0.00015662999 -8.709627e-06 -5.2194904e-05 -0.014123823 -4.832048e-05 -4.6600857e-05 8.156451e-39
-3.939089e-39 -0.0023526708 -7.909452e-05 2.014397e-39 -2.3257371e-10 -0.00013326357 6.329497e-39 -5.0511073e-05
-3.2738e-39 -0.00030752594 -2.1052047e-06 -2.2855198e-05 -0.006102103 -0.0001813525 -0.003945315 -5.0849444e-38
-4.0302e-05 -3.4365805e-06 -1.1676446e-07 -0.0055507016 1.22638e-38 -1.4828597e-06 2.2219555e-38 -2.89424e-05
-2.7834585e-05 -0.0018290102 5.0800993e-38 -3.006209e-05 -1.394135e-38 -1.4337266e-05 -5.1963445e-07 1.6983443e-38
-0.00057157606 -8.509379e-05 -0.0032594064 -0.00056512066 -8.987083e-05 -3.0017847e-05 -1.4212919e-05 -1.4335847e-05
-0.0022488998 -5.8369955e-07 -0.00025208254 -0.0018243401 -4.331223e-38 8.63326e-39 4.8508044e-15 -2.056835e-06

advantage.0.bias f4 [64]
00000000: 390e 363e 04a3 f0bc f67a 3fba cc2e c33c
00000010: c3a0 ddb8 4402 fe3d 2ea9 edbd 9eab 8ca7
00000020: 95bc 83bd 4a63 d93d b761 76bd b61c 9395
00000030: 8a1a 0d3e badd dbbd 8a95 68bc b558 9ba8
00000040: bdf7 a9b9 94b9 fe3d 5734 8d3e 4bb5 c2bb
00000050: c378 09be b50c f93d 1cf0 c2b6 7aea 393e
00000060: a82d 61b7 43c4 afbd abac edbc 26ba eebc
00000070: 2d44 0bbb babc 2dbe d022 983c b15a 3cb1
00000080: c042 a7bd 73d7 80be f12a cb3d 116e 4e3e
00000090: 3968 b7bd 0b7c 1ab9 b300 899f f429 893c
000000a0: 9748 9395 9ba8 2dba 25ee f7bd bc1a 06be
000000b0: e646 19af 9f07 ec3e 85cb eea5 1938 ccbb
000000c0: 675b a63b 7645 a0bc 00bf b9bd 6dc6 10af
000000d0: 309a 7b3e eba6 843e f286 58bb 2af9 68bd
000000e0: fbdf ab3e 951f 1c3d eb04 e1ba 64c5 c1bb
000000f0: 7490 6e3e 2b8c 4abe 2990 5b3e 6781 9dbd
0.17778863 -0.029374607 -0.00073043944 0.023826025 -0.000105680454 0.12402776 -0.11604534 -3.9043874e-15
-0.064324535 0.10614641 -0.060151782 -5.9418125e-26 0.13779655 -0.1073565 -0.014195809 -1.7246927e-14
-0.0003241877 0.1243774 0.27578995 -0.005942022 -0.13424973 0.12160627 -5.809603e-06 0.18155852
-1.3421675e-05 -0.08582356 -0.029012999 -0.029141497 -0.0021250353 -0.16966525 0.018571287 -2.7409153e-09
-0.081670284 -0.25164375 0.099203 0.20159175 -0.08955426 -0.00014732794 -5.8022914e-20 0.016743638
-5.9487354e-26 -0.00066245504 -0.12105969 -0.13096136 -1.3940457e-10 0.46099564 -4.142433e-16 -0.0062322733
0.005076814 -0.019564372 -0.090696335 -1.3167219e-10 0.24570537 0.25908598 -0.0033039418 -0.056878246
0.3356932 0.038116056 -0.0017167603 -0.0059134234 0.23297292 -0.19780032 0.21441711 -0.07690697

advantage.2.weight f4 [36, 64]
00000000: d34b bb3e 7ea7 893c 3781 94bc a4a7 883e
00000010: 1094 d138 72ae 92be 04ee c53e 5ca8 e92b
00000020: 6e7f 473e 37d6 2d3f 9468 b33e a50f 5d28
00000030: cf68 393e 07e5 383c e58d d43c 1e72 1837
00000040: 5b8e 0aba 336f dfbd 4784 323d d3e1 143d
00000050: 55f3 d83d 4d30 4dbe f0d4 5c35 7507 33be
00000060: 7ca3 14bc 01f1 473e 6a41 adbd 5c5f 03bd
00000070: ea77 0ebc c635 613e f580 e93d 634b b7b8
00000080: 018f 4b3d 259d c03e bb61 2f3e 6b09 9dbe
00000090: b82a 9b3e 8be9 abba 049b 85a3 1357 063e
000000a0: 9727 311e 4f63 ff3a 9b1e 6d3e b40b 6e3e
000000b0: 788b 66af 3b70 c9bf 9400 23b6 a21c b83e
000000c0: ccd3 b1bd 41f6 19bd cd10 cc3e 25c6 36b9
000000d0: cde7 04be d4c5 61be 3abd c7bc 029a cfba
000000e0: 0037 af3d 882c 093e 1cab caba 0cc4 c43e
000000f0: 2158 c7bf ea0e 863e 385d 16be 3f32 913e
00000100: 6c8b a83d bc34 89bc d821 1db9 1331 9dbd
00000110: 9e51 8338 f4f3 cabe 0281 763e 0f03 530a
00000120: 1593 503e 4fcb ea3e 2871 213f 8176 0301
00000130: a95c 2c3e 3bf6 4abe e1eb 8a2e 6b48 6580
00000140: 044b 2c2b 3d87 c2be 94d3 9a3e 2abb bbbc
00000150: 33bc c93e cd45 a23d fafa 8d2c 6518 afbe
00000160: 3c8b ff36 467b 843e e1a1 05be 6691 91bc
00000170: b4d3 97b7 8903 acbd 4276 9abe 91c3 e434
00000180: 0f77 f2bd 78bd 14bf 0097 9abf 8eba 89bd
00000190: 680d bfbe 3919 9ab5 5481 3180 a56f f4be
000001a0: 25a5 ad80 5bcd 8736 c14c 633d c0fb 07be
000001b0: fc75 dd36 c421 2bbf 398e 7523 ff8d 9bbd
000001c0: e8f7 483e 889c 1c39 d670 bc3f fa83 e718
000001d0: 8bba 36be ad0d a3be 4d1c 6fb9 93e4 9abe
000001e0: 738b c4bd f1dd 1d3e 64fc 79b9 97c1 783f
000001f0: 2341 26bf bc3f b6bc 3d83 df3e 0a61 dfbf
00000200: 5ce2 a7be 2aee 803c a4fb 3d3b f974 67bf
00000210: 0e97 26b9 b0a7 39bd 787b 603e f099 4da5
00000220: 2702 b23a 08cc 8e3e d48a 083f cf39 a3a5
00000230: 5d25 9e3e 7f1d 1bbe 72cb 22b5 f7aa 4f23
00000240: 30fb 7035 de2a 6b3b 92ac a83e a0df c13b
00000250: 60a8 e33e 549f 0c3e 3043 26b6 196b 41be
00000260: af2a bc36 ae58 953e 68ea 643e 825a fb39
00000270: c80d 06b8 4042 2dbd 6c3e 11be 2d78 65aa
00000280: fae0 0a3d 5b2c cd3d 91d7 23be ce0f 9cbd
00000290: 0f85 69bf 4418 613a 6d93 1c00 5fe3 173d
000002a0: a828 2080 4012 fa37 5187 833e 7cae 9a3e
000002b0: fd0b 5db4 86e7 cdbe 78eb 9810 98aa 4f3e
000002c0: 4dd2 8d3e 2b28 0c3b c908 ea3c c232 4e1e
000002d0: 1a93 47c0 1762 043e 631d 4239 506d 9bbd
000002e0: c069 d43d 00f1 8ebe 9639 d4ba 4258 46be
000002f0: 5947 babc ea35 a53e eb05 e83e 0052 8ebd
00000300: 0a25 9fbe 146c 8d38 5a4f 413c 1a7b d3bf
00000310: f5ff 3a39 c569 db3e 836f 0e3e b015 d1ae
00000320: 1f14 bb3b 204a b73d 52a4 2a3e 2893 d118
00000330: 0a64 d63e 5b2f adbe 652e 38b9 7cb1 a51f
00000340: be1e cead 133f 853e 36f3 0b3f 8312 a93b
00000350: 5970 1b3f f9ef d63d 336e 2033 9e19 04bf
00000360: 5754 a828 f9ff 983e e7bd 8b3e 6a43 31bb
00000370: 075a c1b9 caf9 33be f228 ddbd a3df 22af
00000380: 172a 563e c7c8 273f 4983 7f3d b02d 45be
00000390: fe40 d1bf fe20 413a fa1e 2880 f6d0 4abc
000003a0: e656 0b00 9839 8139 e760 c3be d01f 2cbe
000003b0: 5778 1437 6834 afbd a0ae 8a80 9e0e abbe
000003c0: d636 f93e 45f2 7bbc 4b0e 153e e94a 5e00
000003d0: c2eb 4abe 9ecc 9b3e 353f 58bb dba7 783d
000003e0: 3851 8fbe 35a4 9fbf 0f99 573b f898 ddbf
000003f0: ef32 ef3e 6569 d93d 47ac 493f 22d0 f0bd
0.36581287 0.0168035 -0.01812802 0.266904 9.9934754e-05 -0.28648716 0.38658154 1.6602375e-12
0.19482204 0.6790499 0.35040724 1.2271357e-14 0.18106388 0.011285073 0.025946567 9.086476e-06
-0.0005285495 -0.109098814 0.04358318 0.036348175 0.10593287 -0.20037957 8.226625e-07 -0.17483313
-0.009072181 0.1952553 -0.08459742 -0.032073364 -0.008695582 0.21993169 0.1140155 -8.740162e-05
0.049696926 0.37619892 0.17127125 -0.30671248 0.3030603 -0.0013115866 -1.448554e-17 0.13119154
9.378489e-21 0.0019484552 0.23156206 0.23246652 -2.0967927e-10 -1.5737375 -2.428923e-06 0.35959345
-0.08682975 -0.03758836 0.39856568 -0.00017430687 -0.1297905 -0.22048122 -0.024382222 -0.0015838745
0.08555412 0.13395894 -0.0015462372 0.38430822 -1.557377 0.26183254 -0.14683998 0.28358647
0.082297176 -0.016748779 -0.00014985295 -0.07675376 6.261769e-05 -0.39639246 0.2407265 1.0159856e-32
0.20368607 0.45858237 0.6306329 2.4145922e-38 0.16832222 -0.19820492 6.317414e-11 -9.301364e-39
6.121078e-13 -0.37993804 0.30239546 -0.022916395 0.39401397 0.0792347 4.035325e-12 -0.341983
7.615801e-06 0.258753 -0.13050033 -0.017769527 -1.8099185e-05 -0.08399112 -0.3016835 4.2610603e-07
-0.11839115 -0.58101606 -1.2077332 -0.067250356 -0.37314916 -1.1481235e-06 -4.546334e-39 -0.47741428
-1.5946784e-38 4.04722e-06 0.05549312 -0.13279629 6.6000484e-06 -0.668484 1.33115934e-17 -0.07595443
0.19625819 0.00014935632 1.4721935 5.9845363e-24 -0.17844598 -0.3184637 -0.00022803359 -0.30252513
-0.0959691 0.15416695 -0.00023840513 0.97170395 -0.6494314 -0.022247188 0.43654814 -1.7451489
-0.32789886 0.015738565 0.00289891 -0.9041286 -0.00015887266 -0.045325935 0.219221 -1.7833072e-16
0.0013580964 0.27890038 0.53336835 -2.8315165e-16 0.3088788 -0.1514797 -6.0645755e-07 1.1257696e-17
8.9772493e-07 0.0035883705 0.3294416 0.0059165508 0.44464397 0.13732654 -2.4775036e-06 -0.18888511
5.6078056e-06 0.2916922 0.22355044 0.00047941884 -3.1960924e-05 -0.04229951 -0.14183968 -2.038098e-13
0.03390596 0.10018226 -0.16000201 -0.07620202 -0.91218656 0.00085866847 2.62428e-39 0.037082072
-2.95332e-39 2.981082e-05 0.25689176 0.30211246 -2.058659e-07 -0.402157 6.0316226e-29 0.2027992
0.2769951 0.0021386247 0.028568642 1.0916046e-20 -3.1183534 0.12928043 0.00018512229 -0.07589209
0.10371733 -0.27918243 -0.0016191478 -0.19369605 -0.0227391 0.32267696 0.45317015 -0.06949234
-0.31082946 6.743535e-05 0.011798704 -1.6521943 0.00017833694 0.42854133 0.13909726 -9.508072e-11
0.0057091857 0.08949685 0.16664246 5.4173824e-24 0.418732 -0.33825192 -0.00017564891 7.017384e-20
-2.343314e-11 0.26024684 0.54667985 0.0051596775 0.60718304 0.1049499 3.735313e-08 -0.5160159
1.8688323e-14 0.29882792 0.27293321 -0.0027048239 -0.00036878904 -0.17575756 -0.10798825 -1.4813266e-10
0.20914494 0.65540737 0.062381063 -0.1925571 -1.6347959 0.0007367282 -3.684532e-39 -0.012378922
1.041364e-39 0.00024647708 -0.38159868 -0.1680901 8.849506e-06 -0.085549176 -1.2735942e-38 -0.3340959
0.4867465 -0.015377586 0.14556234 8.65941e-39 -0.19816497 0.30429548 -0.0032996659 0.060706954
-0.27991652 -1.2471987 0.0032897627 -1.7312307 0.46718547 0.106158055 0.787785 -0.11758448

advantage.2.bias f4 [36]
00000000: 71d1 c1be b9ed d23d b95d b2bd b373 623d
00000010: 7879 20bb 964e bdbe 951b 543e 5552 53bc
00000020: 15b2 243e 52cc ca3c 354e 893e 12f0 72bb
00000030: fb89 4fbc c266 1dbe deb0 d83d 0e95 7c3d
00000040: 4901 093e 8bfc dbbd 2142 2d3c d960 cebd
00000050: f55d 313e 3796 153e ac02 583e 3392 5dbd
00000060: f3ca 773e 8d88 853e d015 5f3d 7015 08be
00000070: 8519 2e3e cdf5 813d 72d3 28bf 948e cf3d
00000080: b0d5 913e 138b c2bd fb73 ecbd bc40 013f
-0.37855104 0.10299248 -0.087092824 0.05528612 -0.0024486464 -0.3697402 0.20713647 -0.012898047
0.16083558 0.02475563 0.2681748 -0.0037069363 -0.012667174 -0.1537123 0.1058061 0.061665587
0.13379396 -0.10741528 0.010574848 -0.10077066 0.17320998 0.14608084 0.21094769 -0.054094505
0.24198513 0.26080742 0.05446416 -0.13289428 0.17001922 0.06345711 -0.6594764 0.101346165
0.28483343 -0.094991826 -0.11545559 0.504894

value.0.weight f4 [64, 128]
00000000: 70a4 1900 06c1 2000 1a74 9a80 bc5a 0c01
00000010: b8f0 5e80 389b 9100 0c2c ae00 fa48 8380
00000020: b09e 7d01 8c31 8f01 aeb8 ed01 a04c 9980
00000030: d8d2 9080 9e86 e280 2606 4180 748d 6680
00000040: 70f7 d400 a438 2f01 9a17 d000 6ae8 b880
00000050: 90a9 8780 b046 3600 804e 3300 c4f3 5380
00000060: f4c2 1880 9040 3880 f445 3680 43ac 0d02
00000070: 9817 5a00 180b ee80 6481 f080 c82f 5b00
00000080: 284b 6500 80ab 1a81 f8b6 b080 908f ca00
00000090: 3294 4280 b02a fe80 722e 2f80 0c67 3a80
000000a0: 58e5 0d80 fceb a780 7457 eb80 4c63 df80
000000b0: a8e9 8d80 0470 9b01 06b1 2780 8cc6 dc80
000000c0: 0083 4680 a03f bf00 442a d700 e0a1 6100
000000d0: 7df8 8c01 546a 7d80 be4f 7500 fc1e f000
000000e0: ea02 1500 a8b4 8880 30a5 7200 9037 a080
000000f0: 4ecd a180 a06b 2180 287a 6701 3622 1980
00000100: aa1d 1e00 bafb 3880 3c24 9500 c4b8 7b81
00000110: 40f9 ac00 fbb1 9e81 3c5c 5481 4205 b800
00000120: b6f8 8a01 4c3c c701 4079 4a80 667e f800
00000130: 447a 9480 0ec6 de81 de5d d581 f694 f980
00000140: f0b6 dd81 468e a281 1ee9 c700 a415 5100
00000150: da4b ae81 227f 4e80 7c7c bf00 b031 8180
00000160: adf9 a401 dc8d 5901 d8d4 e000 14c1 f081
00000170: 4e09 af00 82d7 7d01 7c70 3e80 8c95 1a80
00000180: 4c2f 9200 1477 2780 e07c a400 a38f fb01
00000190: 1ade be80 eaf1 8181 081d db00 740c 5180
000001a0: 4cf1 6581 56b0 3400 846a 8200 60c6 7f00
000001b0: 9016 6d00 7cb5 b880 99a4 cc01 606b 6b80
000001c0: 644c e400 3c89 ac80 84b6 3280 a692 3e80
000001d0: f236 1f00 7ef7 d000 58a4 2e00 0465 a300
000001e0: b249 0380 a892 e180 cc46 d700 c417 e500
000001f0: f8fe 4d80 b0e8 c600 0668 8c00 c0d7 a980
00000200: 9c46 f280 7c88 8980 5ae7 d781 d87e 3980
00000210: da9e 6500 b412 7a80 a816 2280 b450 e880
00000220: 9804 2e00 08cb cc00 c087 e501 10fd aa80
00000230: a018 0d80 aa79 6100 60c2 c680 44ba 0181
00000240: b8a3 c600 3e96 6680 a058 8580 e722 8d81
00000250: 3867 2680 e814 b400 6c2d 6580 00f5 5880
00000260: 3a39 b101 32ff 4d00 e0d9 8800 0715 0001
00000270: e52d 0281 34fd 6381 c017 9b00 fe03 0301
00000280: 9c29 0401 d827 3280 6cee 4c01 a2c7 9b00
00000290: 7aa4 0f80 2ca3 a001 20dd 6700 5a00 1300
000002a0: 9255 0f00 787b 9500 c47d cd80 2c9d 4781
000002b0: 389f 4c80 0450 9c00 76e5 a800 a6af 0e00
000002c0: 7843 5000 e448 3f01 c245 9981 f0e4 0d00
000002d0: 18de 9a80 782a 5f00 e8e4 6e00 30e4 4700
000002e0: a82c 6780 4b41 ca01 da07 0002 32fa 0500
000002f0: 0c93 2200 18e6 3b80 788c 8400 78e1 5200
00000300: 2c1d f100 6c2b 6a80 0446 0780 12e7 1200
00000310: 0021 c780 f0f0 b980 bacb d080 7c20 1400
00000320: 883f 5381 4677 c980 5014 5301 2204 2500
00000330: 04a8 6000 b8a6 1c80 e829 c500 f8d9 e100
00000340: 84bf 4700 1478 3481 2acd 2000 2bdf e701
00000350: eae6 9480 0414 6f81 7a47 4300 b4e4 2b00
00000360: 8633 a480 6883 6500 a0db d800 48cf 7680
00000370: 5e86 fd81 c085 7980 a5d3 b901 d899 0182
00000380: 0c6f 9480 8dad bb81 64a7 3c80 e63b f900
00000390: 3ee3 cb00 5e9b f600 2861 8a00 b4ce 3e00
000003a0: c81f c880 dc77 2a00 600c 7980 623e 4f00
000003b0: f05c f201 466a 4e80 b42b 0b01 f873 0e00
000003c0: be37 c001 9a43 2e00 54f5 7100 246b 8d80
000003d0: aab0 2700 c4b9 ca01 6841 e100 4042 d680
000003e0: 52d6 0481 2ccc 1200 2cf6 b480 a8e2 2c80
000003f0: 80ee c501 e04c 3480 a0ca 8280 dc99 6880
2.354876e-39 3.00798e-39 -1.4184316e-38 2.5779038e-38 -8.71889e-39 1.3371829e-38 1.5995177e-38 -1.2056629e-38
4.6582614e-38 5.2601e-38 8.732505e-38 -1.4078319e-38 -1.3299948e-38 -2.0803114e-38 -5.971513e-39 -9.417964e-39
1.9557889e-38 3.218306e-38 1.911025e-38 -1.6981106e-38 -1.245862e-38 4.984475e-39 4.711771e-39 -7.709793e-39
-2.273988e-39 -5.165948e-39 -4.984211e-39 1.0408481e-37 8.273658e-39 -2.1860828e-38 -2.2086936e-38 8.374171e-39
9.302346e-39 -2.8408378e-38 -1.6228684e-38 1.8602271e-38 -6.114305e-39 -2.334153e-38 -4.33293e-39 -5.363425e-39
-1.276134e-39 -1.5421183e-38 -2.1612714e-38 -2.0514937e-38 -1.3032625e-38 5.709874e-38 -3.645088e-39 -2.0275034e-38
-6.475479e-39 1.7563404e-38 1.9759794e-38 8.966113e-39 5.178444e-38 -1.151758e-38 1.0773359e-38 2.2051634e-38
1.929591e-39 -1.2554435e-38 1.0528505e-38 -1.4713611e-38 -1.4859164e-38 -3.06918e-39 4.2515642e-38 -2.30816e-39
2.765706e-39 -5.23309e-39 1.3696487e-38 -4.6233982e-38 1.588512e-38 -5.8295423e-38 -3.9004425e-38 1.6899617e-38
5.1050077e-38 7.3187577e-38 -6.839323e-39 2.2820546e-38 -1.3635514e-38 -8.1834115e-38 -7.8378536e-38 -2.2920476e-38
-8.144508e-38 -5.9713554e-38 1.835889e-38 7.446438e-39 -6.4026347e-38 -7.208775e-39 1.7585236e-38 -1.1864604e-38
6.060235e-38 3.9958384e-38 2.0647505e-38 -8.843913e-38 1.607455e-38 4.662338e-38 -5.734153e-39 -2.44137e-39
1.342495e-38 -3.624302e-39 1.5105818e-38 9.2408947e-38 -1.7528419e-38 -4.7734246e-38 2.0122388e-38 -7.443143e-39
-4.223378e-38 4.838703e-39 1.1976825e-38 1.1734272e-38 1.0018163e-38 -1.6962836e-38 7.517395e-38 -9.864917e-39
2.0965897e-38 -1.5844936e-38 -4.657249e-39 -5.746408e-39 2.866611e-39 1.9190567e-38 4.283388e-39 1.5005423e-38
-3.01943e-40 -2.0715597e-38 1.9770029e-38 2.1038854e-38 -7.162799e-39 1.8266901e-38 1.2894286e-38 -1.5597595e-38
-2.224952e-38 -1.2630424e-38 -7.93105e-38 -5.280126e-39 9.33237e-39 -1.121064e-38 -3.130534e-39 -2.1334786e-38
4.226081e-39 1.8807275e-38 8.4316106e-38 -1.5702816e-38 -1.202695e-39 8.951688e-39 -1.8253157e-38 -2.3827197e-38
1.824216e-38 -9.421117e-39 -1.2245914e-38 -5.18453e-38 -3.526777e-39 1.6537889e-38 -9.29168e-39 -8.169413e-39
6.510165e-38 7.16288e-39 1.2567786e-38 2.3524973e-38 -2.3910157e-38 -4.187498e-38 1.4243022e-38 2.4063764e-38
2.4274424e-38 -4.606068e-39 3.7639942e-38 1.4306117e-38 -1.436536e-39 5.900886e-38 9.538381e-39 1.745e-39
1.408229e-39 1.3727781e-38 -1.8871393e-38 -3.6663293e-38 -7.036615e-39 1.4355042e-38 1.5510678e-38 1.348708e-39
7.371043e-39 3.5133456e-38 -5.630342e-38 1.275989e-39 -1.4222339e-38 8.739607e-39 1.018402e-38 6.602178e-39
-9.475076e-39 7.429677e-38 9.406208e-38 5.4893e-40 3.175157e-39 -5.500836e-39 1.2172676e-38 7.611394e-39
2.214282e-38 -9.75014e-39 -6.67965e-40 1.735931e-39 -1.8287102e-38 -1.7075999e-38 -1.9174867e-38 1.848363e-39
-3.880016e-38 -1.8501722e-38 3.8769153e-38 3.399396e-39 8.87648e-39 -2.631201e-39 1.8106626e-38 2.0741179e-38
6.589023e-39 -3.314693e-38 3.012335e-39 8.517623e-38 -1.367449e-38 -4.3911728e-38 6.178619e-39 4.03097e-39
-1.5079504e-38 9.322525e-39 1.9915254e-38 -1.0910947e-38 -9.313033e-38 -1.1160075e-38 6.826196e-38 -9.521574e-38
-1.363149e-38 -6.8941984e-38 -5.570178e-39 2.2888526e-38 1.8724125e-38 2.2647267e-38 1.2708152e-38 5.767952e-39
-1.83785e-38 3.900088e-39 -1.1116534e-38 7.277383e-39 8.903012e-38 -7.201292e-39 2.5561623e-38 1.327299e-39
7.0609647e-38 4.248684e-39 1.0465418e-38 -1.298724e-38 3.64496e-39 7.446964e-38 2.068645e-38 -1.9676562e-38
-2.4398338e-38 1.726282e-39 -1.6618699e-38 -4.122071e-39 7.27086e-38 -4.803023e-39 -1.2011303e-38 -9.606086e-39

value.0.bias f4 [64]
00000000: fc25 4c01 c646 df00 dac2 0280 58c2 2f80
00000010: d687 ca01 409e 7e00 4808 1780 980a 1400
00000020: e032 dc01 3cf1 1e00 d8ba 2181 803d 3500
00000030: 7880 9401 8000 1200 104f 8580 1696 e600
00000040: f2c5 3f00 625d ac00 8009 6981 6e9a 4700
00000050: b2e0 4b80 0cbe 0c00 1b4c ca81 9e48 bf01
00000060: 6026 7100 e0eb b781 946b 3600 a021 4000
00000070: 5a4a 1700 b480 4c80 7660 ff81 f6fd b180
00000080: 3068 0001 cc66 a480 3813 5280 24f2 f001
00000090: 76da d681 1239 6580 98b0 2d00 7edd bf01
000000a0: ec0b 4f81 a47c 4c00 fc2b 9300 acb6 0980
000000b0: 94d7 6180 5c85 3300 de59 d200 8658 4380
000000c0: be2e 0a00 9c0f 5400 30c7 ec80 5c31 9b80
000000d0: dc62 c280 f2b3 5880 ca2b 2200 f090 1080
000000e0: 12d4 1080 2c06 1680 4846 c200 6052 5200
000000f0: fcac f680 7c65 0080 a075 fb80 6a9d 1e00
3.7496135e-38 2.0504704e-38 -2.5357e-40 -4.385986e-39 7.4397996e-38 1.1628042e-38 -2.115187e-39 1.84051e-39
8.088824e-38 2.841603e-39 -2.9705084e-38 4.889343e-39 5.455096e-38 1.653218e-39 -1.2242483e-38 2.1176005e-38
5.856646e-39 1.5829205e-38 -4.2802157e-38 6.575719e-39 -6.968268e-39 1.170202e-39 -7.4312287e-38 7.026652e-38
1.0391177e-38 -6.756205e-38 4.997709e-39 5.889534e-39 2.138889e-39 -7.025668e-39 -9.381062e-38 -1.6345987e-38
2.3584638e-38 -1.5097898e-38 -7.537405e-39 8.850953e-38 -7.892466e-38 -9.295858e-39 4.195947e-39 7.0480145e-38
-3.802845e-38 7.02421e-39 1.3515597e-38 -8.9205e-40 -8.985378e-39 4.73145e-39 1.9317692e-38 -6.184734e-39
9.35123e-40 7.719781e-39 -2.1744632e-38 -1.4252209e-38 -1.785155e-38 -8.146076e-39 3.138115e-39 -1.521362e-39
-1.545444e-39 -2.022595e-39 1.7841298e-38 7.560061e-39 -2.2653587e-38 -3.6406e-41 -2.3092905e-38 2.811534e-39

value.2.weight f4 [1, 64]
00000000: faa8 4780 4b4c e481 0ce8 3101 628e 2400
00000010: f8ff 1200 1cec af81 ca3f c481 9351 a080
00000020: 5747 0a80 d280 2880 cef9 9500 2491 3680
00000030: 98e2 9c00 b855 6d80 3012 2c00 be04 3900
00000040: 08f3 0401 44c6 3d00 d844 2f00 89c5 9600
00000050: c87e d100 4620 0580 c467 cc00 f8fb 3d00
00000060: 301a e381 28b9 f200 ce62 6880 988d 5a80
00000070: 600b d900 f065 3780 0420 2b80 2c17 f780
00000080: 0547 9b00 6096 3f00 6b38 2700 58bb 0401
00000090: 8802 4500 37b6 2e80 914b 3580 1288 9b00
000000a0: 44ee 3400 f2ae b480 c4bc 2f00 a0f1 7580
000000b0: 1986 7080 7ed6 2d00 d8c8 8280 2cc9 7c00
000000c0: 97f2 9a01 afea 3b00 70b8 0101 12ce 6d80
000000d0: b27e 2e00 bc3a b501 4f24 4480 32d9 7080
000000e0: 3094 2300 4cc2 e700 42ae af00 180b aa80
000000f0: f007 c780 c6aa ab80 081a 5300 a0cc d581
-6.580938e-39 -8.386345e-38 3.267625e-38 3.357155e-39 1.744863e-39 -6.462365e-38 -7.209056e-38 -1.4722943e-38
-9.43947e-40 -3.719632e-39 1.3773102e-38 -5.011183e-39 1.4407624e-38 -1.0040819e-38 4.047286e-39 5.236324e-39
2.4418937e-38 5.67309e-39 4.340965e-39 1.3846187e-38 1.9239099e-38 -4.70755e-40 1.8771665e-38 5.692355e-39
-8.342421e-38 2.2290612e-38 -9.586336e-39 -8.315989e-39 1.9932383e-38 -5.08752e-39 -3.960411e-39 -2.269168e-38
1.4259979e-38 5.83958e-39 3.601823e-39 2.4378984e-38 6.337557e-39 -4.289799e-39 -4.89439e-39 1.4283315e-38
4.86092e-39 -1.6593148e-38 4.383985e-39 -1.0831432e-38 -1.0333681e-38 4.209543e-39 -1.2010664e-38 1.1459768e-38
5.6918765e-38 5.502483e-39 2.3825885e-38 -1.0083993e-38 4.269883e-39 6.657318e-38 -6.257839e-39 -1.036349e-38
3.267402e-39 2.12837e-38 1.6133724e-38 -1.5616014e-38 -1.8278111e-38 -1.5765132e-38 7.631684e-39 -7.8537465e-38
