pre-trained/ddqn_dnn4000.pth (torch_old, 650004 bytes, 44 tensors)

feature.0.weight f4 [128, 36]
0.03428395 -0.10471722 -0.037870944 0.20068857 0.17791659 0.26023114 -0.23198631 0.24766025
0.081915334 0.1361487 0.5357587 0.051814184 -0.10133834 -0.008226641 0.031564113 0.1360632
-0.011897912 -0.12238372 -0.044250652 -0.12119985 -0.06030738 -0.44367236 0.08120605 0.08439774
-0.02796171 0.024369247 -0.016769532 -0.27327386 -0.29789785 -0.42537805 0.09613167 0.069491155
-0.1871087 -0.03278849 -0.3564173 -0.21509984 -0.009817713 0.10573195 0.076156706 0.058695804
0.12927386 0.028870316 0.082498714 0.0614864 0.07465657 0.02260845 -0.056718323 0.040929724
0.0077847806 -0.03650248 0.04553264 0.043242883 0.0063336957 0.0011145254 0.10655769 0.08145076
-0.121928014 0.09514048 0.13189796 -0.0039271163 -0.6871995 -0.5286158 0.1603926 -0.05546296
0.051523056 0.05407259 -1.056456 -0.46416885 0.32152718 0.07181817 -0.10702211 0.067012936
0.10838936 -0.09631928 -0.09953061 -0.014195688 0.2601282 -0.09778218 0.14346439 -0.24626085
-0.10689356 -0.09405521 -0.14106324 0.46503255 -0.17868286 -0.5623355 -0.19022349 -0.34881318
0.121624455 0.16274358 0.35173336 0.56133467 -0.20688619 -0.085480936 -0.01717456 -0.041876458
0.22329995 0.18296051 0.12884413 -0.24349071 0.015703142 -0.036074508 0.02633062 -0.13603465
0.022368586 -0.049850803 0.079701096 0.104845315 0.22221267 0.34608042 -0.037776385 0.010802938
0.24448884 -0.33646235 -0.14134303 -0.5739172 0.0126735 -0.020012245 -0.22009592 0.2136844
0.00866007 0.015162226 -0.017091403 0.06350487 -0.068983026 -0.08409909 -0.10293848 0.009494716
1.0710211 -0.08075031 -0.20702988 0.25607216 -0.11752451 0.04573186 -0.0074201506 -0.003863866
-0.15831752 -0.15887094 -0.0094010485 -0.12899761 -0.05606048 -0.06092071 -0.07194076 0.14171782
-0.16964461 -0.23936437 -0.24999924 -0.14486521 -0.16876218 0.03785437 -0.15821481 -0.10261348
-0.31442103 -0.14619516 0.18455084 -0.07924055 -0.11599577 -0.09243555 -0.3471167 -0.41520476
0.035739187 -0.0063989977 -0.14311422 -0.16717672 -0.1308007 -0.3272082 -0.27618498 0.2152443
-0.14802992 -0.052334897 -0.13483773 -0.17866178 -0.03402613 0.29970562 -0.2080706 -0.081330225
0.27884984 0.43020865 0.49488536 -0.05349174 0.14973736 -0.0027962797 -0.027933085 -0.25147405
0.04827229 -0.4815238 0.052363686 0.03409001 0.073515475 0.07139229 0.19914986 0.008128216
-0.026086824 0.3509128 0.30887112 0.046811 0.079926245 0.022649694 -0.06536749 0.093583904
0.20537126 -0.0107558975 -0.18009086 0.13431306 -0.18550836 -0.10997504 -0.2685012 -0.19510214
0.106811315 -0.00977388 0.74801856 -0.3971867 -0.10413266 -0.2932437 -0.115113355 0.47206602
-0.18357743 0.11676017 -0.042830057 0.22423802 0.16363002 0.14131153 -0.065108925 0.0070892586
-0.0072320057 -0.124343306 0.029223768 0.5124734 -0.06438393 -0.0729769 0.12606679 -0.109654985
-0.083681874 -0.50502926 0.04378299 -0.004302071 0.10470217 0.3249361 -0.0818826 0.39355558
0.032826252 0.04031742 -0.041373268 -0.24262156 0.05938707 -0.5817893 0.075265 -0.12587495
-0.1870011 -0.095262356 -0.20686932 -0.13771138 -0.18122424 -0.11916069 0.09092358 0.1631057
00000000: 546d 0c3d fb75 d6bd 901e 1bbd 4e81 4d3e
00000010: c42f 363e 043d 853e d28d 6dbe a69a 7d3e
00000020: 3ac3 a73d 916a 0b3e 7b27 093f 1c3b 543d
00000030: 7a8a cfbd 09c9 06bc 5f49 013d 2754 0b3e
00000040: 76ef 42bc 51a4 fabd 2c40 35bd a137 f8bd
00000050: df04 77bd 0629 e3be 5c4f a63d b9d8 ac3d
00000060: f50f e5bc 04a2 c73c 4260 89bc 8dea 8bbe
00000070: 1186 98be 27cb d9be aee0 c43d 6151 8e3d
00000080: 6c99 3fbe 394d 06bd 547c b6be 2243 5cbe
00000090: 79da 20bc fe89 d83d 0cf8 9b3d 036b 703d
000000a0: 5e60 043e 7181 ec3c 16f5 a83d 2ad9 7b3d
000000b0: 8be5 983d 5b35 b93c 7951 68bd eda5 273d
000000c0: 7917 ff3b a083 15bd 6f80 3a3d 731f 313d
000000d0: e48a cf3b 4415 923a eb3a da3d a8cf a63d
000000e0: 65b5 f9bd 03d9 c23d 4210 073e 0aaf 80bb
000000f0: 4eec 2fbf 5d53 07bf f53d 243e 212d 63bd
00000100: d709 533d 387b 5d3d f339 87bf 8aa7 edbe
00000110: 369f a43e 6815 933d 682e dbbd 143e 893d
00000120: 3efb dd3d 0b43 c5bd b4d6 cbbd 0895 68bc
00000130: 862f 853e 0642 c8bd 54e8 123e ce2b 7cbe
00000140: 03eb dabd 05a0 c0bd e272 10be bf18 ee3e
00000150: a4f8 36be 38f5 0fbf f2c9 42be a497 b2be
00000160: 3e16 f93d 41a6 263e 6516 b43e a1b3 0f3f
00000170: f9d9 53be a110 afbd aab1 8cbc a686 2bbd
00000180: bea8 643e 005a 3b3e b7ef 033e a155 79be
00000190: e0a3 803c ddc2 13bd 50b3 d73c ab4c 0bbe
000001a0: 533e b73c 5b30 4cbd 543a a33d 24b9 d63d
000001b0: b88b 633e 7431 b13e 69bb 1abd cefe 303c
000001c0: 485b 7a3e cb44 acbe 3abc 10be 3dec 12bf
000001d0: 83a4 4f3c b8f0 a3bc d360 61be 15d0 5a3e
000001e0: f7e2 0d3c fc6a 783c 4503 8cbc d70e 823d
000001f0: f946 8dbd 253c acbd 69d1 d2bd ba8f 1b3c
00000200: 3817 893f 6b60 a5bd a4ff 53be e41b 833e
00000210: b1b0 f0bd 5551 3b3d bc24 f3bb ea38 7dbb
00000220: fd1d 22be 10af 22be db06 1abc f317 04be
00000230: ad9f 65bd ff87 79bd ad55 93bd 7a1e 113e
00000240: 51b7 2dbe ef1b 75be cdff 7fbe 8c57 14be
00000250: fecf 2cbe 2f0d 1b3d 1003 22be 0427 d2bd
00000260: cbfb a0be 2fb4 15be e5fa 3c3e df48 a2bd
00000270: 318f edbd da4e bdbd 48b9 b1be b895 d4be
00000280: 4163 123d afae d1bb 898c 12be 6030 2bbe
00000290: 9ef0 05be d587 a7be 1e68 8dbe 0069 5c3e
000002a0: 2895 17be 1e5d 56bd e712 0abe 1df3 36be
000002b0: fc5e 0bbd 0473 993e 7610 55be 7690 a6bd
000002c0: 68c5 8e3e 4f44 dc3e 9d61 fd3e 281a 5bbd
000002d0: c054 193e ca41 37bb edd3 e4bc 35c1 80be
000002e0: 2ab9 453d 4a8a f6be 4e7b 563d f7a1 0b3d
000002f0: 488f 963d 1f36 923d f1ed 4b3e 352c 053c
00000300: 09b4 d5bc d8aa b33e 5b24 9e3e e4bc 3f3d
00000310: 5fb0 a33d da8b b93c 64df 85bd eba8 bf3d
00000320: d84c 523e 8139 30bc bd69 38be 5d89 093e
00000330: e7f5 3dbe 983a e1bd fd78 89be dbc8 47be
00000340: e4bf da3d a022 20bc 257e 3f3f 0e5c cbbe
00000350: 8143 d5bd 0a24 96be 8dc0 ebbd a3b2 f13e
00000360: b9fb 3bbe f51f ef3d 926e 2fbd a79e 653e
00000370: a18e 273e f8b3 103e d457 85bd 034d e83b
00000380: 76fa ecbb b4a7 febd af66 ef3c 7531 033f
00000390: b9db 83bd ea74 95bd a717 013e cb92 e0bd
000003a0: 6761 abbd 9949 01bf cb55 333d 63f8 8cbb
000003b0: 176e d63d 065e a63e 11b2 a7bd 1e80 c93e
000003c0: d274 063d e123 253d 0477 29bd c971 78be
000003d0: db3f 733d 25f0 14bf 8924 9a3d 5de5 00be
000003e0: 377d 3fbe e918 c3bd 8dd5 53be 3604 0dbe
000003f0: d992 39be 850a f4bd 2436 ba3d 2e05 273e

feature.0.bias f4 [128]
-0.027461004 -0.0019915462 -0.03065442 -0.15498966 -0.10744222 -0.20169596 -0.06934986 -0.19831768
-0.037657917 -0.0026853508 -0.13930333 -0.18484284 -0.11067942 -0.112919256 0.00045614925 -0.15118092
-0.07061495 -0.14458764 -0.08427117 -0.046376742 -0.07875102 -0.10559449 -0.060873326 -0.10549958
-0.06480716 -0.063797265 -0.21848358 -0.026029298 -0.06979273 -0.08661649 -0.2074085 -0.029119447
-0.15300074 -0.013282771 -0.060383677 -0.12702996 -0.11330721 -0.16299103 -0.060492028 -0.13318513
-0.013172375 -0.20013878 -0.12929957 -0.13447359 0.07902837 -0.11055832 -0.1086506 -0.08369209
-0.067192815 -0.014821696 -0.043262236 -0.18558037 -0.14478485 -0.11567498 -0.19496453 0.016624112
-0.11945859 -0.040736098 -0.08700707 -0.13717261 -0.12440191 -0.22453955 -0.0956172 -0.27002558
-0.17605974 -0.19629996 -0.06982205 -0.22370559 -0.07074884 -0.09882773 0.11368723 -0.17222293
-0.001172325 0.3330394 -0.016294055 -0.090538085 -0.08575984 -0.0987883 0.037697133 -0.21230596
0.050468788 -0.24291176 -0.011065006 -0.14713076 -0.10395508 0.01660741 -0.05204904 -0.12757502
-0.08920228 -0.11393483 0.045128133 -0.18912017 -1.3037388e-16 -0.091161355 0.06515234 -0.11408862
-0.14794073 0.20449471 -0.17336132 -0.025011646 0.011787212 -0.064920895 -0.09246524 -0.018492095
-0.0937672 -0.10304099 -0.20281613 -0.0792915 -0.22275376 0.028362388 -0.10571967 -0.11609375
-0.014047937 -0.12645411 -0.041959416 -0.08408142 -0.08027523 -0.04657541 -0.22653574 -0.13687754
-0.10594643 0.04379493 -0.062216915 -0.066213645 0.077849746 -0.09961675 0.071692586 -0.085145116
00000000: e6f5 e0bc 9a84 02bb fa1e fbbc 9cb5 1ebe
00000010: ab0a dcbd 6389 4ebe 4d07 8ebd ca13 4bbe
00000020: 303f 1abd b6fc 2fbb 88a5 0ebe 7147 3dbe
00000030: e4ab e2bd 3642 e7bd 5127 ef39 2ccf 1abe
00000040: 929e 90bd c80e 14be 5d96 acbd 8af5 3dbd
00000050: 3748 a1bd ed41 d8bd 4f56 79bd 2a10 d8bd
00000060: 9eb9 84bd 24a8 82bd 29ba 5fbe 653b d5bc
00000070: 7eef 8ebd fc63 b1bd e562 54be e88b eebc
00000080: 3aac 1cbe fb9f 59bc e054 77bd 2414 02be
00000090: 9c0d e8bd 1fe7 26be 7dc6 77bd af61 08be
000000a0: f2d0 57bc 2ef1 4cbe 1b67 04be 72b3 09be
000000b0: a0d9 a13d 676c e2bd 3584 debd c266 abbd
000000c0: 639c 89bd b3d6 72bc be33 31bd c808 3ebe
000000d0: 7b42 14be 01e7 ecbd c8a4 47be 4a2f 883c
000000e0: b5a6 f4bd e5da 26bd c330 b2bd fa76 0cbe
000000f0: 6ec6 febd b2ed 65be f3d2 c3bd cb40 8abe
00000100: 0149 34be db02 49be ddfe 8ebd 1413 65be
00000110: c5e4 90bd 3166 cabd dad4 e83d 355b 30be
00000120: b3a8 99ba 2484 aa3e 1c7b 85bc 086c b9bd
00000130: dba2 afbd 8551 cabd 4f68 1a3d bc66 59be
00000140: 5cb8 4e3d dcbd 78be 004a 35bc 72a9 16be
00000150: 67e6 d4bd 430c 883c 6031 55bd 07a3 02be
00000160: afaf b6bd aa56 e9bd 47d8 383d b8a8 41be
00000170: 944f 16a5 ceb2 babd 976e 853d 4ba7 e9bd
00000180: c67d 17be 1067 513e a185 31be 39e5 ccbc
00000190: 271f 413c 3ff5 84bd 6a5e bdbd bc7c 97bc
000001a0: 0509 c0bd 2807 d3bd 08af 4fbe 9563 a2bd
000001b0: 9019 64be 3d58 e83c 8e83 d8bd 8fc2 edbd
000001c0: 5129 66bc 307d 01be a3dd 2bbd e132 acbd
000001d0: 5767 a4bd dbc5 3ebd fcf8 67be a029 0cbe
000001e0: 71fa d8bd 5062 333d 2ad7 7ebd 059b 87bd
000001f0: b06f 9f3d de03 ccbd 90d3 923d 9060 aebd

feature.2.weight f4 [128, 128]
-0.14329565 0.25999466 0.093014605 0.24654478 -0.0059479563 0.21439703 0.035934303 0.12610215
-0.037619736 7.667038e-39 0.14134055 0.14653036 -0.15151273 0.1090089 0.13030857 0.025906187
-0.15707228 -0.15675949 0.30621716 0.20585197 -0.03803878 0.2492609 -0.04860963 0.09930138
0.121817246 -0.03861976 -0.12651038 0.09704306 -0.095315956 -0.12994152 -0.02420002 9.301053e-33
0.16356081 0.2069853 0.14972991 0.22611876 0.058035128 -0.048029114 0.040577278 0.060348783
0.1615697 0.03949682 0.23249428 -0.01309077 -0.17572245 0.08951691 0.06170376 0.11461602
-0.28836727 0.0029474646 -0.15675472 0.0357813 -0.09291223 0.3652464 0.1277668 0.12555943
0.013349424 -0.057323564 0.09833944 0.12869813 0.14794357 -0.1553878 2.7455687e-12 0.3749029
0.39136684 -0.07525104 0.13149793 0.02957007 0.083774984 -0.011270101 -0.20321853 0.057088282
-0.0818395 -0.2693257 0.19818199 -0.1542561 0.06838664 0.2933986 0.13356228 0.125783
0.06791702 0.21358576 0.16414905 0.32805127 0.06496425 0.036405303 0.09077331 0.14168994
-0.058831964 0.35122874 -0.22613193 0.15330388 -9.570888e-39 -0.0049314722 0.051247865 0.2758701
0.056752414 -0.086256765 0.03913509 -0.18865073 -0.0044013183 0.10937114 -0.0034344867 -0.09115838
0.21173632 0.19786666 0.06120085 0.03516985 0.3511826 0.15742122 0.22084358 0.040189452
0.19064677 0.08605776 -0.047496114 0.0026470618 0.11928682 -0.08942121 0.014845796 0.009642146
0.15146679 -0.23568287 0.085261516 -0.053702496 0.02273881 -0.002623063 0.0143554425 -0.048697304
-0.08954591 0.0014809644 0.18135205 0.14509733 -0.026204487 0.044531185 0.022385089 0.0768619
0.11017454 -9.437056e-39 0.30005252 0.04246633 0.052246805 0.09406617 0.15810685 0.06259903
0.021840723 0.11245642 0.03690694 0.036269113 -0.08536358 -0.08814822 0.050928995 0.15439999
0.28905487 -0.07346991 0.22849353 0.17255616 -0.087765485 0.0017798124 0.15123236 2.1109276e-29
0.20055059 0.013203444 0.044015307 0.064663865 0.17873195 -0.10518667 0.12461717 0.19680281
-0.08853227 0.008702708 0.32187262 -0.02595616 0.15477136 0.22756684 0.0027693715 0.12915498
0.14264971 0.026983531 -0.016211698 -0.06637089 -0.08086956 0.1715313 0.1821047 -0.03195996
0.10581956 0.23296589 -0.087377146 0.014118083 0.016137037 0.0064132125 6.637438e-12 -0.13702495
0.040469468 0.19924758 -0.1212211 0.18698807 -0.04140718 0.015132123 0.08276983 0.04617465
-0.088980764 -0.08824104 0.10026369 0.11219744 0.04745431 0.09042196 -0.115009025 0.25292057
-0.086607955 -0.07105335 -0.007697355 0.036788635 0.10024873 0.083640955 0.089408204 -0.08908987
0.17310208 0.16426109 0.19873211 0.15788287 -2.536387e-39 0.01459407 0.026847133 -0.1381669
0.17753892 -0.025978245 0.1464306 0.07373659 0.02708945 -0.072387405 -0.19346625 0.14814804
0.14091747 0.015404754 -0.020395406 -0.0039039862 0.1819254 -0.04302674 0.05280707 -0.059476193
-0.022216337 -0.009594595 0.08530668 -0.034534786 0.04170694 0.11826007 0.26777035 0.1447874
0.0025134915 0.11636838 0.20576963 0.08572204 0.025580946 0.09094357 0.05341879 0.061578687
00000000: 18bc 12be 051e 853e 717e be3d 3c76 7c3e
00000010: 13e7 c2bb e58a 5b3e d92f 133d ec20 013e
00000020: 2717 1abd 957c 5300 94bb 103e 0e0c 163e
00000030: 2726 1bbe 0f40 df3d 9c6f 053e 3639 d43c
00000040: 8ed7 20be 8f85 20be 7fc8 9c3e dcca 523e
00000050: 8dce 1bbd 403e 7f3e e41a 47bd 865e cb3d
00000060: 527b f93d c12f 1ebd f08b 01be 83be c63d
00000070: 0335 c3bd 640f 05be 1f3f c6bc e12c 410a
00000080: 7c7c 273e f4f3 533e cc52 193e ad8b 673e
00000090: 3eb6 6d3d 2dba 44bd 5c34 263d 4930 773d
000000a0: 8772 253e 6bc7 213d fb12 6e3e ab7a 56bc
000000b0: 96f0 33be a454 b73d 15bd 7c3d cebb ea3d
000000c0: e0a4 93be 402a 413b 4f84 20be 6a8f 123d
000000d0: c448 bebd 9301 bb3e 4dd5 023e a792 003e
000000e0: 8bb7 5a3c 1dcc 6abd 3066 c93d 71c9 033e
000000f0: 857e 173e fb1d 1fbe c533 412c 46f3 bf3e
00000100: 3c61 c83e 381d 9abd 65a7 063e ee3c f23c
00000110: 3892 ab3d 3ba6 38bc 8518 50be 67d5 693d
00000120: 789b a7bd 0fe5 89be 38f0 4a3e 50f5 1dbe
00000130: 4b0e 8c3d 5738 963e 8dc4 083e 42cd 003e
00000140: 1418 8b3d 3ab6 5a3e b016 283e 56f6 a73e
00000150: fa0b 853d ba1d 153d 5be7 b93d 2b17 113e
00000160: c9f9 70bd 41d4 b33e 218f 67be b1fb 1c3e
00000170: be37 6880 3098 a1bb 48e9 513d d93e 8d3e
00000180: 3875 683d 63a7 b0bd 1e4c 203d a82d 41be
00000190: ef38 90bb fafd df3d 2015 61bb 3fb1 babd
000001a0: 68d1 583e 8f9d 4a3e bead 7a3d 430e 103d
000001b0: 35ce b33e 0733 213e d224 623e b29d 243d
000001c0: e838 433e 0d3f b03d 498b 42bd 547a 2d3b
000001d0: a64c f43d 7822 b7bd c83b 733c 17fa 1d3c
000001e0: 1c1a 1b3e da56 71be 979d ae3d 26f7 5bbd
000001f0: be46 ba3c b2e7 2bbb 1733 6b3c d376 47bd
00000200: d963 b7bd eb1c c23a 5ab4 393e 6594 143e
00000210: cbaa d6bc 5566 363d ef60 b73c c669 9d3d
00000220: 30a3 e13d acc2 6680 7ca0 993e 2df1 2d3d
00000230: bf00 563d c4a5 c03d c3e6 213e ec33 803d
00000240: 51eb b23c 8d4f e63d bb2b 173d ec8e 143d
00000250: 1ad3 aebd 0e87 b4bd ec9a 503d 081b 1e3e
00000260: 00ff 933e 6477 96bd 35fa 693e 90b2 303e
00000270: 64be b3bd 9848 e93a a8dc 1a3e d012 d60f
00000280: 225d 4d3e 4253 583c 6549 343d 7d6e 843d
00000290: 8205 373e 1c6c d7bd 4937 ff3d ad86 493e
000002a0: 6850 b5bd ce95 0e3c 7dcc a43e 03a2 d4bc
000002b0: 627c 1e3e 4807 693e 587e 353b 3441 043e
000002c0: c412 123e 910c dd3c 65ce 84bc 76ed 87bd
000002d0: f19e a5bd e7a5 2f3e a879 3a3e 72e8 02bd
000002e0: edb7 d83d 9c8e 6e3e caf2 b2bd 884f 673c
000002f0: d231 843c ed25 d23b ba88 e92c 4550 0cbe
00000300: 50c3 253d 8f07 4c3e c542 f8bd cd79 3f3e
00000310: 939a 29bd b9ec 773c 3b83 a93d a121 3d3d
00000320: 8c3b b6bd b8b7 b4bd 0d57 cd3d c5c7 e53d
00000330: 735f 423d 262f b93d da89 ebbd ce7e 813e
00000340: 835f b1bd 6b84 91bd 183a fcbb aeaf 163d
00000350: 354f cd3d f34b ab3d a61b b73d c074 b6bd
00000360: ac41 313e 0f34 283e 6e80 4b3e 0cac 213e
00000370: 6a9e 1b80 f71b 6f3c 85ee db3c a07b 0dbe
00000380: c3cc 353e 54d0 d4bc e7f1 153e 3603 973d
00000390: b2ea dd3c d93f 94bd 041c 46be 1fb4 173e
000003a0: ab4c 103e 3964 7c3c 4414 a7bc 05da 7fbb
000003b0: a74a 3a3e cf3c 30bd 3a4c 583d 4f9d 73bd
000003c0: 09ff b5bc a632 1dbc 45b5 ae3d 5974 0dbd
000003d0: e5d4 2a3d 5632 f23d 3219 893e 2643 143e
000003e0: 64b9 243b 8c52 ee3d 46b5 523e 098f af3d
000003f0: 228f d13c 9f40 ba3d a9cd 5a3d ef39 7c3d

feature.2.bias f4 [128]
-0.040983677 -0.24063274 -0.0037548698 -0.03944732 -0.04347449 -0.08598143 -0.059024338 -0.1166652
0.20930985 0.19720751 -0.025459195 -2.1745207e-08 -0.11061602 -0.03436128 -0.08928115 -0.18345045
0.61630845 -0.07631489 -0.015434913 -0.0041143275 -0.21801507 -0.03253079 -5.678533e-27 -0.12466141
-0.21501547 0.37873796 -0.13565037 -0.03859839 0.05878464 0.040082693 -0.05287985 0.3924042
-0.14723103 -0.16663177 -0.094108 -0.1165635 -0.21706696 0.015959518 -0.067085944 -0.06370735
-0.105397835 -0.11945868 -0.021660008 -0.11210962 0.052222814 -0.008562621 -0.09391584 0.0055934256
0.46511135 -0.002511914 -0.006690887 -0.049355034 -5.269813e-05 -1.45389395e-05 -0.18605314 -0.0019755308
-0.053818658 0.104579784 0.00974142 -0.04602167 -0.0023682965 -1.6751173e-08 0.04964226 -0.09942245
-0.033729985 -0.03517556 -0.14385414 -0.16073836 0.2242205 0.63656205 0.012275917 -0.00020807641
-0.19757153 -0.078260876 -0.16344847 0.087387055 -0.19091964 -0.20261538 0.09601853 -1.2870408e-19
-0.028559662 -0.112109445 -0.1354895 -0.08021849 -0.03767114 -0.07130396 -0.064620495 0.07956874
-3.1981418e-18 -0.079706796 0.19847141 -0.24038677 0.07446866 -0.07705321 -0.04003746 -0.008909746
-0.04580494 -0.09897835 0.025336668 0.054820273 -2.4054003e-07 -0.016179737 -2.7998713e-06 -0.09591176
-0.029690553 -0.04997365 -0.11307073 -0.16650952 -1.0250249e-21 -0.01960481 0.24040875 -0.042584077
-0.08319051 -0.13468722 0.093854725 -0.14058682 0.1664006 -0.07843971 -0.004880429 -0.13726373
0.20433566 -0.08953924 -0.052950807 0.38609752 -0.0066560525 -1.5571766e-19 -0.18113638 0.08418973
00000000: 80de 27bd 6e68 76be 4314 76bb 8393 21bd
00000010: 4f12 32bd 0817 b0bd 81c3 71bd 2aee eebd
00000020: 5255 563e c4f0 493e cd8f d0bc 37ca bab2
00000030: a78a e2bd 6abe 0cbd 09d9 b6bd 6fda 3bbe
00000040: 64c6 1d3f fb4a 9cbd b8e2 7cbc 7bd1 86bb
00000050: 583f 5fbe 013f 05bd 2bf3 e093 7b4e ffbd
00000060: 042d 5cbe f1e9 c13e eee7 0abe 5819 1ebd
00000070: 2ac8 703d c02d 243d 8b98 58bd 34e9 c83e
00000080: bbc3 16be 85a1 2abe b2bb c0bd d8b8 eebd
00000090: cd46 5ebe 89bd 823c 5b64 89bd 0079 82bd
000000a0: d2da d7bd c1a6 f4bd 5470 b1bc ba99 e5bd
000000b0: 97e7 553d 3c4a 0cbc f356 c0bd 0e49 b73b
000000c0: 1323 ee3e ec9e 24bb 3a3f dbbb 8128 4abd
000000d0: 3008 5db8 45ec 73b7 b784 3ebe e877 01bb
000000e0: f470 5cbd ed2d d63d 7a9a 1f3c 3881 3cbd
000000f0: 6c35 1bbb 38e4 8fb2 af55 4b3d ff9d cbbd
00000100: 7428 0abd 3f14 10bd 804e 13be 9998 24be
00000110: 0f9a 653e bbf5 223f ee20 493c 162f 5ab9
00000120: 3150 4abe 3d47 a0bd 095f 27be fcf7 b23d
00000130: 7080 43be 687a 4fbe 5da5 c43d 6cf2 17a0
00000140: f4f5 e9bc a399 e5bd c2bd 0abe 9749 a4bd
00000150: 0e4d 1abd d007 92bd c057 84bd f0f4 a23d
00000160: 31fb 6ba2 513d a3bd 173c 4b3e f327 76be
00000170: 0683 983d 13ce 9dbd 52fe 23bd 2ffa 11bc
00000180: f69d 3bbd 29b5 cabd d88e cf3c 398b 603d
00000190: 9223 81b4 5e8b 84bc 6ce5 3bb6 636d c4bd
000001a0: 9a39 f3bc 2cb1 4cbd a091 e7bd 7981 2abe
000001b0: bbe5 9a9c 449a a0bc b62d 763e a46c 2ebd
000001c0: c95f aabd 72eb 09be e836 c03d fef5 0fbe
000001d0: eb64 2a3e 00a5 a0bd 01ec 9fbb dd8e 0cbe
000001e0: 5e3d 513e 5960 b7bd f2e2 58bd 93ae c53e
000001f0: 041b dabb c6d6 37a0 d17b 39be aa6b ac3d

advantage.0.weight f4 [64, 128]
0.027250085 0.2925389 -2.4998929e-27 -0.24786666 0.41560617 0.52422583 0.2792075 0.30911466
0.34235838 -0.12004009 0.0001773679 7.49665e-39 -0.15491498 -0.2918658 0.11281487 -0.016096389
0.058763217 0.0010362818 -3.03493e-08 -6.901746e-31 -0.26367995 0.08145126 9.63906e-39 0.18981494
0.2216748 0.093940236 -0.049419764 0.17057869 -0.44269145 -0.45666656 0.24421881 0.24226427
0.18990807 0.00020184985 0.06284393 -0.29695252 0.3398773 -0.1724985 0.54056644 0.45341238
0.07755043 0.006049277 -6.357348e-07 -0.03991955 -0.04717674 1.70347e-06 0.0007515801 -0.11302927
-0.19938001 -2.2597757e-10 0.12980543 -0.076470554 -8.4743586e-38 8.0696054e-19 0.3901606 -4.3968166e-07
0.00042959748 -0.07286056 -0.078387044 -0.3785202 7.484392e-13 3.590128e-39 -0.2719678 0.099619806
0.42271388 -0.2648585 0.24389365 -0.050660122 0.2685239 -0.040019426 -0.17059761 -7.581447e-13
0.10197381 -0.13624418 0.09032128 -0.13196117 0.006207139 0.17433871 0.38457716 -1.786325e-39
-0.0006355612 0.08152719 -0.26896352 -0.016899168 -0.053487137 0.021265863 0.0033728094 -0.34518197
-7.565467e-39 -0.0046781865 0.12603578 0.5458655 -0.077565335 -0.30677176 0.26211616 -8.2175234e-07
0.11825134 0.014234451 -0.43182442 0.085954875 -8.361406e-39 -0.12889664 9.173397e-22 -0.03591927
-0.12919685 0.032442845 0.0133407125 0.30812317 5.135805e-39 -0.14798588 -0.0978509 -0.00015855033
-0.29629427 -0.3516235 0.14798084 0.14340223 -0.13154244 -0.12633017 0.12747233 -0.28485057
0.22047058 -0.04597077 -0.010379631 0.07877511 3.5031587e-06 6.29414e-39 0.06496078 -0.39274874
9.209413e-32 -5.473302e-39 1.2223986e-38 8.421277e-39 1.758206e-39 1.1514637e-26 3.8684533e-27 3.295207e-39
1.4245774e-23 1.0059559e-38 -2.395054e-38 -2.9337103e-38 4.4485423e-30 -4.091986e-39 2.8354168e-36 4.4558367e-37
1.5701583e-38 2.2102053e-38 1.5306787e-38 5.6674e-41 1.9341e-39 -8.864386e-22 1.7128856e-38 -5.614339e-28
-5.277668e-39 -8.858132e-39 -4.002546e-30 5.989553e-31 1.9413225e-38 -4.909142e-39 -1.395557e-38 6.560322e-39
1.4596078e-32 2.1592586e-38 -4.510361e-31 6.952666e-39 5.60536e-40 1.3238411e-38 -1.4889767e-38 -1.096339e-38
-8.76592e-40 -2.776754e-33 4.676509e-39 1.0236831e-38 8.250757e-39 -8.278462e-39 -7.53967e-40 -2.248696e-39
2.1006654e-38 1.01586e-40 3.038929e-39 2.0650266e-25 2.3683867e-38 5.248777e-38 1.587892e-38 -1.3189565e-38
-2.157818e-38 1.9498572e-38 -6.217e-40 1.0360914e-38 -7.892432e-39 -1.4816478e-38 6.859315e-39 4.059363e-36
3.989937e-19 -3.476086e-39 1.4646512e-24 -7.901604e-39 7.441394e-39 1.480645e-38 1.7512272e-38 1.6711235e-38
1.25462e-39 7.557966e-39 -6.6160284e-34 7.485406e-36 -3.153144e-39 -8.010066e-39 -8.250151e-20 8.156451e-39
-3.939089e-39 -3.509291e-39 2.2631997e-38 2.014397e-39 -8.964221e-39 1.9281067e-31 6.329497e-39 1.7672376e-38
-3.2738e-39 -8.978957e-39 -6.93517e-40 5.46309e-39 3.007461e-39 -7.375283e-39 -6.720133e-39 -4.563816e-38
-4.1684e-39 -5.720358e-39 6.379816e-39 -2.401393e-39 1.22638e-38 8.736755e-39 2.2219555e-38 -6.66797e-40
1.128595e-39 1.7694116e-38 -7.745693e-38 2.970882e-39 1.4127314e-38 8.883376e-39 -5.466967e-39 1.6983443e-38
3.830026e-39 1.134623e-39 -1.8115992e-38 -4.0723143e-22 6.083533e-39 -1.0691519e-37 -1.7021882e-38 -1.6048967e-36
-4.810663e-39 1.8605083e-38 -9.31096e-39 1.2517425e-38 8.2615e-38 8.63326e-39 8.396065e-39 5.5463e-41
00000000: 923b df3c a9c7 953e da0f 4693 c2d0 7dbe
00000010: 55ca d43e aa33 063f 49f4 8e3e 4744 9e3e
00000020: 9949 af3e 94d7 f5bd d5fb 3939 9ca1 5100
00000030: 08a2 1ebe 6f6f 95be 7c0b e73d 93dc 83bc
00000040: b3b1 703d d9d3 873a 6959 02b3 76f9 5f8d
00000050: 0f01 87be ebcf a63d c7f5 6800 d95e 423e
00000060: b8fe 623e bd63 c03d 616c 4abd 2eac 2e3e
00000070: 74a8 e2be 33d0 e9be 7f14 7a3e 2014 783e
00000080: 4377 423e a8a7 5339 52b4 803d 290a 98be
00000090: 6604 ae3e 72a3 30be 9062 0a3f ab25 e83e
000000a0: c3d2 9e3d 0339 c63b 5da7 2ab5 af82 23bd
000000b0: 663c 41bd c9a2 e435 b005 453a e47b e7bd
000000c0: 462a 4cbe 0877 78af b7eb 043e 989c 9cbd
000000d0: a9b1 e681 372c 6e21 21c3 c73e 630d ecb4
000000e0: 993b e139 eb37 95bd 6389 a0bd 66cd c1be
000000f0: baaa 522b d117 2700 5d3f 8bbe 7805 cc3d
00000100: f46d d83e 899b 87be 42bf 793e fd80 4fbd
00000110: f77b 893e 69eb 23bd 24b1 2ebe 1566 55ab
00000120: a5d7 d03d 9883 0bbe 5dfa b83d d420 07be
00000130: 4265 cb3b d985 323e 4ce7 c43e 8c73 1380
00000140: ca9b 26ba baf7 a63d 96b5 89be 2070 8abc
00000150: 5415 5bbd bf35 ae3c 5a0a 5d3b b1bb b0be
00000160: 7261 5280 794b 99bb 860f 013e d7bd 0b3f
00000170: 93da 9ebd 3011 9dbe 1734 863e 6496 5cb5
00000180: c22d f23d 9d37 693c 1718 ddbe 1c09 b03d
00000190: 330c 5b80 7bfd 03be dc9f 8a1c 1620 13bd
000001a0: 2e4c 04be cae2 043d 0193 5a3c 52c2 9d3e
000001b0: 89ec 3700 9c89 17be 0d66 c8bd 8840 26b9
000001c0: e2b3 97be ff07 b4be 4a88 173e 09d8 123e
000001d0: 10b3 06be b25c 01be 1b88 023e efd7 91be
000001e0: 0ac3 613e d94b 3cbd 540f 2abc d854 a13d
000001f0: cf17 6b36 8089 4400 280a 853d 5d16 c9be
00000200: 0c17 ef0b 5799 3b80 801b 8500 18b3 5b00
00000210: 2a25 1300 2512 6414 c73e 9913 b2e1 2300
00000220: d4c6 8919 f589 6d00 2e66 0281 f4b9 1f81
00000230: 4e74 b40e cb8e 2c80 e935 7104 d09f 1703
00000240: a0f9 aa00 88ab f000 18ad a600 fc9d 0000
00000250: 7c0f 1500 6ff4 859c 4884 ba00 eeec 3192
00000260: fe77 3980 de74 6080 d05c a28e 425f 420d
00000270: 2c64 d300 b174 3580 74f6 9780 826f 4700
00000280: 0893 970a 581f eb00 9d5e 128d 34b5 4b00
00000290: 8c1a 0600 4e27 9000 9d22 a280 7961 7780
000002a0: 958b 0980 07af 6689 34ec 3200 1f78 6f00
000002b0: c1d7 5900 fc24 5a80 c135 0880 737c 1880
000002c0: 01be e400 2e1b 0100 4c17 2100 4ea3 7f16
000002d0: 7ef2 0001 a3e2 8e01 f8e7 ac00 249f 8f80
000002e0: 30f7 ea80 1652 d400 0cc5 0680 03d2 7000
000002f0: e4f0 5580 5056 a180 fbb0 4a00 8caa ac04
00000300: 3986 eb20 ead9 2580 d0a4 e217 750a 5680
00000310: 9407 5100 5c3a a100 17b1 be00 20f8 b500
00000320: 5fa9 0d00 894c 5200 f2da 5b88 6d32 1f05
00000330: af55 2280 ce38 5780 1acd c29f ded0 5800
00000340: 94e4 2a80 7a36 2680 cd70 f600 52ef 1500
00000350: 9a9c 6180 5648 7a0c 10ec 4400 656f c000
00000360: 06a6 2380 aec5 6180 3e8d 0780 df7c 3b00
00000370: 94bf 2000 4a4f 5080 ff2c 4980 507a 7881
00000380: ce63 2d80 084a 3e80 5578 4500 1b26 1a80
00000390: 7c8a 8500 8522 5f00 14f3 f100 c242 0780
000003a0: 104a 0c00 ffab c000 9adb d281 9c59 2000
000003b0: 34d5 9900 3dbb 6000 ae87 3b80 eeee b800
000003c0: 8eb4 2900 de5a 0c00 0444 c580 0328 f69b
000003d0: 6a3e 4200 8286 1182 155a b980 8e87 0884
000003e0: 2c62 3480 6797 ca00 2b63 6580 7d4d 8800
000003f0: 41e6 e001 0402 5e00 d06c 5b00 9c9a 0000

advantage.0.bias f4 [64]
0.18690734 -1.2018989e-12 -1.3004917e-09 -0.088409685 -2.0278743e-09 -0.035009596 -0.013576053 -2.918005e-06
0.047042478 -0.0464692 -0.010677472 -1.8216895e-06 0.080765545 -0.024373699 -0.0009098553 -9.282242e-11
-0.0063806353 0.13289276 0.18920536 -0.058231197 -0.16729309 0.011350074 -0.037961353 0.08000228
-7.543746e-06 -0.1533069 -0.07442039 -0.00052601454 -2.2551713e-07 -0.012188443 0.08979353 -0.036482308
0.061351206 -0.15421619 0.13278864 0.005998702 -0.021542935 -0.09323131 -0.0018848917 0.0073722773
-4.624845e-13 -2.8562916e-12 -0.122869484 -0.06187348 -3.0668176e-19 0.11399277 -5.645218e-06 -0.1285574
0.012702837 -5.74545e-15 -0.031470533 -6.724505e-05 0.17609276 0.2071341 -0.00280324 0.03790235
0.19812264 0.082881816 -1.2747495e-21 0.026223922 -0.014158651 0.0039441716 0.10984491 -0.03119086
00000000: a364 3f3e f926 a9ab fcbc b2b0 2310 b5bd
00000010: be5a 0bb1 3966 0fbd 186e 5ebc f2d2 43b6
00000020: 9daf 403d 7d56 3ebd 90f0 2ebc c680 f4b5
00000030: 6868 a53d 5aab c7bc 5b83 6eba 611e ccae
00000040: a614 d1bb 0a15 083e 0dbf 413e d683 6ebd
00000050: e14e 2bbe a9f5 393c 5d7d 1bbd 3cd8 a33d
00000060: 4920 fdb6 7cfc 1cbe b869 98bd 3de4 09ba
00000070: ad25 72b4 09b2 47bc ace5 b73d 796e 15bd
00000080: 674b 7b3d d9ea 1dbe bff9 073e c290 c43b
00000090: cf7a b0bc 0ff0 bebd 780e f7ba 2593 f13b
000000a0: 852d 02ab 60fe 48ac ffa2 fbbd 0c6f 7dbd
000000b0: 7008 b5a0 0b75 e93d 0e6c bdb6 8da4 03be
000000c0: 8f1f 503c 6c00 cfa7 3fe7 00bd e905 8db8
000000d0: a951 343e f61a 543e 90b6 37bb 7f3f 1b3d
000000e0: a9e0 4a3e f1bd a93d 7ca2 c09c 8dd3 d63c
000000f0: b0f9 67bc 1c3e 813b 5ef6 e03d f983 ffbc

advantage.2.weight f4 [36, 64]
-0.001041189 0.00017582349 0.00022284554 0.18707356 -8.104924e-05 0.003943982 0.15071042 0.005310342
0.17971013 0.17466745 0.270236 0.0017059435 0.107008524 0.1417841 -0.00019657644 -0.0003181771
0.0070138513 -0.1118775 -0.005606501 -0.06299409 0.25659043 0.022372054 -0.01801981 0.026841873
-0.0050538965 0.12825404 0.19571209 -0.00020882035 -9.106602e-05 0.12226486 -0.0051217186 -0.009221168
0.03268202 0.105273694 0.11374652 0.0010111373 0.22427787 -0.048211195 0.0003136515 0.20302114
1.5016687e-22 -0.0010042597 0.16024907 0.23040234 -3.55658e-40 -0.8195521 -0.000809394 0.17434636
0.041347466 3.1055133e-05 0.15199734 0.018831987 -0.2403986 -0.045094248 -0.026205251 0.08453128
-0.034491997 0.1718506 -1.3889035e-05 0.24019615 -1.219736 0.19492768 -0.10784446 0.1836931
-0.27619946 -1.29750295e-33 -2.8985716e-12 -0.060830846 2.4840158e-10 -0.34852263 0.12532014 -1.8530636e-14
0.29250002 0.41052708 0.4417563 -5.6971096e-08 0.2219012 -0.023617968 5.184068e-06 -9.51639e-28
-0.004606223 -0.56729865 -0.07541049 1.427345e-07 0.27852142 0.16650686 0.062433973 -0.16552266
8.077326e-10 0.10558798 0.27265337 -0.00044661656 -2.3758004e-11 -0.15374179 -0.20584524 0.00092141255
-0.33086556 -0.3464667 -0.61766046 0.05808757 -0.35772648 -0.009103795 6.4305237e-09 -0.14886963
8.540642e-39 1.1103514e-21 -0.03171064 -0.14932095 1.8013584e-38 -0.58775675 -4.2681536e-06 -0.1167554
0.2339797 6.257381e-31 0.47432742 -0.00048273153 -0.64026207 -0.07992604 -0.00839416 -0.548323
0.048324768 -0.081711546 2.0008061e-11 0.4128955 -0.70794785 -0.21889396 -0.12852995 -0.7710065
-0.5821873 -6.138144e-07 0.000109455614 -0.011477152 -0.000792937 0.06482045 0.1815073 -1.3897491e-07
-0.09455028 0.3180072 0.2919439 -5.2087654e-07 0.20570621 -0.095962144 0.00013737821 -1.3908358e-10
0.037935164 -0.034543812 0.28603265 0.019388238 0.18676287 0.2882737 -0.0451418 -0.18573448
5.001933e-05 0.16954404 0.27336076 0.0021529552 8.921223e-06 0.02449167 -0.066169634 -0.014994947
0.08948659 -0.05331346 -0.24485132 -0.037280094 -0.58356136 0.06743112 0.005145425 0.15355466
-1.085431e-20 3.8775504e-11 0.10071088 0.14184289 -1.9058312e-38 -0.40787297 -0.00014107629 0.22016251
0.21412301 1.0609121e-05 0.19206777 0.014262526 -1.4158288 0.20911664 0.01143318 -0.073856995
0.010351713 -0.28482556 4.3839245e-06 -0.29651 0.14592646 -0.022818137 0.14231443 -0.04167036
0.11842904 -1.0881121e-23 -6.7420336e-07 -0.65097946 1.5984911e-07 0.24816345 0.045986053 3.262698e-05
-0.12470284 0.20028652 0.13378741 1.5762114e-06 0.30607554 -0.20291737 -7.5430216e-06 1.764225e-27
-0.0007450948 0.21265233 0.45003384 0.00058597355 0.30466282 0.25421983 0.05764684 -0.3176323
-5.424117e-06 0.12825021 0.14044973 0.0008816398 1.8492216e-08 0.02675101 0.00048907846 -0.0038242978
0.35531762 -0.08534979 -0.22299625 -0.020112544 -0.6781605 -0.061513223 0.00030383805 -0.09631543
-2.8976227e-16 2.0223342e-10 -0.23826481 -0.027009161 1.3464092e-38 0.047591787 3.18604e-05 -0.25368708
0.12490375 -5.779306e-16 0.3644139 3.5596535e-05 -0.22213764 0.18595636 0.012427575 -0.096549414
-0.2024792 -0.6499998 -1.48078865e-08 -1.4935906 0.106520414 0.14137211 0.3567958 -0.36566725
00000000: 8178 88ba 425d 3839 a5ab 6939 3690 3f3e
00000010: fbf8 a9b8 853c 813b d553 1a3e 6102 ae3b
00000020: ef05 383e 06dc 323e 5f5c 8a3e f799 df3a
00000030: 4927 db3d da2f 113e 1620 4eb9 02d1 a6b9
00000040: 73d4 e53b 0820 e5bd bdb6 b7bb 0c03 81bd
00000050: d25f 833e 9945 b73c 489e 93bc 7de3 db3c
00000060: 289b a5bb 0755 033e c068 483e c9f6 5ab9
00000070: b2fa beb8 0066 fa3d 17d4 a7bb 6214 17bc
00000080: 95dd 053d bc99 d73d eff3 e83d 2388 843a
00000090: 19a9 653e 1a79 45bd 9771 a439 c6e4 4f3e
000000a0: 658a 351b 5da1 83ba 5518 243e 97ee 6b3e
000000b0: 6edf 0380 2bce 51bf 832d 54ba da87 323e
000000c0: f65b 293d 3241 0238 31a5 1b3e 8a45 9a3c
000000d0: 0d2b 76be bfb4 38bd 65ac d6bc bc1e ad3d
000000e0: 7b47 0dbd 9bf9 2f3e f304 69b7 fbf5 753e
000000f0: 4f20 9cbf 1f9b 473e 8edd dcbd 0b1a 3c3e
00000100: 046a 8dbe ac95 d788 06f8 4bac c429 79bd
00000110: 6a8f 882f 8f71 b2be ec53 003e bde8 a6a8
00000120: 90c2 953e 9b30 d23e e22d e23e 62b0 74b3
00000130: 113a 633e 787a c1bc cef2 ad36 10cb 9692
00000140: cdef 96bb 7c3a 11bf d170 9abd 9042 1934
00000150: 5c9a 8e3e c680 2a3e c4ba 7f3d c67e 29be
00000160: 2107 5e30 833e d83d 3999 8b3e dc27 eab9
00000170: 45fa d0ad 7d6e 1dbe 18c9 52be f38a 713a
00000180: 3667 a9be 1564 b1be ff1e 1ebf 3bed 6d3d
00000190: ed27 b7be 1528 15bc 7cf3 dc31 4871 18be
000001a0: d6ff 5c00 a4ca a71c 04e3 01bd 97e7 18be
000001b0: 8b26 c400 3a77 16bf 2937 8fb6 751d efbd
000001c0: 6098 6f3e 4a10 4b0d 0bdb f23e 2117 fdb9
000001d0: 37e8 23bf 43b0 a3bd a987 09bc e55e 0cbf
000001e0: 31f0 453d 6258 a7bd 26fe af2d 0a67 d33e
000001f0: 123c 35bf bd25 60be 5b9d 03be af60 45bf
00000200: 3a0a 15bf 01c5 24b5 898b e538 aa0a 3cbc
00000210: 1add 4fba 96c0 843d 0ddd 393e 2239 15b4
00000220: 94a3 c1bd d7d1 a23e ac79 953e 5dd2 0bb5
00000230: a6a4 523e cd87 c4bd 2f0d 1039 8cec 18af
00000240: e761 1b3d d07d 0dbd df72 923e 15d4 9e3c
00000250: c43e 3f3e 9c98 933e 9ce6 38bd 2e31 3ebe
00000260: d9cb 5138 f49c 2d3e f1f5 8b3e 9818 0d3b
00000270: 5cac 1537 c1a2 c83c f283 87bd 5ead 75bc
00000280: bf44 b73d 375f 5abd 4eba 7abe 03b3 18bd
00000290: 4764 15bf 5419 8a3d f49a a83b 6f3d 1d3e
000002a0: 3908 4d9e 5689 2a2e 8141 ce3d 433f 113e
000002b0: d286 cf80 bad4 d0be e1ed 13b9 4872 613e
000002c0: 1043 5b3e d4fd 3137 6aad 443e 5fad 693c
000002d0: e139 b5bf ac22 563e 3c52 3b3c 5642 97bd
000002e0: 3b9a 293c a8d4 91be a019 9336 29d0 97be
000002f0: bf6d 153e 1aed babc e0ba 113e 8aae 2abd
00000300: ed8a f23d b478 5299 e7fa 34b5 97a6 26bf
00000310: fda2 2b34 8f1e 7e3e df5b 3c3d f4d8 0838
00000320: 3464 ffbd e917 4d3e 91ff 083e 368e d335
00000330: efb5 9c3e 92c9 4fbe 101a fdb6 bcc6 0b13
00000340: 7752 43ba 88c1 593e d66a e63e 059c 193a
00000350: c4fc 9b3e 1a29 823e 181f 6c3d b3a0 a2be
00000360: cf00 b6b6 0654 033e 0ed2 0f3e d81d 673a
00000370: d0d8 9e32 ef24 db3c 8035 003a 12a1 7abb
00000380: 31ec b53e dfcb aebd 2159 64be 10c3 a4bc
00000390: ed9b 2dbf 4af5 7bbd 744c 9f39 0641 c5bd
000003a0: 5d09 a7a5 a65b 5e2f b1fb 73be 5142 ddbc
000003b0: 699c 9200 9bef 423d d8a1 0538 46e3 81be
000003c0: 8acd ff3d c093 26a6 7594 ba3e 7d4d 1538
000003d0: 0d78 63be 586b 3e3e 079d 4b3c b3bb c5bd
000003e0: b556 4fbe 6366 26bf c665 7eb2 fa2d bfbf
000003f0: 6027 da3d dac3 103e f0ad b63e bd38 bbbe

advantage.2.bias f4 [36]
-0.090933785 0.0034339845 -0.077632934 0.25420555 0.12138814 -0.09800347 0.07150497 0.12902647
0.025823524 0.12863055 0.21462615 -0.12662016 0.06322402 -0.16835521 -0.06664745 0.10773799
0.08506243 -0.09299469 0.086756945 -0.004209616 0.53965497 0.113317385 -0.094086096 -0.116337314
0.033279046 0.24189629 0.10396297 0.09935339 0.25790903 0.0495029 -0.42006856 -0.012649108
0.059959557 -0.16365996 -0.08721731 0.28344643
00000000: 7e3b babd b30c 613b 04fe 9ebd 3b27 823e
00000010: 589a f83d 0bb6 c8bd 3371 923d 841f 043e
00000020: db8b d33c bab7 033e f5c6 5b3e b7a8 01be
00000030: 987b 813d 4f65 2cbe 757e 88bd bca5 dc3d
00000040: 3635 ae3d 0074 bebd a0ad b13d d2f0 89bb
00000050: d426 0a3f f212 e83d 36b0 c0bd 4242 eebd
00000060: 9c4f 083d a9b3 773e 8aea d43d ca79 cb3d
00000070: a70c 843e 8ec3 4a3d 3a13 d7be 343e 4fbc
00000080: 2798 753d 7a96 27be fd9e b2bd e41f 913e

value.0.weight f4 [64, 128]
2.354876e-39 3.00798e-39 -1.4184316e-38 2.5779038e-38 -8.71889e-39 1.3371829e-38 1.5995177e-38 -1.2056629e-38
-8.1151526e-38 4.126204e-38 -4.966758e-38 -1.4078319e-38 -1.3299948e-38 -2.0803114e-38 -5.971513e-39 -9.417964e-39
1.9557889e-38 3.080536e-38 1.911025e-38 -1.6981106e-38 -1.245862e-38 4.984475e-39 4.711771e-39 -7.709793e-39
-2.273988e-39 -5.165948e-39 -4.984211e-39 -3.427825e-38 8.273658e-39 -2.1860828e-38 -2.2086936e-38 8.374171e-39
9.302346e-39 -2.8166413e-38 -1.6228684e-38 1.8602271e-38 -6.114305e-39 -2.334153e-38 -4.33293e-39 -5.363425e-39
-1.276134e-39 -1.5421183e-38 -2.1612714e-38 -2.0514937e-38 -1.3032625e-38 5.1685224e-38 -3.645088e-39 -2.0275034e-38
-6.475479e-39 1.7563404e-38 1.9759794e-38 8.966113e-39 4.1399082e-38 -1.151758e-38 1.0773359e-38 2.2051634e-38
1.929591e-39 -1.2554435e-38 1.0528505e-38 -1.4713611e-38 -1.4859164e-38 -3.06918e-39 3.783331e-38 -2.30816e-39
2.765706e-39 -5.23309e-39 1.3696487e-38 -4.452349e-38 1.588512e-38 -4.720105e-38 -3.4029317e-38 1.6899617e-38
4.6054324e-38 -6.227374e-38 -6.839323e-39 2.2820546e-38 -1.3635514e-38 5.397479e-38 -7.6148027e-38 -2.2920476e-38
-5.899886e-38 7.401579e-38 1.835889e-38 7.446438e-39 6.841749e-38 -7.208775e-39 1.7585236e-38 -1.1864604e-38
-6.239653e-38 3.557561e-38 2.0647505e-38 4.4906907e-38 1.607455e-38 -7.611271e-38 -5.734153e-39 -2.44137e-39
1.342495e-38 -3.624302e-39 1.5105818e-38 -3.7429315e-38 -1.7528419e-38 -4.3013708e-38 2.0122388e-38 -7.443143e-39
7.9357953e-38 4.838703e-39 1.1976825e-38 1.1734272e-38 1.0018163e-38 -1.6962836e-38 -4.79641e-38 -9.864917e-39
2.0965897e-38 -1.5844936e-38 -4.657249e-39 -5.746408e-39 2.866611e-39 1.9190567e-38 4.283388e-39 1.5005423e-38
-3.01943e-40 -2.0715597e-38 1.9770029e-38 2.1038854e-38 -7.162799e-39 1.8266901e-38 1.2894286e-38 -1.5597595e-38
-2.224952e-38 -1.2630424e-38 -6.543972e-38 -5.280126e-39 9.33237e-39 -1.121064e-38 -3.130534e-39 -2.1334786e-38
4.226081e-39 1.8807275e-38 -5.468556e-38 -1.5702816e-38 -1.202695e-39 8.951688e-39 -1.8253157e-38 -2.3827197e-38
1.824216e-38 -9.421117e-39 -1.2245914e-38 7.3760456e-38 -3.526777e-39 1.6537889e-38 -9.29168e-39 -8.169413e-39
6.1619163e-38 7.16288e-39 1.2567786e-38 2.3524973e-38 -2.3910157e-38 8.49216e-38 1.4243022e-38 2.4063764e-38
2.4274424e-38 -4.606068e-39 -9.796999e-38 1.4306117e-38 -1.436536e-39 5.5390414e-38 9.538381e-39 1.745e-39
1.408229e-39 1.3727781e-38 -1.8871393e-38 -3.214424e-38 -7.036615e-39 1.4355042e-38 1.5510678e-38 1.348708e-39
7.371043e-39 -9.2034436e-38 7.587714e-38 -1.2609352e-37 -1.4222339e-38 8.739607e-39 1.018402e-38 6.602178e-39
-9.475076e-39 -5.8342854e-38 -4.5367677e-38 5.4893e-40 3.175157e-39 -5.500836e-39 1.2172676e-38 7.611394e-39
2.214282e-38 -9.75014e-39 -6.67965e-40 1.735931e-39 -1.8287102e-38 -1.7075999e-38 -1.9174867e-38 1.848363e-39
8.5090514e-38 -1.8501722e-38 3.5407382e-38 3.399396e-39 8.87648e-39 -2.631201e-39 1.8106626e-38 2.0741179e-38
6.589023e-39 -3.311581e-38 3.012335e-39 -4.8790214e-38 -1.367449e-38 -4.3338597e-38 6.178619e-39 4.03097e-39
-1.5079504e-38 9.322525e-39 1.9915254e-38 -1.0910947e-38 3.851869e-38 -1.1160075e-38 5.103257e-38 4.3031365e-38
-1.363149e-38 -5.478627e-38 -5.570178e-39 2.2888526e-38 1.8724125e-38 2.2647267e-38 1.2708152e-38 5.767952e-39
-1.83785e-38 3.900088e-39 -1.1116534e-38 7.277383e-39 -5.0416465e-38 -7.201292e-39 2.5561623e-38 1.327299e-39
6.3224715e-38 4.248684e-39 1.0465418e-38 -1.298724e-38 3.64496e-39 -4.4467135e-38 2.068645e-38 -1.9676562e-38
-2.4398338e-38 1.726282e-39 -1.6618699e-38 -4.122071e-39 5.177362e-38 -4.803023e-39 -1.2011303e-38 -9.606086e-39
00000000: 70a4 1900 06c1 2000 1a74 9a80 bc5a 0c01
00000010: b8f0 5e80 389b 9100 0c2c ae00 fa48 8380
00000020: 5cea dc81 e4a6 6001 4035 8781 a04c 9980
00000030: d8d2 9080 9e86 e280 2606 4180 748d 6680
00000040: 70f7 d400 68b8 2701 9a17 d000 6ae8 b880
00000050: 90a9 8780 b046 3600 804e 3300 c4f3 5380
00000060: f4c2 1880 9040 3880 f445 3680 e8a0 3a81
00000070: 9817 5a00 180b ee80 6481 f080 c82f 5b00
00000080: 284b 6500 405a 1981 f8b6 b080 908f ca00
00000090: 3294 4280 b02a fe80 722e 2f80 0c67 3a80
000000a0: 58e5 0d80 fceb a780 7457 eb80 4c63 df80
000000b0: a8e9 8d80 58b3 8c01 06b1 2780 8cc6 dc80
000000c0: 0083 4680 a03f bf00 442a d700 e0a1 6100
000000d0: e665 6101 546a 7d80 be4f 7500 fc1e f000
000000e0: ea02 1500 a8b4 8880 30a5 7200 9037 a080
000000f0: 4ecd a180 a06b 2180 f0fb 4d01 3622 1980
00000100: aa1d 1e00 bafb 3880 3c24 9500 b068 7281
00000110: 40f9 ac00 557e 8081 f245 3981 4205 b800
00000120: 5cbe 7a01 7686 a981 4079 4a80 667e f800
00000130: 447a 9480 f0ee 9201 6e4b cf81 f694 f980
00000140: 349c a081 7a7d c901 1ee9 c700 a415 5100
00000150: 0840 ba01 227f 4e80 7c7c bf00 b031 8180
00000160: 09dc a981 2ab1 4101 d8d4 e000 187f 7401
00000170: 4e09 af00 d132 cf81 7c70 3e80 8c95 1a80
00000180: 4c2f 9200 1477 2780 e07c a400 dac8 4b81
00000190: 1ade be80 5c30 6a81 081d db00 740c 5180
000001a0: 6c08 d801 56b0 3400 846a 8200 60c6 7f00
000001b0: 9016 6d00 7cb5 b880 1992 8281 606b 6b80
000001c0: 644c e400 3c89 ac80 84b6 3280 a692 3e80
000001d0: f236 1f00 7ef7 d000 58a4 2e00 0465 a300
000001e0: b249 0380 a892 e180 cc46 d700 c417 e500
000001f0: f8fe 4d80 b0e8 c600 0668 8c00 c0d7 a980
00000200: 9c46 f280 7c88 8980 d424 b281 d87e 3980
00000210: da9e 6500 b412 7a80 a816 2280 b450 e880
00000220: 9804 2e00 08cb cc00 46de 9481 10fd aa80
00000230: a018 0d80 aa79 6100 60c2 c680 44ba 0181
00000240: b8a3 c600 3e96 6680 a058 8580 89cb c801
00000250: 3867 2680 e814 b400 6c2d 6580 00f5 5880
00000260: 4abe a701 32ff 4d00 e0d9 8800 0715 0001
00000270: e52d 0281 b82d e701 c017 9b00 fe03 0301
00000280: 9c29 0401 d827 3280 8f59 0582 a2c7 9b00
00000290: 7aa4 0f80 7cc9 9601 20dd 6700 5a00 1300
000002a0: 9255 0f00 787b 9500 c47d cd80 8802 2f81
000002b0: 389f 4c80 0450 9c00 76e5 a800 a6af 0e00
000002c0: 7843 5000 a48a fa81 a68e ce01 2ea1 2b82
000002d0: 18de 9a80 782a 5f00 e8e4 6e00 30e4 4700
000002e0: a82c 6780 09d3 9e81 5001 7781 32fa 0500
000002f0: 0c93 2200 18e6 3b80 788c 8400 78e1 5200
00000300: 2c1d f100 6c2b 6a80 0446 0780 12e7 1200
00000310: 0021 c780 f0f0 b980 bacb d080 7c20 1400
00000320: 6fa3 e701 4677 c980 b0c6 4001 2204 2500
00000330: 04a8 6000 b8a6 1c80 e829 c500 f8d9 e100
00000340: 84bf 4700 b44c 3481 2acd 2000 d1d1 8481
00000350: eae6 9480 30f5 6b81 7a47 4300 b4e4 2b00
00000360: 8633 a480 6883 6500 a0db d800 48cf 7680
00000370: 38b7 5101 c085 7980 83ec 8a01 f848 6a01
00000380: 0c6f 9480 7524 9581 64a7 3c80 e63b f900
00000390: 3ee3 cb00 5e9b f600 2861 8a00 b4ce 3e00
000003a0: c81f c880 dc77 2a00 600c 7980 623e 4f00
000003b0: 263f 8981 466a 4e80 b42b 0b01 f873 0e00
000003c0: 321d ac01 9a43 2e00 54f5 7100 246b 8d80
000003d0: aab0 2700 241a 7281 6841 e100 4042 d680
000003e0: 52d6 0481 2ccc 1200 2cf6 b480 a8e2 2c80
000003f0: f2f0 8c01 e04c 3480 a0ca 8280 dc99 6880

value.0.bias f4 [64]
3.5627374e-38 2.0504704e-38 -2.5357e-40 -4.385986e-39 5.052368e-38 1.1628042e-38 -2.115187e-39 1.84051e-39
7.9316464e-38 2.841603e-39 -2.90745e-38 4.889343e-39 4.7499904e-38 1.653218e-39 -1.2242483e-38 2.1176005e-38
5.856646e-39 1.5829205e-38 -4.255322e-38 6.575719e-39 -6.968268e-39 1.170202e-39 -6.524361e-38 4.8139625e-38
1.0391177e-38 5.233537e-38 4.997709e-39 5.889534e-39 2.138889e-39 -7.025668e-39 4.4581436e-38 -1.6345987e-38
2.3584638e-38 -1.5097898e-38 -7.537405e-39 -4.930732e-38 -6.2338836e-38 -9.295858e-39 4.195947e-39 6.242101e-38
9.803243e-38 7.02421e-39 1.3515597e-38 -8.9205e-40 -8.985378e-39 4.73145e-39 1.9317692e-38 -6.184734e-39
9.35123e-40 7.719781e-39 -2.1744632e-38 -1.4252209e-38 -1.785155e-38 -8.146076e-39 3.138115e-39 -1.521362e-39
-1.545444e-39 -2.022595e-39 1.7841298e-38 7.560061e-39 -2.2653587e-38 -3.6406e-41 -2.3092905e-38 2.811534e-39
00000000: 50f9 4101 c646 df00 dac2 0280 58c2 2f80
00000010: de89 8901 409e 7e00 4808 1780 980a 1400
00000020: 82eb d701 3cf1 1e00 f04b 1e81 803d 3500
00000030: 9a4e 8101 8000 1200 104f 8580 1696 e600
00000040: f2c5 3f00 625d ac00 88ae 6781 6e9a 4700
00000050: b2e0 4b80 0cbe 0c00 299c b181 6c0c 8301
00000060: 6026 7100 6e78 8e01 946b 3600 a021 4000
00000070: 5a4a 1700 b480 4c80 74b9 7201 f6fd b180
00000080: 3068 0001 cc66 a480 3813 5280 303a 8681
00000090: d4b3 a981 1239 6580 98b0 2d00 18ed a901
000000a0: 516f 0502 a47c 4c00 fc2b 9300 acb6 0980
000000b0: 94d7 6180 5c85 3300 de59 d200 8658 4380
000000c0: be2e 0a00 9c0f 5400 30c7 ec80 5c31 9b80
000000d0: dc62 c280 f2b3 5880 ca2b 2200 f090 1080
000000e0: 12d4 1080 2c06 1680 4846 c200 6052 5200
000000f0: fcac f680 7c65 0080 a075 fb80 6a9d 1e00

value.2.weight f4 [1, 64]
-6.580938e-39 -7.278117e-38 3.0097257e-38 3.357155e-39 1.744863e-39 7.33659e-38 -6.650688e-38 -1.4722943e-38
-9.43947e-40 -3.719632e-39 1.3773102e-38 -5.011183e-39 1.4407624e-38 -1.0040819e-38 4.047286e-39 5.236324e-39
2.4418937e-38 5.67309e-39 4.340965e-39 1.3846187e-38 1.9239099e-38 -4.70755e-40 1.8771665e-38 5.692355e-39
5.559608e-38 2.2290612e-38 -9.586336e-39 -8.315989e-39 1.9932383e-38 -5.08752e-39 -3.960411e-39 -2.269168e-38
1.4259979e-38 5.83958e-39 3.601823e-39 2.4378984e-38 6.337557e-39 -4.289799e-39 -4.89439e-39 1.4283315e-38
4.86092e-39 -1.6593148e-38 4.383985e-39 -1.0831432e-38 -1.0333681e-38 4.209543e-39 -1.2010664e-38 1.1459768e-38
4.5348333e-38 5.502483e-39 2.3825885e-38 -1.0083993e-38 4.269883e-39 -6.7852385e-38 -6.257839e-39 -1.036349e-38
3.267402e-39 2.12837e-38 1.6133724e-38 -1.5616014e-38 -1.8278111e-38 -1.5765132e-38 7.631684e-39 5.521579e-38
00000000: faa8 4780 1321 c681 74dd 2301 628e 2400
00000010: f8ff 1200 92b8 c701 880c b581 9351 a080
00000020: 5747 0a80 d280 2880 cef9 9500 2491 3680
00000030: 98e2 9c00 b855 6d80 3012 2c00 be04 3900
00000040: 08f3 0401 44c6 3d00 d844 2f00 89c5 9600
00000050: c87e d100 4620 0580 c467 cc00 f8fb 3d00
00000060: d058 9701 28b9 f200 ce62 6880 988d 5a80
00000070: 600b d900 f065 3780 0420 2b80 2c17 f780
00000080: 0547 9b00 6096 3f00 6b38 2700 58bb 0401
00000090: 8802 4500 37b6 2e80 914b 3580 1288 9b00
000000a0: 44ee 3400 f2ae b480 c4bc 2f00 a0f1 7580
000000b0: 1986 7080 7ed6 2d00 d8c8 8280 2cc9 7c00
000000c0: 5ae6 7601 afea 3b00 70b8 0101 12ce 6d80
000000d0: b27e 2e00 36b6 b881 4f24 4480 32d9 7080
000000e0: 3094 2300 4cc2 e700 42ae af00 180b aa80
000000f0: f007 c780 c6aa ab80 081a 5300 ca4f 9601
