pre-trained/ddqn_dnn8000.pth (torch_old, 650004 bytes, 44 tensors)

feature.0.weight f4 [128, 36]
00000000: 8bde 67bb 9aa8 06bc 43e1 ac3c 4b65 2b3e
00000010: c39c 113d 867d a43d 5c68 39bd 940a 93bc
00000020: da92 883d cb8d 153c 2ee6 013e 8f20 953d
00000030: cb23 84be 86df ffbc 419f af3d d2d5 c63e
00000040: b2fa 083e 302a 20bb e9b7 bdbd 565c b2bd
00000050: db68 a43e c7ef e2bf 7352 173e c973 90bc
00000060: 0538 a2bc c4f1 a2bc 3080 b43d c012 2ebd
00000070: ce3a 14be 93e7 0fbe f2da d6bd e84e 8a3d
00000080: 4d08 18bd d3f9 ffbd 9f20 5ebe 296d 993d
00000090: 4e31 83bb 762b 1f3e 5d50 be3d f328 673c
000000a0: 6bff ccbd 7a79 1c3d 1258 1c3e a0ed 853d
000000b0: 48e6 873d 07f4 2b3d 28f2 c0bc 6506 0b3c
000000c0: d5f5 3bbd 9fed b73c 518e 113e 20d1 993d
000000d0: cf77 09bb a904 193d e18f 82bd 04cc 883d
000000e0: bd46 e43c 6d53 593e 1120 8a3d 533b 063e
000000f0: 1a7a 62bf d998 f6be 4e90 f93d 0927 573d
00000100: f081 4e3d 1999 19be a728 bcbf ad90 14be
00000110: 1e1f 573e bad4 343c 7904 4ebe dc9c 72bc
00000120: 9c08 a63d e92d 3abd 0b8f 73bd ccab c3bc
00000130: 8484 8b3b d5eb 463d 4780 f6bd f60b 2d3d
00000140: 7b9e 283d c2f9 73bd 3041 113d ba78 4e3d
00000150: 2647 fcbe 6add c5bf 537e 823d b088 09be
00000160: 1114 983c 66eb 933c 19eb 153f d255 0d3f
00000170: 9534 2cbe 84f2 4cbd b21d 78bc 750a 1c3b
00000180: 84ee 853e 2ccf e33d ceef c63d 068a 58bd
00000190: 5ec4 cabd 13fb 67bd ac4e b7bd 7df7 8abc
000001a0: 4482 923b d4d2 b1bd f3aa d4bd 84e3 3a3e
000001b0: 4076 6cbd c3de 8c3d 04e5 14bd 563c c3bd
000001c0: 8f90 463c bf24 c8bd c98e 04be 97a3 00be
000001d0: 1788 0e3d 69d8 ce3c f296 92bc 4884 453d
000001e0: b84a 17bd 11ae 2dbd ad9a c43d c75a de3d
000001f0: 3d10 7a3d 3672 043e 9f42 18bd b572 493e
00000200: 0878 b63f e3b3 bbbe 7ed3 16be 0bf8 d13d
00000210: ca7e 6bbd e806 083e 262b ccbd 8a31 443d
00000220: 1fdc b8bb 45ca ca3c 2b85 133d 2a44 ddbd
00000230: dea0 27bd a379 32be 41ef 51bd 9a65 443e
00000240: c043 92be b4d4 80be 27a3 8fbe 2262 0fbe
00000250: cef6 8cbe 9eed 0e3e f5a3 3bbe 5b75 54be
00000260: a695 c6be 1bdd 86be 6834 573c 1371 69be
00000270: 552a 8fbe 9608 acbe 9619 12bf 5836 44bf
00000280: b314 963e 4843 2dbe 8218 25be 2384 15be
00000290: 035c 7cbe f954 f3be 090d 9ebe dbf8 ea3d
000002a0: 1ba8 923b 7b64 5d3c e329 7e3c e968 30be
000002b0: d9fe 0dbd 69a3 df3e 5a56 e0be c7ee 5bbd
000002c0: f478 983c 9d59 273d 8c2a 383f 661e 32be
000002d0: 0e00 8a3d 4106 123c 043d 173d 9cbe 443d
000002e0: 1982 e93d a272 40be 305e ed3c 2b81 093d
000002f0: f806 213e 7ce4 c43d 1f4b aa3d 63cb 043d
00000300: 7565 163e c7bd 9f3e 58bb e43d f70d 8c3d
00000310: 9e5b 9a3d 24ad 153d 484a 40bd a271 e3bd
00000320: 8fee 003e 44e2 4dbd f2dd 29bb 488d 73bc
00000330: da24 7fbe d92e 97be fb19 bbbd ed78 f7bb
00000340: 95c4 873c 934f 25bd b74a c23f 441c 36bf
00000350: 049f ce3d ce53 233c 027e 0c3d ba69 293e
00000360: 40cc 3ebd 5f4c 8dbd 6d2e 0a3c 7e8e c63d
00000370: 749b 053e e11e adbc ceac 493d 9172 81bd
00000380: aaaa b2bb 4482 f6bb 5a3d cc3b ac22 493e
00000390: 8397 60bc fa0a 0e3d 4ebc b43d 1488 c83d
000003a0: 569b 87bf 5874 83bf 6e63 2fbc f55a 14bb
000003b0: 802f 013e 78af 223e 5eca 2d3e 3751 493f
000003c0: 4d5b 01bd 7f66 5dbd 21ae 073d eeae e2bd
000003d0: 8f6f ef3c 342b e6bd 84a9 a33c 561e 023c
000003e0: fc37 123d ca24 c8bd a729 9abe 72b9 a7be
000003f0: 1b0d 85be 3797 c1bd 401f 713d 407b ce3d
-0.0035380449 -0.008218909 0.021103507 0.16737859 0.03554989 0.08031754 -0.04526554 -0.01794938
0.06668635 0.009128044 0.12685463 0.07281601 -0.25808558 -0.031234514 0.08575297 0.38835007
0.13376883 -0.0024439208 -0.09263594 -0.08709018 0.32111248 -1.7729424 0.14777546 -0.017633336
-0.019802103 -0.019890673 0.08813512 -0.04249835 -0.14475557 -0.14053182 -0.10490979 0.067533314
-0.03711729 -0.12498822 -0.21692131 0.07491524 -0.0040036803 0.15543923 0.09292672 0.014108884
-0.100096546 0.038201787 0.15267971 0.06539464 0.066357195 0.04198077 -0.02355297 0.008485411
-0.04588874 0.022452174 0.14214446 0.075105906 -0.0020975953 0.03735796 -0.06375099 0.06679538
0.027865762 0.2122323 0.067443974 0.13108568 -0.8846756 -0.48163489 0.12185727 0.05252746
0.050416887 -0.14999808 -1.4699906 -0.14508314 0.21007964 0.011037046 -0.20118894 -0.014807906
0.08107111 -0.04545394 -0.05946259 -0.02388563 0.0042577405 0.04856475 -0.12036186 0.042247735
0.041166764 -0.05956436 0.03546256 0.050408103 -0.49273032 -1.5458195 0.06371751 -0.13431048
0.018564256 0.018056583 0.58561856 0.55209076 -0.16816933 -0.05003597 -0.015143799 0.0023809944
0.26158535 0.11123499 0.09713708 -0.052866004 -0.09900735 -0.056635927 -0.08950552 -0.016963715
0.0044710953 -0.086827904 -0.103841685 0.18250853 -0.05772996 0.06878426 -0.03635122 -0.095329925
0.012119426 -0.09772634 -0.12945093 -0.12562405 0.034797754 0.025249677 -0.017894242 0.048221856
-0.03693649 -0.04240233 0.095998146 0.10857158 0.061050642 0.12934193 -0.03717291 0.19672664
1.4255381 -0.3666068 -0.14729115 0.102523886 -0.057493962 0.13283885 -0.099691674 0.047898807
-0.005641475 0.024754653 0.03601567 -0.10804017 -0.0409249 -0.17429213 -0.05125356 0.19179383
-0.28567314 -0.2516228 -0.28054163 -0.14002278 -0.27532047 0.13957831 -0.18324263 -0.20747893
-0.38786048 -0.26340565 0.013135053 -0.2279704 -0.27961984 -0.336003 -0.5707029 -0.7664542
0.29312667 -0.16920197 -0.1612263 -0.14601187 -0.24644475 -0.47525766 -0.3086932 0.11473247
0.004475606 0.013512726 0.015512916 -0.1722752 -0.03466687 0.4367936 -0.4381588 -0.053694513
0.018612362 0.040856946 0.7193992 -0.17394409 0.06738292 0.008912624 0.036923423 0.04803334
0.11401767 -0.18793729 0.028975576 0.03357045 0.15725315 0.096138924 0.083151095 0.032420527
0.1468714 0.31199476 0.111685455 0.06838601 0.07537006 0.036542073 -0.04694584 -0.11105658
0.12591003 -0.05026461 -0.0025919643 -0.014865227 -0.24916402 -0.2952793 -0.09135815 -0.0075522573
0.01657323 -0.04035909 1.5179051 -0.7113688 0.100889236 0.009968711 0.034299858 0.16544238
-0.046581507 -0.06899332 0.00843392 0.09695147 0.13047582 -0.021132888 0.049237065 -0.0632068
-0.0054524736 -0.007522853 0.0062328996 0.19642133 -0.013707998 0.034678437 0.08824979 0.0979158
-1.059428 -1.026988 -0.010704858 -0.0022637222 0.12615776 0.15887249 0.16971728 0.7863955
-0.03158121 -0.054052826 0.033125047 -0.110685214 0.029228 -0.11238709 0.019978292 0.007941803
0.035697922 -0.09772642 -0.30109903 -0.3275867 -0.2598656 -0.0945267 0.058867693 0.10082102

feature.0.bias f4 [128]
00000000: be52 aebc 03b0 8d3b a3ef 10be 38fa 88bc
00000010: bd67 42be 66cb cebd c928 18be f0ca d7bd
00000020: 73d6 10bd 1ee1 51a5 c3df 1fbe f20f 9abd
00000030: e78d 9bbd 6ac6 36bd 938d 1f3d 79e4 bcbd
00000040: 43f8 863c 439b a4bd 7601 d5bd 4879 c1bd
00000050: 272c 86bd f4ac 64be 800f 49bd bb3b 7ebe
00000060: 0960 babd 55bb 39be aa90 26be 1602 c4bc
00000070: 8042 d8bd 4e3b 8abc 2407 2fbe 3b80 aeb1
00000080: f068 03be e459 213c 3455 31be 3116 babd
00000090: df58 0fbe e705 1abe 7c20 1fbe 9c8a 12bd
000000a0: ba13 553c 06a2 beba 832f 86bd 9f87 11be
000000b0: 534a b43c 40a3 5abd 03a4 f5bc 5b4c f3bd
000000c0: 9708 28be 3b98 3f3d b2dc ebbc 363c bdbd
000000d0: e4a6 09be ba63 cfba 8378 f3bd fda0 bfbc
000000e0: 5791 f5bd b5dd 5c3a 8a5e 66bc 6833 0fbd
000000f0: 5ee5 3dbe 20ac 1ebe 29b9 22b9 f799 8cbe
00000100: 4c72 00bd f78b 1dbe fb08 d3bc e91d 25be
00000110: 149b 4dbd 4585 83bd 50cb 873d 2747 e5bd
00000120: 2418 563d 1f37 b63e 21d0 9c3b 77de 1ebe
00000130: 57b9 cebd 3ce2 e9bd 82db 8a3b 24c1 0abe
00000140: 5a76 923d 27d9 22be efa5 073e 48d3 57be
00000150: e03c 8ebd d4fe d73d 2ad0 5f3c ffac c6bd
00000160: 9061 88bd f034 3fbd 63c1 6a3c 3ebf 1ebe
00000170: ec6e 0fbd 3684 8cbc feea 47bc 5831 5bbe
00000180: cd1b 41be 48a7 953e 1746 1bbe 29aa c0bc
00000190: 2140 713d ed48 50bd 3a03 2f3d a6d5 d43d
000001a0: 461a 38bd 95fa 8fbc 5783 5abe 17db ba3c
000001b0: fa29 f5bd a63b 933d eead babd 6cee 55be
000001c0: b8e1 ff39 66ae 4dbd ea3b 843c 7a3b d4bc
000001d0: 46da 09be b1af eabc 0b8b 2bbe 6700 e1bd
000001e0: 508a cfbd 3b8a 0c3b 490d 543c a490 89bc
000001f0: 6740 a43d fbad c6bd d8de ec3b df43 0bbe
-0.021279689 0.0043239607 -0.14153914 -0.016720876 -0.18984886 -0.10097389 -0.14859308 -0.10536754
-0.035360765 -1.8204133e-16 -0.15612702 -0.075225726 -0.07595425 -0.044622816 0.038953375 -0.09223265
0.016475802 -0.08037426 -0.10400669 -0.09446961 -0.0655139 -0.22331601 -0.049087048 -0.24827473
-0.091003485 -0.18137868 -0.16266122 -0.023926776 -0.10559559 -0.016873982 -0.17092568 -5.0786446e-09
-0.12832999 0.009848092 -0.17317659 -0.09086264 -0.13998745 -0.15041314 -0.15539736 -0.03577672
0.013005191 -0.0014544136 -0.06552031 -0.14211892 0.022008097 -0.053378344 -0.029985433 -0.11879798
-0.16409527 0.046776038 -0.02879176 -0.0924 -0.1344257 -0.0015822568 -0.1188822 -0.023392195
-0.11990612 0.0008425371 -0.014060626 -0.034961134 -0.18544528 -0.15495348 -0.00015518501 -0.27461216
-0.031359002 -0.15385424 -0.025761118 -0.16124691 -0.050196722 -0.064219035 0.06630576 -0.11195212
0.052269116 0.3558893 0.004785553 -0.15514551 -0.100939445 -0.11420104 0.004237593 -0.1355024
0.0715148 -0.1590315 0.13246892 -0.21076691 -0.06945205 0.105466515 0.01366047 -0.09700965
-0.066592336 -0.046681345 0.014328334 -0.1550264 -0.035017893 -0.017152887 -0.012202023 -0.21405542
-0.18858261 0.29229188 -0.15163456 -0.023518639 0.05889905 -0.050850797 0.042727686 0.10392313
-0.04494693 -0.017575542 -0.21339165 0.022809548 -0.11970897 0.071891114 -0.09115206 -0.20891732
0.00048805564 -0.050215147 0.01614185 -0.025907267 -0.13462171 -0.02864823 -0.1675226 -0.10986405
-0.10133803 0.0021444696 0.012942621 -0.016792603 0.08020096 -0.09701153 0.0072287135 -0.1360011

feature.2.weight f4 [128, 128]
00000000: a77c 57be 71dd 6e3d d6b5 ab3e 4413 153e
00000010: 4846 9dbe 2a5a 633d 1884 13be 6ccd 8b3d
00000020: 5ff9 f4bd 957c 5300 4892 a13d dcf0 cd3d
00000030: ec2e 2bbc 0fce 80bd e198 063f 7f33 aebd
00000040: bd24 22be f1e4 683d 443c 693e fbe6 ce3e
00000050: 5d08 173e 895e c73e 392f 813d cead 193f
00000060: 1118 e93d 729c 77bd 8ccd fd3a f42d a83e
00000070: 49f7 6cbe c912 f93d b488 a33e a00c 9b80
00000080: 4747 f23d b619 55bc 6bb6 073f bbd3 403e
00000090: 79d7 3fbe b33b 8ebe e526 9e3d 5f74 0f3e
000000a0: 3d2e 153e cd17 5a3e a65a 5fbd da77 ec3c
000000b0: 2164 d0be 866a d13d cf70 9f3d 32dc 093e
000000c0: f2cd f73d 5285 383e 6273 89be b24e 0cbe
000000d0: 2845 653d 5f20 9f3e 7134 2c3e 85e6 dd3d
000000e0: 69b0 c2bd d6af 0ebe 09b4 00bb 4499 75bd
000000f0: 809e 533e 35ac 21be a469 0680 111e 2c3e
00000100: 1f78 c03e d0a9 0cbe 1478 873c bd38 d03d
00000110: 14c6 6f3e 5b51 693e 209b 90be 80b7 a2bc
00000120: fa01 c73d 1809 a0be 3c36 8a3e af34 e1bd
00000130: 072f 1a3e 24c5 913e efd3 473d b450 983e
00000140: e90c 62bd 6c16 873e adb0 e23e 1a28 5e3e
00000150: 2c94 debc 79fe 3a3e 8b08 313e fd66 cf3d
00000160: f35f c2bc 9da9 623e d8a1 afbe 9ab5 61be
00000170: 9b6f 1983 88ff 173e 2692 7cbd 22f0 f03d
00000180: 0b74 873e 3438 63be 8dd6 d63d 0b55 b1be
00000190: 7b3d 15be 3979 12bd df90 7f3d d058 ffbd
000001a0: e5de ad3d fb87 153d 48f0 b8bd a931 2b3d
000001b0: 5e87 7c3e 53db d03b 09f6 5e3b 05b2 b8be
000001c0: 257b a53d 12fc 943d 58ea 9b3c 74b0 76be
000001d0: 14a1 5a3d 014a af3d 4524 6c3d 5982 853e
000001e0: 6246 58be 7812 f9bd 9f42 423e cc15 c43d
000001f0: 6f0b c1bc 4fce 543e 4ca6 a2bd 8728 213e
00000200: 9e7b 6b3e fa17 913d 9091 813d d77e 123e
00000210: ed19 d2bd 6333 913e 840e 01bf b7ce 863e
00000220: a5a4 403e acc2 6680 1b7a f73d 9527 c33d
00000230: 2df4 c6be da31 1b3c 2383 b73c 5bef 2d3d
00000240: 255a 293d 48e6 773d 8b76 98be 55ca 733d
00000250: 3cbd 5b3c faac 8abd da1c 63bd 38e8 9fbd
00000260: 9186 403f 6d7c febc e7a2 0a3e 994e c73b
00000270: 2480 d1be bf1c 18bd f6dd d43e 696d 9300
00000280: afc7 1d3f 2dcd af3d 7b8c 2cbc 95a1 9dbe
00000290: b0f7 c73d f8e8 5cbf c0ab b63c 0384 683e
000002a0: e0f6 52be 73c6 0dbc 6ad1 1a3e f89c f33c
000002b0: 1a30 88be 6892 d43d 44fd b03d b7fe 463e
000002c0: 8f2c ad3d a1aa 0d3d d35a debd 218b 10be
000002d0: bdf2 8a3d 2c2b 62be 31a9 183e fc7f dbbe
000002e0: 944d 58bd 8430 453f f4e1 2bbe 56b6 973d
000002f0: fccc a3bd a8b4 0fbc a3e8 bc80 cfef 98be
00000300: 6a14 593e 61bf 9a3d 96d1 6abd 4f21 4a3d
00000310: 56bb e2be f577 85be bea4 783e 2f7d 673e
00000320: c099 063e cad1 f5bd efef 0c3e f556 253d
00000330: ce8e 133d e6fa b03d 7ec1 52be f904 bc3e
00000340: f1ae a53d 6891 033e f99a b43d 1e32 d9bc
00000350: ec84 423e 8e26 c73e bb7f 173e 5a80 b1bc
00000360: 06a4 acbd 6463 b63d 9885 8b3e e168 293e
00000370: 33cb 1480 3975 943e c845 a0bd 83c6 2b3d
00000380: 171a 5c3d fc9b 843c f828 133c 63d1 fd3d
00000390: a735 fcbc b9c4 8e3d 8acf dcbe 8be5 74bd
000003a0: 69fd 223e 9cf7 e6bd acbd 503e 6db5 3abd
000003b0: 99c4 853e c472 a5bd 9358 c93c e884 a93d
000003c0: 4502 7d3e 6460 7d3c 77ec 753e 341b c8be
000003d0: ba31 b73d 32d8 db3d 1fa7 5e3f 6229 92bc
000003e0: d644 4a3e 886b 113e 11a6 ee3d b005 993d
000003f0: 90df 823d 7b29 883d a3df 6abf 5248 71bc
-0.21043645 0.05831665 0.33537167 0.1455813 -0.30717683 0.05550591 -0.14405859 0.068262905
-0.11961626 7.667038e-39 0.07889229 0.10055706 -0.010448199 -0.062893026 0.52577025 -0.08505916
-0.15834327 0.05685896 0.22776896 0.404106 0.14749284 0.38939312 0.06307835 0.6003083
0.113815434 -0.060451932 0.0019363626 0.3284756 -0.23141207 0.12161786 0.31940234 -1.4239031e-38
0.11830001 -0.013006618 0.5301272 0.18830769 -0.1873454 -0.27779922 0.07722262 0.14009236
0.1456842 0.21298142 -0.05452981 0.028865743 -0.40701392 0.10225396 0.077851884 0.13462904
0.12099828 0.18019608 -0.26845843 -0.13701895 0.055974156 0.31079385 0.1681688 0.10834984
-0.09506304 -0.13934264 -0.001963856 -0.05996062 0.20665932 -0.15788348 -5.8891e-40 0.16808344
0.37591645 -0.13736653 0.01653675 0.10167072 0.23415405 0.22784941 -0.2824335 -0.01986289
0.09717174 -0.31256938 0.26994503 -0.10996377 0.15057002 0.2847072 0.0487861 0.29749072
-0.055188093 0.26384294 0.44275418 0.21694985 -0.027170263 0.18261136 0.17288415 0.10127065
-0.023727393 0.22135015 -0.34303164 -0.22041932 -4.5090776e-37 0.14843571 -0.061662816 0.11764552
0.2645572 -0.22189409 0.10490141 -0.34635195 -0.14574234 -0.03576014 0.06239402 -0.124681115
0.084897794 0.036506634 -0.09030205 0.041795406 0.24661013 0.0063738017 0.003402116 -0.36073318
0.080801286 0.07274641 0.019032642 -0.24090749 0.053376272 0.08559037 0.057651777 0.2607601
-0.21120599 -0.12161726 0.18970726 0.0957447 -0.023565022 0.20781825 -0.07941875 0.15738116
0.22996375 0.07084651 0.06326592 0.14306198 -0.10258851 0.28359517 -0.50412774 0.26329586
0.18812807 -9.437056e-39 0.12083837 0.09529034 -0.38858166 0.009472335 0.022401398 0.042464595
0.041345734 0.060522348 -0.2977794 0.05951913 0.013411816 -0.06771274 -0.055447437 -0.07807964
0.7520533 -0.03106519 0.13538705 0.0060823676 -0.40918076 -0.03713679 0.41575593 1.3539067e-38
0.6163282 0.08584056 -0.01053154 -0.3078734 0.097640395 -0.8629298 0.022298694 0.22706608
-0.20601988 -0.008653271 0.15118948 0.029737934 -0.265992 0.10379487 0.086420566 0.19433104
0.084557645 0.034586553 -0.10857167 -0.14115573 0.0678458 -0.22086781 0.14908291 -0.42871082
-0.05280836 0.77027154 -0.16785413 0.07407825 -0.07998082 -0.008771099 -1.7348528e-38 -0.2987046
0.21199194 0.07556034 -0.057328783 0.04934817 -0.4428355 -0.26068082 0.24281594 0.22606348
0.13144588 -0.12002905 0.13763402 0.04036613 0.03602486 0.08641605 -0.20581624 0.36722544
0.08090008 0.12848437 0.08818621 -0.026513156 0.18996018 0.38896602 0.14794819 -0.021667648
-0.084297225 0.08905676 0.2725036 0.16543914 -1.909604e-39 0.28995684 -0.0782581 0.041937362
0.05373582 0.01618766 0.008981936 0.12393453 -0.030787302 0.069711156 -0.4312709 -0.05978922
0.15916981 -0.112776965 0.20384854 -0.045583177 0.26126555 -0.080785304 0.024578368 0.08277303
0.24707897 0.015464876 0.24015985 -0.39083254 0.089450315 0.10734595 0.86973757 -0.017841998
0.19752821 0.14201176 0.116527684 0.07471788 0.063902974 0.06648537 -0.9174749 -0.014726715

feature.2.bias f4 [128]
00000000: 0d9e 93bd 2428 8ebe 8de0 b698 1153 92bd
00000010: 590e 17bd 8b48 d1bd cf9e 1d3e 0270 02be
00000020: 9a92 843e 63b0 5c3e f582 a1a5 db14 23bd
00000030: 412e 2fbe 99bd 88bd cfa1 17be 65ea 72be
00000040: c526 483f 44ee ecb4 ab95 07ae 8c4a a8a2
00000050: 0b8d bfbe 159b 68bd 3f0b 59af a3aa 6abe
00000060: e065 e9be 21c7 e83e 2ba1 a1bd 001a 50bd
00000070: 0b5f 193d 78a4 e53d ae0c 1fbe 7c40 033f
00000080: 2881 34be e49a abbe bf20 25be 970c 34be
00000090: f9fd 71be 03cd 933d 0cec 4fbe 6831 43bd
000000a0: d326 debd 39f6 1ebe 41ab 1eab 0687 6cbe
000000b0: c28b 3a3d d491 bea8 a1c7 21be 7cc6 44bc
000000c0: d253 123f c26b 0690 d5ed 813d ccb9 aebd
000000d0: 3346 0dac 5848 1bbd f676 85be a43a 90bd
000000e0: 26d2 15b3 a098 de3d 96ca b33d 32c5 d13c
000000f0: 9a07 b59c bb66 14bd 39cc a83d de78 f5bd
00000100: 22ab 03bd 9c18 11be 9a27 36be d208 04be
00000110: f145 883e b5d9 313f 2b1c 093e 8a66 4f8f
00000120: 86a5 80be c879 b93b 18f6 50be 4af3 503e
00000130: 8a3d 10be 786c 79be 3b60 353c 4fc7 b4b2
00000140: 138b 34b3 1ba6 0dbe 4af3 55be 13c4 99b8
00000150: 8605 44be f53e f7bd 223a 6bb5 fe1e bb3d
00000160: 49a0 a2bd 2791 8ebd 83ca 3e3e e614 c3be
00000170: 9c15 033e c40b 31be 09e7 40bd c80d 44a7
00000180: 4ba6 94bc f1e1 17be c673 a8bd 2bbe fa3d
00000190: 7ab7 2fbc ee6d 853d 668c 98bc 8676 19be
000001a0: d909 953d 61ab 59bd f6b5 77b5 987c 4abe
000001b0: 31d7 e3b7 9ac4 55bd be35 753e ee8f 70af
000001c0: a545 2bbd c962 2ebe 7c64 a53d 72ed 07be
000001d0: 8c69 6a3e e2fd 50bd 6d01 58bd c8f7 a3be
000001e0: 17be 973e 1730 f0bd 914f 7dbd 6d56 d93e
000001f0: f8a2 c09f 5394 1bba 4d1d a9be 1f16 a53d
-0.0720788 -0.27765 -4.7272636e-24 -0.0714475 -0.036878917 -0.102189146 0.15392612 -0.1273804
0.25893098 0.21551661 -2.8017788e-16 -0.03981481 -0.17107488 -0.06676788 -0.14807819 -0.23722227
0.7818416 -4.4131787e-07 -3.0828378e-11 -4.561542e-18 -0.37412295 -0.056788523 -1.974003e-10 -0.22916655
-0.45585537 0.45464423 -0.078920685 -0.050806046 0.037444156 0.112130105 -0.1553218 0.5127027
-0.17627394 -0.3351661 -0.16125773 -0.17582928 -0.23632039 0.07216837 -0.20304888 -0.04765454
-0.10847249 -0.15523614 -5.637054e-13 -0.23098382 0.04554344 -2.115748e-14 -0.15798809 -0.012010213
0.5715915 -2.6509854e-29 0.06344191 -0.08531532 -2.0076274e-12 -0.03791079 -0.26067322 -0.07042435
-3.4882895e-08 0.10868955 0.087788746 0.025606725 -1.197954e-21 -0.036230784 0.082420774 -0.11985944
-0.032145627 -0.14169544 -0.17788544 -0.1289399 0.2661586 0.6947282 0.13389651 -1.0225636e-29
-0.25126284 0.0056602694 -0.20406377 0.20405307 -0.14085975 -0.24357784 0.011070306 -2.1045393e-08
-4.2036003e-08 -0.13832895 -0.20893589 -7.33213e-05 -0.19142732 -0.12072555 -8.7628916e-07 0.09136771
-0.07940728 -0.06961279 0.1863194 -0.38101882 0.12801212 -0.17289644 -0.047095332 -2.7207935e-15
-0.0181457 -0.14832284 -0.08225207 0.12243303 -0.010724897 0.06515108 -0.018621635 -0.1498662
0.07277269 -0.053141955 -9.227946e-07 -0.19774091 -2.7160715e-05 -0.052189447 0.23946282 -2.1879007e-10
-0.041814465 -0.17029871 0.080758065 -0.13274172 0.22891825 -0.05102337 -0.052735735 -0.3202498
0.29637215 -0.117279224 -0.06184346 0.4244875 -8.158477e-20 -0.0005934883 -0.33030167 0.0806086

advantage.0.weight f4 [64, 128]
00000000: 1ac8 fa3d 2446 833f 8c19 5c00 fd7b 023e
00000010: 6ba2 c13e ffca 053f eb6f 1b3e 98a7 583e
00000020: 8eec d73e 3899 d6be 4d87 7380 945b b0ba
00000030: be87 983d a24e 0bbf 51a2 1d3f ec8f af3d
00000040: 214c 2f3e 97fc c811 0c89 4900 25f0 0400
00000050: 07c5 9abe a5f0 adbe 9ade 6400 209e 563e
00000060: 2ac3 0d3e 0805 a13e b7c1 49bd d6d0 febc
00000070: c4b8 23bf 56da 06bf 7b99 573f a11c 473e
00000080: 5988 c0bd 344d 1f3e c5c8 dd3e a9da 3cbf
00000090: 5172 f73e b433 c9be f66b 1f3f 9e27 063f
000000a0: 43f0 143f 2bf3 af3d e6bb 1e80 d0ea a43d
000000b0: 72e8 c63e ef19 3c00 3c5c 9d3d 2be8 85be
000000c0: a590 87be 2b11 8e00 c1cb e63e 9cb3 03be
000000d0: 403c 07ad 6ab4 3c3d 89b5 853f ebb2 0a3d
000000e0: dfac 9380 427f 8abe d7a0 783d c799 e4be
000000f0: fddc 0300 16c8 e8b8 c35e 1abe 77ff 923e
00000100: 798f 703f e158 ccbe c7fe f93e 414f a4be
00000110: 0968 9a3e b0c1 83be bfba 2ebf c8b7 8d00
00000120: 9b64 f23c a590 3fbe a736 923e 21e2 a1bd
00000130: 4efc 34be ff22 f33d a3f4 cc3e f983 fd1d
00000140: 1c5e 0381 073c f7bc c1c2 8bbe 206d 2ca7
00000150: 7eb8 afbe 4b15 74be 6efa 5829 c49d 0ebf
00000160: 264a aabb 730d 683c ed0b ce3b acf9 b73e
00000170: a4f2 17bc 5403 b3be 3030 693d 8276 6080
00000180: 264e 433c 41ed ccbe 741c f5be 4136 8a3e
00000190: 6b70 f9b9 b6eb ebbe 6e38 213b 25e8 debd
000001a0: 15bb 8abe 4eeb 0a3e a714 1105 9ed7 ac3e
000001b0: 677e 57a9 884f eabe e0c4 08be 8e69 1f00
000001c0: cb4c 36be 2f67 e3bd 2fd8 823e 307d 863e
000001d0: abc8 ccbc 0090 acbe 2a2e 533e 34e8 50bf
000001e0: 502a 1b3e 12e3 dbbb d794 9fbd f012 903e
000001f0: 0657 2d80 0487 c0b6 dc71 aabc 9ce7 2ebf
00000200: 406b 11a9 43e6 d380 801b 8500 9dc1 a688
00000210: 3989 ff82 f4b1 9580 f43c 6a11 fae3 2e00
00000220: abe3 900b 3266 aa05 2e66 0281 c4f4 2181
00000230: b7c9 fd80 7b67 34a8 2fc6 a080 877a d180
00000240: 9867 6809 88ab f000 18ad a600 fc9d 0000
00000250: 8286 76b0 3030 5500 4884 ba00 641d 160b
00000260: b22a 3800 a79e b700 4de8 3c8f f5d9 1280
00000270: 59a0 3c80 7067 b6a7 4d5b 19a7 6567 c180
00000280: 2775 2ea2 10dc 9600 b088 dca7 ae2a 6580
00000290: 907d 9500 25a5 bda3 5bac 169d 90e2 a588
000002a0: 68f4 99af dcc8 0501 34ec 3200 1a8b 98a5
000002b0: 7ea6 0201 fc24 5a80 a62e 73a5 9e89 fca7
000002c0: b8c7 3683 2e1b 0100 58c6 1a9e 6e1a 11af
000002d0: 7ef2 0001 9950 c581 dbf5 9b80 249f 8f80
000002e0: 30f7 ea80 09a4 8fb1 8c6f 8080 900a 2400
000002f0: e4f0 5580 5056 a180 b7ae 7b00 0337 048f
00000300: cb2b 3200 d097 02a7 6388 a313 67d6 c380
00000310: a915 00ab 7c7b 4803 da96 9b09 20f8 b500
00000320: de4a fa80 ca68 1b80 0650 d488 9327 b400
00000330: 1d20 199d 6159 4500 bd7e ae80 ded0 5800
00000340: 94e4 2a80 018b 4283 7903 dda6 52ef 1500
00000350: 8234 0881 8659 5100 10ec 4400 d659 2500
00000360: 06a6 2380 7e1a 2b80 7c39 1480 5ede b380
00000370: f10f da12 3015 a787 1465 f1ae ce62 8881
00000380: a450 4faf 5704 3500 617d e380 d53a dab3
00000390: 7c8a 8500 bbf0 a20b 14f3 f100 10c2 6714
000003a0: bb6d 3900 e9ec 65b3 1eba 8701 aafb 7980
000003b0: 34d5 9900 3995 2fa6 6c3d 1d83 eeee b800
000003c0: c4a1 7683 44cf 1b80 bdba cfab 4f23 8596
000003d0: 4e89 5a80 cbfc e59e 67c4 3c00 b79a b300
000003e0: e081 fb80 a5cc 1080 6864 8509 04c5 d380
000003f0: b850 6781 0402 5e00 8ea2 1f80 c570 3b80
0.122451976 1.025578 8.45803e-39 0.1274261 0.37819228 0.5226287 0.15179412 0.21157682
0.42172664 -0.41913772 -1.0609619e-38 -0.0013455027 0.07447766 -0.5441686 0.615758 0.08572373
0.17118885 3.1710107e-28 6.753154e-39 4.5349e-40 -0.30228445 -0.3397266 9.263404e-39 0.20958757
0.1384398 0.3144915 -0.049257006 -0.03110544 -0.63953805 -0.52676904 0.8421857 0.19444515
-0.09401006 0.15556794 0.43317237 -0.7377115 0.48329404 -0.3929726 0.6227411 0.524042
0.5817911 0.085913025 -2.82247e-39 0.080525994 0.38849217 5.519433e-39 0.07683608 -0.26153693
-0.26477543 1.3046799e-38 0.45077327 -0.12861484 -7.68724e-12 0.046070494 1.0446025 0.033862036
-1.3561832e-38 -0.27050215 0.060700264 -0.44648573 3.54782e-40 -0.00011099891 -0.15075211 0.2871053
0.9396892 -0.3991156 0.48827192 -0.32091716 0.30157498 -0.2573371 -0.682537 1.3014733e-38
0.029588988 -0.18707521 0.2855732 -0.07904459 -0.17674372 0.11871909 0.40030393 6.7105e-21
-2.412842e-38 -0.03017999 -0.27297023 -2.3928952e-15 -0.34320444 -0.23836248 4.8178848e-14 -0.5570948
-0.0051968275 0.014163363 0.0062880428 0.35932672 -0.009274159 -0.34963477 0.05693072 -8.85872e-39
0.0119204875 -0.4002476 -0.4787327 0.26994517 -0.0004757674 -0.4607827 0.0024600285 -0.10884122
-0.27095857 0.13566324 6.8216605e-36 0.33758253 -4.7849227e-14 -0.45763803 -0.13356352 2.884766e-39
-0.17802732 -0.11103665 0.2555556 0.26267385 -0.02499803 -0.33703613 0.20623079 -0.81604314
0.1515286 -0.0067104185 -0.07792061 0.28139448 -4.163815e-39 -5.737764e-06 -0.020806246 -0.6832216
-3.2289492e-14 -1.9459892e-38 1.2223986e-38 -1.003628e-33 -3.7547644e-37 -1.3747326e-38 1.8478128e-28 4.306215e-39
5.580934e-32 1.6024264e-35 -2.395054e-38 -2.974664e-38 -2.3306742e-38 -1.0014446e-14 -1.4764774e-38 -1.9237573e-38
2.7974694e-33 2.2102053e-38 1.5306787e-38 5.6674e-41 -8.9685426e-10 7.823304e-39 1.7128856e-38 2.891106e-32
5.158104e-39 1.686281e-38 -9.313855e-30 -1.731227e-39 -5.567652e-39 -5.0627295e-15 -2.128251e-15 -1.7761342e-38
-2.3643417e-18 1.3854268e-38 -6.1210463e-15 -9.290696e-39 1.3728532e-38 -2.0561362e-17 -1.994144e-21 -9.983841e-34
-2.80042e-10 2.4572352e-38 4.676509e-39 -2.6462056e-16 2.399668e-38 -8.278462e-39 -2.1092695e-16 -7.0093255e-15
-5.371426e-37 1.01586e-40 -8.193709e-21 -1.3197063e-10 2.3683867e-38 -7.2482023e-38 -1.4322698e-38 -1.3189565e-38
-2.157818e-38 -4.1804964e-09 -1.1794959e-38 3.309867e-39 -7.892432e-39 -1.4816478e-38 1.1358442e-38 -6.518697e-30
4.607485e-39 -1.8123422e-15 4.1281473e-27 -1.7984835e-38 -4.5504795e-13 5.891647e-37 3.7456753e-33 1.6711235e-38
-2.2985731e-38 -2.51715e-39 -1.2778099e-33 1.6544586e-38 -2.0265984e-21 6.368712e-39 -1.6024841e-38 8.156451e-39
-3.939089e-39 -5.7171045e-37 -1.5335897e-15 2.014397e-39 -2.5016927e-38 7.47079e-39 6.329497e-39 3.43014e-39
-3.2738e-39 -3.95843e-39 -1.857331e-39 -1.6518324e-38 1.3761664e-27 -2.513982e-34 -1.0977366e-10 -5.010029e-38
-1.885519e-10 4.868838e-39 -2.0891635e-38 -1.01621175e-07 1.22638e-38 6.276234e-32 2.2219555e-38 1.1700792e-26
5.273987e-39 -5.3533686e-08 4.9858233e-38 -1.1202375e-38 1.4127314e-38 -6.0917556e-16 -4.620866e-37 1.6983443e-38
-7.24786e-37 -2.553911e-39 -1.4760065e-12 -2.1509592e-25 -8.31445e-39 -2.4350871e-20 5.580586e-39 1.6494055e-38
-2.30973e-38 -1.54278e-39 3.2113007e-33 -1.9447966e-38 -4.2485912e-38 8.63326e-39 -2.905214e-39 -5.458748e-39

advantage.0.bias f4 [64]
00000000: e061 7c3e 7a05 b5b8 6d6c 58b7 c823 91bd
00000010: 2981 f2b7 3fcb a33d b412 0cbd f79c 10bd
00000020: eec5 503c bd75 42bc 76f5 3cbd cc85 2bbb
00000030: b06a 443d e840 c3bd 7278 20bd c2e1 3297
00000040: 82b8 c0a5 ddc1 fb3d 50ca 813e f905 9bab
00000050: fdef 2bbe afd9 a43d d984 6bab 043a d93d
00000060: 5d17 48bb 2864 dbbd 8f22 cbbd e691 a6bd
00000070: f2fd 9eb8 9d2f a3bd d71f ab3d 1c14 26af
00000080: 848d 073d 0bb0 37be 0d71 f23d b121 b63d
00000090: 7fe9 423b 81db 8daf a08b 449f 51f9 8bbc
000000a0: a280 c7af 8f2b 80b3 c16d 28be 78ef 85bd
000000b0: 8fb9 23b2 887e 9d3e bbb0 41bd ab90 a2bd
000000c0: 190c 08bd 293c a7b9 c41f a9bd 2312 85ba
000000d0: 6cae 6d3e dee2 6d3e d891 ae8f 3404 43bb
000000e0: 703d 8a3e f1da ae3d f07e 93b1 cf0d 1ebb
000000f0: 0139 d13d c450 dbbd 37a3 413e aff7 35bd
0.24646711 -8.631773e-05 -1.2899848e-05 -0.07086903 -2.8908793e-05 0.079977505 -0.034197524 -0.035305943
0.012742503 -0.011868891 -0.046132527 -0.0026172278 0.047953308 -0.09533864 -0.039177366 -5.779985e-25
-3.3431718e-16 0.12292836 0.25349665 -1.101507e-12 -0.16790767 0.08049332 -8.3673135e-13 0.10606769
-0.0030531504 -0.10712463 -0.09918701 -0.08133297 -7.581328e-05 -0.07968066 0.08355682 -1.5104756e-10
0.033093944 -0.17938249 0.11837969 0.08893145 0.0029741225 -2.5803717e-10 -4.162011e-20 -0.017086657
-3.6289288e-10 -5.968388e-08 -0.16448118 -0.06539816 -9.53004e-09 0.30760598 -0.047287684 -0.079377495
-0.033214662 -0.00031897545 -0.08258012 -0.00101525 0.23211068 0.23231074 -1.7213902e-29 -0.0029757144
0.26999998 0.085378535 -4.292694e-09 -0.0024117117 0.10215951 -0.10708764 0.18909918 -0.044425663

advantage.2.weight f4 [36, 64]
00000000: ceeb 533e cea0 b4bb 68b3 fab5 0d03 643e
00000010: c9c2 aeb4 0407 a1be a663 4e3e 14a0 df3c
00000020: d453 503e c4bb 0f3f 17a1 b53e eb66 4dbc
00000030: f1ee 013e 31bc 2a3d 12e7 df3c 8a3e 319b
00000040: a4bb df38 59ce c6bd d797 ce3c 4032 f7b9
00000050: 29d3 4f3e ba27 2fbe 62f8 3db2 ca6a 0fbd
00000060: 54bc abb9 afed 403e 9fb2 bf3d da61 b33a
00000070: 2b2c 8737 121a 153e 5e09 4dbd ff8a 85ae
00000080: e16e db3c 45c2 603e 12cd 1d3e edd0 07be
00000090: 660a 893e ae1a 97b7 7338 e11b c878 473e
000000a0: f6e7 7dab c394 3339 d7ea 833e fc6b 8e3e
000000b0: 3bba 832d f436 9dbf 3f5c 73bd 7868 893e
000000c0: 9264 0fbc 6c08 9f38 08db 753e 3399 743c
000000d0: 11e9 a4be 84e2 5fbe 0e1a 88b4 ab60 3b3d
000000e0: 3453 9ebd ac5b f93d a6f4 f5b2 b073 943e
000000f0: f0a7 b2bf e627 6b3e 954c 79be 1096 5c3e
00000100: 6b5b aa3b 3974 ebaf 4d54 80b7 33cf a5be
00000110: adda 853b 7935 bbbe fd7f 573e a40f fabb
00000120: 0707 9f3d 09c2 f13e b7a9 343f 59bf d33b
00000130: d4c7 983e 5ea0 3ebe 0c47 dbbc 4108 4f80
00000140: 101a daa2 e771 dabe 4d5b b73d ded9 8b00
00000150: 0415 d43e f0bc bdbc a72e 142e 257f b5be
00000160: 1d8a 853c 795d 253e 821e 9ebc 9f2f 20bb
00000170: d557 bfba c01f 8bbe 5502 ddbe f1bb 850f
00000180: 5217 6ebd afa2 07bf 87ca 48bf e589 633d
00000190: a0c3 a2be 2fca 45af 64f6 9200 8fb8 08bf
000001a0: 00ef 71ab 98c4 adb4 caed 803c cf8e 473d
000001b0: d53d aca7 e425 36bf 15ba e7ba 399b a1bd
000001c0: 9b93 603e 22d2 5a31 dba2 943f 0c69 b3ba
000001d0: 5b07 05bf 4031 f5bd 48e0 b4a2 2bbe 88be
000001e0: 4337 8d3d a6f2 9b3c 42a8 09b0 35b4 403f
000001f0: e17b 43bf 05f8 87bd 9c3a 213e 3484 bbbf
00000200: 9a48 f7be c247 cd36 7480 7d39 b8ca f7be
00000210: cec8 2839 e530 7fbd 1d49 793e 4497 6e3c
00000220: 2521 06bc 137c b93e 8f09 033f 522c 83b9
00000230: d63d 803e 9d42 15be 89f6 743c 462d 1e14
00000240: cefe 8633 c60a d43c e557 b33e 70a8 5f12
00000250: 8197 9f3e 3c22 6c3e f324 3bad 4170 7ebe
00000260: a9c6 afbc 73ab a63e b643 b63e 1410 913d
00000270: 8153 ab39 6374 5ebd 3064 c7bd 0e4c 1dae
00000280: 032c 8b3b 9a56 bc3d d968 a9be d4d0 f8bd
00000290: 3d2b 3abf 110e ed31 8331 4a26 a753 563d
000002a0: aff4 b1aa 2891 80b6 088b 583e be61 833e
000002b0: 8df7 1d2a 3419 fbbe d01c 9a3d 3356 563e
000002c0: 7d8d 943e e1d7 0bb7 a878 463e 694a 2e3c
000002d0: 113e 06c0 fa0b 2f3e 769f 9326 fc19 d0bd
000002e0: 46e7 2ebc 7a2b e3be e5ed 4020 d2aa b0be
000002f0: 2f53 693c f878 843c 07aa ab3e 8eb5 08be
00000300: b376 52be 64f5 62b6 7172 a83a 7533 6fbf
00000310: f824 a439 2262 d83e 8b9a d63d 2001 1fbd
00000320: 53de d0bd bd14 c63d 0f4f 1d3e 67e3 47bc
00000330: 13d0 a63e 20a9 8bbe 4487 9c3c 8476 630f
00000340: 1e52 7da1 e403 a33e 19e3 003f 98f2 0100
00000350: 481d 093f ffd8 453e 0360 082e 1f41 e2be
00000360: dc0c 793c 6799 4a3e 1916 c13d 023f 08bd
00000370: 4a93 e6b6 0037 aabd d358 6bbe eee9 6cb3
00000380: 3d65 b83e 0806 7f3e 899c 37be 6ceb 51be
00000390: 51ee 9ebf 6a49 26b6 4f74 721b 89ae 103c
000003a0: 7a81 7c33 df0b fc35 fec5 85be 4fee 23be
000003b0: b4ba 8127 409d e13b 22a6 50bd b456 9abe
000003c0: 8aca cc3e 16ac 8e2f f6a5 893e 6d96 3c3a
000003d0: 7d8a 7ebe b278 5c3e 8901 1d26 5a98 c9bd
000003e0: 9047 40be 059c 82bf fcd1 f797 8991 eebf
000003f0: a87f ae3e 8ea5 1c3d 3866 0e3f 06e8 92be
0.20695421 -0.0055123335 -1.8678666e-06 0.22266789 -3.255175e-07 -0.31450665 0.201552 0.02729801
0.20344478 0.5614588 0.35474464 -0.012536745 0.12688805 0.04168338 0.027331863 -1.4661304e-22
0.000106684194 -0.097073264 0.025218887 -0.0004714895 0.20295395 -0.17104998 -1.1057724e-08 -0.03501395
-0.00032755977 0.18840669 0.09360241 0.0013685778 1.6113821e-05 0.14560726 -0.05005776 -6.0728304e-11
0.02678627 0.21949108 0.1541026 -0.13263293 0.26765746 -1.8013026e-05 3.7259607e-22 0.19479668
-9.0205567e-13 0.00017126188 0.25765106 0.2781676 1.4975679e-11 -1.2282395 -0.059414145 0.26837516
-0.008752005 7.5832795e-05 0.24009335 0.014929104 -0.32209066 -0.21863753 -2.535093e-07 0.045746487
-0.077307135 0.12175688 -2.8633007e-08 0.28994513 -1.39575 0.22964439 -0.2434562 0.2154162
0.005198886 -4.2828832e-10 -1.5298045e-05 -0.32384643 0.004084906 -0.36564234 0.21044917 -0.007631259
0.07765012 0.4721835 0.70571464 0.0064620194 0.29839957 -0.18615863 -0.026767276 -7.257965e-39
-5.9116613e-18 -0.42665026 0.08952961 1.284329e-38 0.41422284 -0.023161381 3.369274e-11 -0.35448566
0.01630121 0.16148938 -0.019301657 -0.0024442447 -0.001459832 -0.2717266 -0.43165842 1.3187205e-29
-0.05812771 -0.5298261 -0.7843403 0.05555143 -0.31789875 -1.7988876e-10 1.3496371e-38 -0.53406614
-8.595208e-13 -3.2366802e-07 0.015738387 0.048720177 -4.780663e-15 -0.71151567 -0.0017679358 -0.078909345
0.21931307 3.1842622e-09 1.16122 -0.0013687923 -0.5196435 -0.11972284 -4.9026565e-18 -0.26707587
0.06895306 0.019036602 -5.007942e-10 0.75274974 -0.763609 -0.06639103 0.15745014 -1.464972
-0.48297578 6.11783e-06 0.00024175813 -0.4839685 0.00016096534 -0.06230249 0.24344297 0.014562432
-0.008186613 0.36227474 0.5118646 -0.00025019288 0.25047177 -0.14576192 0.014951357 7.98589e-27
6.28621e-08 0.025884043 0.35027996 7.057401e-28 0.31170276 0.23059934 -1.0637924e-11 -0.24847509
-0.021457033 0.3255268 0.35598534 0.07083145 0.00032677877 -0.054310214 -0.09735906 -3.5765217e-11
0.00424719 0.091962054 -0.33087805 -0.12149206 -0.72722226 6.899207e-09 7.014993e-16 0.05232587
-3.16113e-13 -3.8315957e-06 0.21146786 0.2566051 1.4030288e-13 -0.49042666 0.07525027 0.2093132
0.29014197 -8.335309e-06 0.19381964 0.010637858 -2.0975382 0.17094412 1.0243396e-15 -0.10161206
-0.010675257 -0.44369107 1.6341745e-19 -0.34505326 0.014241024 0.016170964 0.33528158 -0.13350508
-0.20553093 -3.381946e-06 0.0012851489 -0.9343789 0.0003130806 0.4226237 0.104786955 -0.038819432
-0.10198655 0.09671924 0.1536219 -0.012200213 0.32580623 -0.2727747 0.019107468 1.1214789e-29
-8.5828415e-19 0.31838906 0.50346524 1.78862e-40 0.53560305 0.19321059 3.1008095e-11 -0.44190308
0.01520082 0.19785081 0.09428043 -0.033263214 -6.871681e-06 -0.08311272 -0.22983103 -5.516079e-08
0.3601474 0.24904644 -0.17930807 -0.20499963 -1.2416478 -2.477866e-06 2.0055352e-22 0.008830675
5.879108e-08 1.8778918e-06 -0.2612762 -0.16008876 3.6007116e-15 0.0068852007 -0.050939687 -0.30144274
0.39998275 2.5951924e-10 0.2688443 0.0007194046 -0.24857517 0.21530417 5.44724e-16 -0.09843512
-0.18777299 -1.0203863 -1.6015008e-24 -1.8638164 0.3408177 0.038243823 0.55624723 -0.28692645

advantage.2.bias f4 [36]
00000000: d273 96be b393 853c 4732 ecbd 7194 df3d
00000010: d364 bf3c 586d 84be 7ec6 483e 6e85 253e
00000020: 6b00 193e fd6e 0b3e a7f9 5d3e b0ca 6fbd
00000030: fd3c ac3c a483 42be 0def 0abd e29c 1c3e
00000040: 7bbd 873d c9ec f6bd c09b 4e3e df70 04bd
00000050: 7574 c43e 758f 833e 9ecb 9b3d a00c 51bd
00000060: 75dd 1f3e bb0b bb3e 8fb1 9b3d d150 dbbd
00000070: 422b 893e 90f5 a03d 1c6c 2bbf 94c7 c53d
00000080: 829c 623e 00e3 ddbd b3ca 3abd b601 d03e
-0.2938524 0.01630578 -0.11533027 0.10916985 0.023363506 -0.25864673 0.19606969 0.1616418
0.14941566 0.13616557 0.21677266 -0.058542907 0.021025175 -0.1899553 -0.033919383 0.15294221
0.066279374 -0.12056882 0.20176601 -0.032334205 0.383701 0.25695387 0.07607196 -0.05103743
0.15611823 0.36532387 0.07602226 -0.10708774 0.26790816 0.07859337 -0.66961837 0.09657207
0.22130015 -0.108343124 -0.045603465 0.40626305

value.0.weight f4 [64, 128]
00000000: 70a4 1900 06c1 2000 1a74 9a80 bc5a 0c01
00000010: b8f0 5e80 389b 9100 0c2c ae00 fa48 8380
00000020: 6c05 7901 8e2a 8a01 6ca6 eb01 a04c 9980
00000030: d8d2 9080 9e86 e280 2606 4180 748d 6680
00000040: 70f7 d400 2054 2e01 9a17 d000 6ae8 b880
00000050: 90a9 8780 b046 3600 804e 3300 c4f3 5380
00000060: f4c2 1880 9040 3880 f445 3680 1cf5 4281
00000070: 9817 5a00 180b ee80 6481 f080 c82f 5b00
00000080: 284b 6500 80ab 1a81 f8b6 b080 908f ca00
00000090: 3294 4280 b02a fe80 722e 2f80 0c67 3a80
000000a0: 58e5 0d80 fceb a780 7457 eb80 4c63 df80
000000b0: a8e9 8d80 aeb2 de81 06b1 2780 8cc6 dc80
000000c0: 0083 4680 a03f bf00 442a d700 e0a1 6100
000000d0: 9bfd e781 546a 7d80 be4f 7500 fc1e f000
000000e0: ea02 1500 a8b4 8880 30a5 7200 9037 a080
000000f0: 4ecd a180 a06b 2180 ecbf 6301 3622 1980
00000100: aa1d 1e00 bafb 3880 3c24 9500 3a31 fe01
00000110: 40f9 ac00 25bf d701 9468 5081 4205 b800
00000120: 2407 8901 c663 b481 4079 4a80 667e f800
00000130: 447a 9480 7efb 9c01 be88 d481 f694 f980
00000140: 562e 9801 b2c2 a081 1ee9 c700 a415 5100
00000150: 8015 cc01 227f 4e80 7c7c bf00 b031 8180
00000160: 456a 9f01 ec28 5601 d8d4 e000 2cec 8901
00000170: 4e09 af00 f3fe f681 7c70 3e80 8c95 1a80
00000180: 4c2f 9200 1477 2780 e07c a400 3fb4 f101
00000190: 1ade be80 8a13 8081 081d db00 740c 5180
000001a0: 3c0b 6081 56b0 3400 846a 8200 60c6 7f00
000001b0: 9016 6d00 7cb5 b880 55b9 a881 606b 6b80
000001c0: 644c e400 3c89 ac80 84b6 3280 a692 3e80
000001d0: f236 1f00 7ef7 d000 58a4 2e00 0465 a300
000001e0: b249 0380 a892 e180 cc46 d700 c417 e500
000001f0: f8fe 4d80 b0e8 c600 0668 8c00 c0d7 a980
00000200: 9c46 f280 7c88 8980 d4eb d181 d87e 3980
00000210: da9e 6500 b412 7a80 a816 2280 b450 e880
00000220: 9804 2e00 08cb cc00 2c84 9781 10fd aa80
00000230: a018 0d80 aa79 6100 60c2 c680 44ba 0181
00000240: b8a3 c600 3e96 6680 a058 8580 53d3 8981
00000250: 3867 2680 e814 b400 6c2d 6580 00f5 5880
00000260: ccec af01 32ff 4d00 e0d9 8800 0715 0001
00000270: e52d 0281 3001 6081 c017 9b00 fe03 0301
00000280: 9c29 0401 d827 3280 6cec 4b01 a2c7 9b00
00000290: 7aa4 0f80 52d9 da81 20dd 6700 5a00 1300
000002a0: 9255 0f00 787b 9500 c47d cd80 b805 4481
000002b0: 389f 4c80 0450 9c00 76e5 a800 a6af 0e00
000002c0: 7843 5000 d4ad 3c01 8c46 9781 f0e4 0d00
000002d0: 18de 9a80 782a 5f00 e8e4 6e00 30e4 4700
000002e0: a82c 6780 532a b081 c04b 7a81 32fa 0500
000002f0: 0c93 2200 18e6 3b80 788c 8400 78e1 5200
00000300: 2c1d f100 6c2b 6a80 0446 0780 12e7 1200
00000310: 0021 c780 f0f0 b980 bacb d080 7c20 1400
00000320: dc1e 4f81 4677 c980 5090 5001 2204 2500
00000330: 04a8 6000 b8a6 1c80 e829 c500 f8d9 e100
00000340: 84bf 4700 cc72 3481 2acd 2000 27c8 e301
00000350: eae6 9480 e4ae 6e81 7a47 4300 b4e4 2b00
00000360: 8633 a480 6883 6500 a0db d800 48cf 7680
00000370: 6680 f581 c085 7980 f109 bb81 2826 7301
00000380: 0c6f 9480 9f6d b581 64a7 3c80 e63b f900
00000390: 3ee3 cb00 5e9b f600 2861 8a00 b4ce 3e00
000003a0: c81f c880 dc77 2a00 600c 7980 623e 4f00
000003b0: cae5 f101 466a 4e80 b42b 0b01 f873 0e00
000003c0: 5047 bd01 9a43 2e00 54f5 7100 246b 8d80
000003d0: aab0 2700 ced1 a781 6841 e100 4042 d680
000003e0: 52d6 0481 2ccc 1200 2cf6 b480 a8e2 2c80
000003f0: ac49 ae81 e04c 3480 a0ca 8280 dc99 6880
2.354876e-39 3.00798e-39 -1.4184316e-38 2.5779038e-38 -8.71889e-39 1.3371829e-38 1.5995177e-38 -1.2056629e-38
4.5737967e-38 5.0754257e-38 8.656417e-38 -1.4078319e-38 -1.3299948e-38 -2.0803114e-38 -5.971513e-39 -9.417964e-39
1.9557889e-38 3.201911e-38 1.911025e-38 -1.6981106e-38 -1.245862e-38 4.984475e-39 4.711771e-39 -7.709793e-39
-2.273988e-39 -5.165948e-39 -4.984211e-39 -3.580803e-38 8.273658e-39 -2.1860828e-38 -2.2086936e-38 8.374171e-39
9.302346e-39 -2.8408378e-38 -1.6228684e-38 1.8602271e-38 -6.114305e-39 -2.334153e-38 -4.33293e-39 -5.363425e-39
-1.276134e-39 -1.5421183e-38 -2.1612714e-38 -2.0514937e-38 -1.3032625e-38 -8.1806313e-38 -3.645088e-39 -2.0275034e-38
-6.475479e-39 1.7563404e-38 1.9759794e-38 8.966113e-39 -8.5219904e-38 -1.151758e-38 1.0773359e-38 2.2051634e-38
1.929591e-39 -1.2554435e-38 1.0528505e-38 -1.4713611e-38 -1.4859164e-38 -3.06918e-39 4.1831012e-38 -2.30816e-39
2.765706e-39 -5.23309e-39 1.3696487e-38 9.33755e-38 1.588512e-38 7.9252806e-38 -3.8278598e-38 1.6899617e-38
5.03361e-38 -6.6264725e-38 -6.839323e-39 2.2820546e-38 -1.3635514e-38 5.7666223e-38 -7.8072716e-38 -2.2920476e-38
5.590247e-38 -5.905409e-38 1.835889e-38 7.446438e-39 7.4968616e-38 -7.208775e-39 1.7585236e-38 -1.1864604e-38
5.8559865e-38 3.9334952e-38 2.0647505e-38 5.066474e-38 1.607455e-38 -9.073196e-38 -5.734153e-39 -2.44137e-39
1.342495e-38 -3.624302e-39 1.5105818e-38 8.878806e-38 -1.7528419e-38 -4.704781e-38 2.0122388e-38 -7.443143e-39
-4.1150363e-38 4.838703e-39 1.1976825e-38 1.1734272e-38 1.0018163e-38 -1.6962836e-38 -6.197939e-38 -9.864917e-39
2.0965897e-38 -1.5844936e-38 -4.657249e-39 -5.746408e-39 2.866611e-39 1.9190567e-38 4.283388e-39 1.5005423e-38
-3.01943e-40 -2.0715597e-38 1.9770029e-38 2.1038854e-38 -7.162799e-39 1.8266901e-38 1.2894286e-38 -1.5597595e-38
-2.224952e-38 -1.2630424e-38 -7.711287e-38 -5.280126e-39 9.33237e-39 -1.121064e-38 -3.130534e-39 -2.1334786e-38
4.226081e-39 1.8807275e-38 -5.5658297e-38 -1.5702816e-38 -1.202695e-39 8.951688e-39 -1.8253157e-38 -2.3827197e-38
1.824216e-38 -9.421117e-39 -1.2245914e-38 -5.062909e-38 -3.526777e-39 1.6537889e-38 -9.29168e-39 -8.169413e-39
6.4624634e-38 7.16288e-39 1.2567786e-38 2.3524973e-38 -2.3910157e-38 -4.1143154e-38 1.4243022e-38 2.4063764e-38
2.4274424e-38 -4.606068e-39 3.7454836e-38 1.4306117e-38 -1.436536e-39 -8.039239e-38 9.538381e-39 1.745e-39
1.408229e-39 1.3727781e-38 -1.8871393e-38 -3.6003617e-38 -7.036615e-39 1.4355042e-38 1.5510678e-38 1.348708e-39
7.371043e-39 3.4654862e-38 -5.556987e-38 1.275989e-39 -1.4222339e-38 8.739607e-39 1.018402e-38 6.602178e-39
-9.475076e-39 -6.471292e-38 -4.5972096e-38 5.4893e-40 3.175157e-39 -5.500836e-39 1.2172676e-38 7.611394e-39
2.214282e-38 -9.75014e-39 -6.67965e-40 1.735931e-39 -1.8287102e-38 -1.7075999e-38 -1.9174867e-38 1.848363e-39
-3.8042036e-38 -1.8501722e-38 3.8307106e-38 3.399396e-39 8.87648e-39 -2.631201e-39 1.8106626e-38 2.0741179e-38
6.589023e-39 -3.314314e-38 3.012335e-39 8.3673835e-38 -1.367449e-38 -4.3839174e-38 6.178619e-39 4.03097e-39
-1.5079504e-38 9.322525e-39 1.9915254e-38 -1.0910947e-38 -9.018303e-38 -1.1160075e-38 -6.8707216e-38 4.4659427e-38
-1.363149e-38 -6.66462e-38 -5.570178e-39 2.2888526e-38 1.8724125e-38 2.2647267e-38 1.2708152e-38 5.767952e-39
-1.83785e-38 3.900088e-39 -1.1116534e-38 7.277383e-39 8.885915e-38 -7.201292e-39 2.5561623e-38 1.327299e-39
6.9529964e-38 4.248684e-39 1.0465418e-38 -1.298724e-38 3.64496e-39 -6.1647166e-38 2.068645e-38 -1.9676562e-38
-2.4398338e-38 1.726282e-39 -1.6618699e-38 -4.122071e-39 -6.402322e-38 -4.803023e-39 -1.2011303e-38 -9.606086e-39

value.0.bias f4 [64]
00000000: 3cd5 4a01 c646 df00 dac2 0280 58c2 2f80
00000010: a228 a881 409e 7e00 4808 1780 980a 1400
00000020: bcda a081 3cf1 1e00 f873 2181 803d 3500
00000030: 2610 e481 8000 1200 104f 8580 1696 e600
00000040: f2c5 3f00 625d ac00 f8dc 6881 6e9a 4700
00000050: b2e0 4b80 0cbe 0c00 a19f c681 4c12 b381
00000060: 6026 7100 be32 af81 946b 3600 a021 4000
00000070: 5a4a 1700 b480 4c80 a0df 7a01 f6fd b180
00000080: 3068 0001 cc66 a480 3813 5280 7c5a ef01
00000090: 0874 cf81 1239 6580 98b0 2d00 929d bc01
000000a0: 4423 4e81 a47c 4c00 fc2b 9300 acb6 0980
000000b0: 94d7 6180 5c85 3300 de59 d200 8658 4380
000000c0: be2e 0a00 9c0f 5400 30c7 ec80 5c31 9b80
000000d0: dc62 c280 f2b3 5880 ca2b 2200 f090 1080
000000e0: 12d4 1080 2c06 1680 4846 c200 6052 5200
000000f0: fcac f680 7c65 0080 a075 fb80 6a9d 1e00
3.725453e-38 2.0504704e-38 -2.5357e-40 -4.385986e-39 -6.177176e-38 1.1628042e-38 -2.115187e-39 1.84051e-39
-5.9088586e-38 2.841603e-39 -2.9654233e-38 4.889343e-39 -8.3777144e-38 1.653218e-39 -1.2242483e-38 2.1176005e-38
5.856646e-39 1.5829205e-38 -4.2770208e-38 6.575719e-39 -6.968268e-39 1.170202e-39 -7.296277e-38 -6.578047e-38
1.0391177e-38 -6.435766e-38 4.997709e-39 5.889534e-39 2.138889e-39 -7.025668e-39 4.607819e-38 -1.6345987e-38
2.3584638e-38 -1.5097898e-38 -7.537405e-39 8.7924573e-38 -7.620629e-38 -9.295858e-39 4.195947e-39 6.9286395e-38
-3.7861526e-38 7.02421e-39 1.3515597e-38 -8.9205e-40 -8.985378e-39 4.73145e-39 1.9317692e-38 -6.184734e-39
9.35123e-40 7.719781e-39 -2.1744632e-38 -1.4252209e-38 -1.785155e-38 -8.146076e-39 3.138115e-39 -1.521362e-39
-1.545444e-39 -2.022595e-39 1.7841298e-38 7.560061e-39 -2.2653587e-38 -3.6406e-41 -2.3092905e-38 2.811534e-39

value.2.weight f4 [1, 64]
00000000: faa8 4780 bf3a 9601 d4de 0f82 628e 2400
00000010: f8ff 1200 72b9 cc01 2a1f c281 9351 a080
00000020: 5747 0a80 d280 2880 cef9 9500 2491 3680
00000030: 98e2 9c00 b855 6d80 3012 2c00 be04 3900
00000040: 08f3 0401 44c6 3d00 d844 2f00 89c5 9600
00000050: c87e d100 4620 0580 c467 cc00 f8fb 3d00
00000060: 16f7 9901 28b9 f200 ce62 6880 988d 5a80
00000070: 600b d900 f065 3780 0420 2b80 2c17 f780
00000080: 0547 9b00 6096 3f00 6b38 2700 58bb 0401
00000090: 8802 4500 37b6 2e80 914b 3580 1288 9b00
000000a0: 44ee 3400 f2ae b480 c4bc 2f00 a0f1 7580
000000b0: 1986 7080 7ed6 2d00 d8c8 8280 2cc9 7c00
000000c0: f1b2 da81 afea 3b00 70b8 0101 12ce 6d80
000000d0: b27e 2e00 8e42 b301 4f24 4480 32d9 7080
000000e0: 3094 2300 4cc2 e700 42ae af00 180b aa80
000000f0: f007 c780 c6aa ab80 081a 5300 ce24 a501
-6.580938e-39 5.5185594e-38 -1.0569929e-37 3.357155e-39 1.744863e-39 7.5203866e-38 -7.1309063e-38 -1.4722943e-38
-9.43947e-40 -3.719632e-39 1.3773102e-38 -5.011183e-39 1.4407624e-38 -1.0040819e-38 4.047286e-39 5.236324e-39
2.4418937e-38 5.67309e-39 4.340965e-39 1.3846187e-38 1.9239099e-38 -4.70755e-40 1.8771665e-38 5.692355e-39
5.6557875e-38 2.2290612e-38 -9.586336e-39 -8.315989e-39 1.9932383e-38 -5.08752e-39 -3.960411e-39 -2.269168e-38
1.4259979e-38 5.83958e-39 3.601823e-39 2.4378984e-38 6.337557e-39 -4.289799e-39 -4.89439e-39 1.4283315e-38
4.86092e-39 -1.6593148e-38 4.383985e-39 -1.0831432e-38 -1.0333681e-38 4.209543e-39 -1.2010664e-38 1.1459768e-38
-8.033732e-38 5.502483e-39 2.3825885e-38 -1.0083993e-38 4.269883e-39 6.5849717e-38 -6.257839e-39 -1.036349e-38
3.267402e-39 2.12837e-38 1.6133724e-38 -1.5616014e-38 -1.8278111e-38 -1.5765132e-38 7.631684e-39 6.066424e-38
