pre-trained/ddqn_dnn14000.pth (torch_old, 650004 bytes, 44 tensors)

feature.0.weight f4 [128, 36]
000000 f6 49 f2 bc 90 66 ad bc 87 61 f7 bc 0b 68 d9 3c
       -0.029576283 -0.02116707 -0.030197872 0.02653887
000010 f0 9a 6a 3c 26 63 d4 bc b7 63 de bc 2e fe 43 bd
       0.014319167 -0.025926184 -0.027147157 -0.047849827
000020 15 03 be 3c 72 6e 96 3a cb 06 ab 3d 2a 70 69 3d
       0.023194829 0.0011477007 0.08350905 0.056991734
000030 a0 80 ab bd b5 8b f2 bc 32 61 15 3e a3 67 86 3e
       -0.08374143 -0.029607633 0.14587858 0.26250944
000040 eb a8 8a 3d af 5a 4e 3d 05 4b 1a bd 5d cb 19 bd
       0.067705 0.05037945 -0.0376692 -0.037547458
000050 4b d9 62 3e 74 42 27 c0 0d 4d 46 3d 68 7d c9 3c
       0.22153203 -2.613431 0.048413325 0.024595931
000060 8a b4 25 bc 0f a8 9f 3c b4 9b 53 3d 26 05 7e bc
       -0.010113845 0.019489316 0.051662162 -0.015504157
000070 96 49 3a bd 9b 51 43 3d 55 99 5f 3c 4b d7 f4 3c
       -0.045480333 0.047685247 0.013647397 0.029887816
000080 6f 36 9f bc 7b 11 14 be e7 cb c0 bc c6 19 00 3e
       -0.019435136 -0.14459793 -0.023534728 0.12509832
000090 bb 38 01 bb 4a 4b a2 3d 6c 0d 35 3c a0 45 93 bd
       -0.0019717652 0.079245165 0.011050563 -0.07191014
0000a0 05 a8 80 3d bf ae e8 3c e8 82 38 3e 34 96 e6 3d
       0.06282047 0.028403638 0.18018687 0.11259118
0000b0 22 88 49 bd 2a e1 0c bc 5e c2 8a bc 01 e3 1f bc
       -0.049202092 -0.008598605 -0.016938385 -0.009758712
0000c0 1f dc 7f 3d 7b ca 3e 3d c0 58 10 3b 40 01 9f 3c
       0.062465783 0.04657982 0.0022025555 0.019409776
0000d0 16 59 67 3d 77 5c 61 3d 03 f8 20 be ba dd 69 bd
       0.056481443 0.055019822 -0.15719609 -0.05709622
0000e0 b0 d3 a9 3c 92 66 ff 3d c4 8f 09 3e 2c dc ff 3d
       0.020730823 0.124707356 0.13433748 0.12493166
0000f0 d1 d0 cb bf 5f d1 6d be 14 24 2c 3e 1c 61 ea 3d
       -1.5923101 -0.232244 0.16810638 0.114443034
000100 d5 a1 d0 3d 0b b7 10 bd a7 6c ab bf af 1c 64 bd
       0.10187117 -0.035330813 -1.3392533 -0.055691417
000110 5f 5c ad 3d cf a2 dc ba 38 c0 89 bd 1e d6 b9 3d
       0.08464884 -0.0016833189 -0.06726116 0.09074043
000120 29 45 3f bd e4 65 ed bc 29 23 10 bd 03 f4 a3 3c
       -0.046696816 -0.02897925 -0.03518978 0.020013815
000130 d6 09 89 3d 40 73 26 37 b4 44 3b be a3 ed 5b 3d
       0.06691329 9.921205e-06 -0.18287927 0.053693425
000140 03 bf a8 3d a4 0d a7 3c 6f f2 76 3d d6 9c 56 3d
       0.082395576 0.020392247 0.060289796 0.052395664
000150 cd f2 4c bf 73 62 e7 bf c6 b2 da 3d 21 b4 2c bc
       -0.80057985 -1.8076919 0.106786296 -0.010540993
000160 48 10 6e 3c 8e 68 1e 3c b2 c4 e8 3e 93 3e d9 3e
       0.014530249 0.0096684825 0.45462567 0.42430553
000170 56 6d 2c bd 09 00 b2 bc 1b 7a a1 bd 77 e2 e0 bc
       -0.04209646 -0.021728532 -0.07884618 -0.027451737
000180 a4 2b 42 3e bc 49 61 3e 98 36 2e 3e cd c8 38 bd
       0.1896196 0.22000784 0.17013013 -0.045113374
000190 6f fa 1c bd 41 f9 e2 bc 51 65 9b bc 10 4d 24 3d
       -0.03832477 -0.027706744 -0.01896921 0.040112555
0001a0 50 42 b2 bc a2 0f 80 3d 4e 1f 9a bd 0e ab 84 3e
       -0.021760136 0.06252982 -0.07525502 0.25911754
0001b0 8d 3e c1 bd cd 81 ac 3d 6d 41 bc 3c 4b f2 ab bd
       -0.09435759 0.08423195 0.022980416 -0.08395823
0001c0 1d 34 7b bc 43 59 53 3c 9a 1d 89 bd 20 b5 18 be
       -0.015332249 0.0128997 -0.06695099 -0.14912844
0001d0 27 47 cd 3c 11 4b 5e 3d 0b 90 bb bb 49 47 57 3d
       0.025058342 0.054270808 -0.0057239584 0.052558217
0001e0 bf 2a f3 bc c9 1f b8 bd d3 38 06 3e 66 38 0f 3e
       -0.029683469 -0.089904375 0.13107614 0.13986358
0001f0 ae c9 2e bd c1 90 86 3d 08 0f 81 3b ce ae 25 3e
       -0.042672805 0.06570578 0.0039385594 0.16179964
000200 41 46 c5 3f 03 b9 af be d3 ff f9 bd 39 08 84 bc
       1.5412065 -0.3432084 -0.12206998 -0.016117202
000210 1e 03 f2 3a a8 2c 92 3d ca 4c 86 bd c2 70 19 3e
       0.0018464064 0.07137424 -0.06557615 0.1498442
000220 a9 a1 c1 bc 06 47 c8 3c 71 4a 03 bd de bd d3 bd
       -0.023636656 0.02444793 -0.032053415 -0.10338949
000230 aa ab 18 be 75 c0 37 be db 9e 76 3c b8 31 6a 3e
       -0.14909235 -0.1794451 0.0150525225 0.22870529
000240 5d 22 9b be 1f ea b2 be b0 c7 00 bf 54 1c 52 be
       -0.30299655 -0.34944245 -0.503047 -0.20518619
000250 6a e2 97 be e3 7d fa 3d 53 77 88 be 67 8c 1c be
       -0.29664928 0.12231042 -0.26653537 -0.15287934
000260 18 15 9b be b3 89 ae be 85 6b 48 3e 83 3e 7e be
       -0.3028953 -0.3408943 0.19572265 -0.24828534
000270 be 4b 7c be 2e f3 d4 be eb a9 80 bf 19 d8 38 bf
       -0.24638268 -0.4159178 -1.0051855 -0.7220474
000280 28 8e 77 3e f3 28 a8 be 30 2a 51 be c4 6e 8a be
       0.24175322 -0.32843742 -0.2042625 -0.27037632
000290 25 03 ac be c3 7a 21 bf 31 74 a4 be 72 f5 9a be
       -0.3359615 -0.63077945 -0.32119897 -0.30265385
0002a0 48 32 9d 3d d0 0b 85 3c 40 ec ce 3d 30 27 9f bc
       0.07675606 0.016240984 0.10103655 -0.019427866
0002b0 3a 11 60 be 2c 00 c9 3e 7c d4 b9 be ab 6d b7 bd
       -0.21881571 0.39257944 -0.36294925 -0.089564644
0002c0 4b 2c f7 bc 79 9e 7b be 19 e1 11 3f 58 7b 7d 3c
       -0.030172488 -0.24572171 0.56984097 0.015471302
0002d0 3a 7f 4a bc ca 18 41 3c b5 fa c2 3d f3 c3 fa 3c
       -0.012359435 0.011785695 0.09520475 0.030611014
0002e0 db d4 5f bb b5 c6 28 bd b5 0a 6d bd 45 6d a3 bc
       -0.0034153971 -0.041205127 -0.05787154 -0.019949565
0002f0 a2 09 80 3d d5 f5 21 3d 24 59 b8 bc 3d b5 aa bd
       0.06251837 0.039541084 -0.022503443 -0.0833535
000300 f1 9d 18 3d 43 07 0d 3e 55 e4 e7 3d 45 bd 2c 3d
       0.03726 0.13772301 0.11322848 0.04217269
000310 4e 3f 88 3b 06 db 96 bb 8d d2 e9 bc 35 0b 70 bd
       0.004157937 -0.0046037463 -0.028542781 -0.058604438
000320 62 5a 36 3e 5f cc 63 3d 96 6d d6 3c 5e a6 13 be
       0.17807916 0.055614825 0.026175302 -0.14418933
000330 9a 7b c8 bd 05 17 46 be d1 1b db bd 02 3f 22 3d
       -0.097892 -0.19344719 -0.10698665 0.03961087
000340 e4 6c 53 3d 57 bb ef bd be 2c cc 3f 4c ba 2d bf
       0.051617518 -0.11705654 1.5951154 -0.6786239
000350 66 61 76 3d f0 75 0c 3d 4d 9a 15 be 82 97 c5 3d
       0.06015148 0.03429216 -0.14609642 0.096480384
000360 9c ce 6a bd 8a d0 67 3d 3e 55 10 3d c0 57 15 3d
       -0.057325944 0.056595363 0.035237543 0.036460638
000370 8d b5 35 3d 6d 09 8c be fd da f7 3d 52 34 bd bd
       0.044362593 -0.2735094 0.121023156 -0.09238495
000380 07 90 71 bc b4 8f c3 3c a8 1a 4a 3d d4 6d 42 3d
       -0.014743811 0.023872234 0.049341828 0.04746802
000390 ff b0 1c 3d 04 27 1d 3d 3e c0 1c 3d 11 51 ab 3d
       0.038254734 0.038367286 0.038269274 0.083650716
0003a0 79 60 c1 bf 84 41 b7 bf 16 93 51 3d d2 84 de 3c
       -1.5107566 -1.4316869 0.051165663 0.027162943
0003b0 a7 b2 29 3d 12 95 3b 3e 22 2a 3f 3e a8 8b 0d 3e
       0.04143014 0.18318585 0.18668416 0.13822806
0003c0 dd b0 ad 3c 26 e6 c1 ba c5 6f 16 3d 8e 12 44 bd
       0.021202499 -0.0014793321 0.036727685 -0.047869258
0003d0 89 18 21 3e 03 8b 28 bd 25 39 aa bc 38 d0 be ba
       0.15732016 -0.041148197 -0.020779202 -0.0014557904
0003e0 ae a5 91 bd 68 a8 14 be b5 80 21 be ca 67 26 bd
       -0.07111679 -0.14517367 -0.15771754 -0.040626325
0003f0 aa 2a b7 be db 11 a1 bd 58 01 5d 3d 45 a9 cf 3d
       -0.35774738 -0.07864734 0.05395636 0.101397075

feature.0.bias f4 [128]
000000 9b 45 97 bd 55 07 56 bd 7d 5d 00 be e9 90 04 bc
       -0.07386323 -0.052253086 -0.12535663 -0.00809119
000010 50 d6 6b be 43 3d 94 bc 93 c8 d0 bd 13 6d 4b bd
       -0.23030972 -0.018095618 -0.101945065 -0.04966457
000020 41 5d 01 bd 29 ac 30 bc ff 35 0a be a4 82 8a bc
       -0.031583074 -0.010783234 -0.1349716 -0.016907997
000030 94 e9 a0 bd 87 15 79 bd b6 07 5b 3c d7 3d 8b bd
       -0.078570515 -0.060811546 0.013368538 -0.067989044
000040 5d 9b 84 3d fa 17 bf bd 4f 7d e6 bd 76 45 b8 bd
       0.06474946 -0.09330745 -0.112543695 -0.089976236
000050 d6 2e 5c bd 53 5a 99 be 10 be b2 bc 1d 95 51 be
       -0.053755604 -0.29951724 -0.021819144 -0.20467038
000060 69 e0 24 bd 8c f1 57 be 96 65 e8 bd f7 79 49 bd
       -0.040253077 -0.21088237 -0.11347501 -0.04918858
000070 39 5a 98 bd 9c da cc 3a 7b 35 2b be 64 cb 18 bd
       -0.074390836 0.0015629116 -0.1671962 -0.037303343
000080 ca 8b 01 be 03 54 1a 3d 4c fd 3a be 70 dd f8 bd
       -0.12650982 0.037677776 -0.18260688 -0.12151611
000090 87 01 ff bd 75 dd 34 be d8 68 51 be 16 d5 c5 bb
       -0.12451463 -0.17662604 -0.20450151 -0.0060373647
0000a0 55 4c 8c 3c 0f 7c 8c 3c 74 2e 64 bd 73 5e ab bd
       0.017126242 0.017149 -0.055708364 -0.08367624
0000b0 5d 1f 3c bd b2 8e f9 bc 75 ea 48 bd 11 f9 41 bd
       -0.045928348 -0.03046355 -0.04905172 -0.04735667
0000c0 4f ad 06 be 08 fc 9a 3d 4a 7f f7 bc a2 1a da bd
       -0.1315205 0.075676024 -0.030212063 -0.10649611
0000d0 d9 4f 0d be 85 f6 2c bc dc 88 9b bd 8e 31 a4 bd
       -0.1379999 -0.010556822 -0.07594463 -0.08017264
0000e0 1b 7d 2f be 8d 92 69 bb 30 19 c9 3c e9 7e db bc
       -0.17137568 -0.003564033 0.024548143 -0.026793914
0000f0 50 67 00 be f6 1f fe bd 6f b6 b8 bd e9 4e 39 be
       -0.1253941 -0.1240844 -0.090191714 -0.18096508
000100 0a 5f dd bb 58 d5 a9 bd dc ff 58 bc 01 5e da bd
       -0.0067557143 -0.08292645 -0.013244595 -0.10662461
000110 74 09 8b bc 28 01 cd bd 46 88 e1 3c 35 2e cc bd
       -0.016972281 -0.10009986 0.0275308 -0.09969751
000120 df b3 53 3d f7 f5 bd 3e a3 cf 61 3d b1 0c 74 bd
       0.05168521 0.3710172 0.05512966 -0.059582416
000130 72 20 f6 bd 25 21 bf bd bf ef 10 3d 10 a9 96 bd
       -0.12017907 -0.09332494 0.03538489 -0.07356465
000140 33 a7 02 3e 60 c3 8a bd 0f bf 21 3e 39 72 5e be
       0.12759094 -0.06775546 0.1579554 -0.2172326
000150 99 ae f6 bc 57 7f d0 3d a1 b1 83 3c 8a c4 5e bd
       -0.030112552 0.10180538 0.016075911 -0.054386653
000160 4e 91 b3 3c 73 e2 5e bd 48 18 12 3c 8a 41 f3 bd
       0.021919873 -0.054415178 0.008916922 -0.11877735
000170 5c de 58 a1 6a 31 60 bc 14 2c c1 bd 16 9a 86 be
       -7.3477937e-19 -0.013683656 -0.09432235 -0.26289433
000180 e9 a9 66 be 06 e1 af 3e b0 bd a9 bd 78 66 9b bb
       -0.22525753 0.34351367 -0.08288133 -0.00474244
000190 dc 28 68 3d 59 cf 28 bd f8 3f a4 3d b5 c1 29 3e
       0.05667959 -0.041213367 0.080200136 0.165778
0001a0 14 3f 98 bc 7e cf bc 3c 15 b5 e0 bd a9 2f 74 3c
       -0.018584765 0.023048159 -0.10972039 0.014903941
0001b0 c6 d6 b8 bd 96 7e 5c 3d 66 e3 55 bd 21 73 93 be
       -0.0902534 0.05383166 -0.052218817 -0.28798774
0001c0 be 19 6c bd 92 35 8e 3c db 41 53 3d a3 be 6c 3b
       -0.057641737 0.017359529 0.051576477 0.003612437
0001d0 63 09 15 be cc 6e 24 bd f9 c8 36 be 54 18 af bc
       -0.14554362 -0.040144727 -0.17850102 -0.021373905
0001e0 25 1d 08 be 11 2c 2c bd 72 6a 37 bd 09 ac 1d bd
       -0.13292368 -0.042034212 -0.04477925 -0.038494144
0001f0 e1 bc e3 3d e0 50 4c bd ea ad a3 bb d0 09 52 be
       0.1112001 -0.049881816 -0.0049950974 -0.20511556

feature.2.weight f4 [128, 128]
000000 e1 2f 17 be 20 29 da 3c be 2c 87 3e 58 f8 c1 3d
       -0.14764358 0.026630938 0.26401323 0.09471196
000010 ed 9e 8e be 77 5a 03 3e 7f ae 81 bd cc 31 08 3d
       -0.27855626 0.12827478 -0.063321106 0.033250615
000020 7f bf 96 bd fa 38 d0 a3 c0 ab aa 3d 03 29 ff 3d
       -0.07360744 -2.2575536e-17 0.0833354 0.12458994
000030 ea 16 05 be 6a e0 a9 3c 6c 47 27 3f 01 f7 d6 bd
       -0.12997022 0.020736892 0.65343356 -0.10496331
000040 6a c0 19 be 72 6f fe 3d b3 77 8f 3e 3e 57 9f 3e
       -0.15014806 0.124236 0.2802101 0.31121248
000050 17 3c 39 3e 56 2f 7e 3e 85 cf b3 3d c1 83 d8 3e
       0.18089329 0.24822745 0.087798156 0.4228802
000060 88 bd ec 3c 4a c0 1a bd 40 dc aa bd 69 a5 e4 3e
       0.02889897 -0.037781037 -0.083427906 0.44657448
000070 74 1f 24 be e0 16 46 3d 79 a1 03 3f 22 92 3b 34
       -0.16027623 0.04836166 0.5141826 1.7468895e-07
000080 cf 72 0f 3e 59 ac a9 3c 8d 42 0c 3f bd ee 23 3e
       0.1400864 0.020712065 0.5478905 0.1600904
000090 c4 e6 da bd 85 bf 2b bd b6 a6 2d 3d 06 af f8 3d
       -0.10688546 -0.041930694 0.042395316 0.12142758
0000a0 de 36 ed 3d 63 41 50 3e 44 b0 17 be 64 f1 a0 3d
       0.11582731 0.20337443 -0.14813334 0.078585416
0000b0 bb 7e c7 be a8 b4 50 3c 3e 9f 35 3e 71 63 ba ba
       -0.38963875 0.012738384 0.17736527 -0.001422031
0000c0 c5 96 3c 3d 4a 60 b4 3d 77 3b de bd 6a 2c 6b be
       0.046042223 0.08807428 -0.10851186 -0.22966161
0000d0 13 80 a0 3d 8f de 96 3e c9 c4 d0 3d 74 39 95 3d
       0.07836928 0.29466674 0.10193784 0.07286349
0000e0 9f 98 ab bd aa 42 00 be cb b8 ee 3c ce 43 4c bd
       -0.083787195 -0.1252543 0.02914085 -0.04986935
0000f0 9f 77 ab 3d 6d 81 98 bd f3 2f 5c 36 36 bb 6b 3e
       0.08372425 -0.07446561 3.2810465e-06 0.23020634
000100 31 f9 8b 3e 42 8e 1b be cf 51 51 3b 34 c6 09 3e
       0.27338555 -0.15190986 0.003193963 0.13454515
000110 0a 72 2b 3e f0 35 97 3e e1 4e 10 be 40 a8 a8 bd
       0.16742721 0.2953334 -0.1409259 -0.08235216
000120 6f 9e d1 3d 83 8d 9b be 55 95 a2 3e 69 16 3b 3d
       0.10235297 -0.30381402 0.31754556 0.04567567
000130 17 9a 28 3d 85 52 17 3e a1 44 70 bb bb af a9 3e
       0.041162577 0.14777572 -0.0036662 0.33141884
000140 85 d5 b4 bd bf b2 84 3e 2b c0 cb 3e c7 82 4a 3e
       -0.08829788 0.25917622 0.3979505 0.1977645
000150 84 ce a0 bd dd 39 d6 3d 06 e6 5d 3e fd 7f f1 3d
       -0.0785189 0.10460255 0.21669778 0.1179199
000160 36 de 9e 3d a9 6c 6c 3e e9 df 98 be 64 3e 1c be
       0.07757227 0.23088326 -0.2985833 -0.15258175
000170 fa 51 1a 01 63 03 42 3e 0d 86 e7 bd 5c 35 44 3d
       2.8344148e-38 0.18946604 -0.11304865 0.04790245
000180 d9 eb 97 3e 8d 0c 64 be 9a 69 1e 3e 4b 97 89 be
       0.29672125 -0.22270413 0.15469971 -0.2687324
000190 0e a0 7e be 41 4c 09 bd 24 c4 40 3c e5 3d aa bd
       -0.24865744 -0.033519987 0.011765514 -0.08312587
0001a0 54 52 90 bd fb 51 d5 bc c6 cd 9d 3d 33 86 99 3b
       -0.07046953 -0.026040068 0.07705264 0.0046851872
0001b0 dd df 97 3d 63 c7 cd bc de 56 e4 bc 83 88 ab be
       0.074157454 -0.025119489 -0.027873453 -0.33502588
0001c0 52 d8 b8 3e 34 dd ef 3c 33 cc e6 3d 3b a1 30 be
       0.3610254 0.029280283 0.11269417 -0.17249005
0001d0 30 b4 aa bd 8f ba 3f 3d 3e 76 01 3d 74 cc a2 3e
       -0.08335149 0.046808776 0.031606905 0.3179661
0001e0 c7 eb 49 be 24 31 43 be f5 90 78 3e 69 13 a9 3d
       -0.19718848 -0.19061714 0.24274047 0.08255655
0001f0 fe 09 aa bd ad 4e 27 3e 53 e9 e7 bd c8 45 5d 3e
       -0.08302687 0.16338606 -0.113238 0.2160865
000200 01 99 28 3e c1 d5 b3 3d e6 96 a3 3d ca ab 7d 3d
       0.16464616 0.08781005 0.07987766 0.06193141
000210 47 0b 98 bd ca e2 33 3e d6 31 1d bf 1b 00 e6 3d
       -0.07424026 0.17566982 -0.6140417 0.11230489
000220 1d 3c 41 3e 25 2b 16 14 f7 6c 42 bd 8a c6 0a 3d
       0.18870588 7.5815734e-27 -0.0474672 0.033880748
000230 bc b0 bb be 30 2b d3 3d 3c bf 09 3e 2b 99 bc bc
       -0.36658275 0.10310972 0.13451856 -0.023022255
000240 5d 7e b5 3c 8d 32 2d 3d 05 6a 61 be 78 b0 a1 3d
       0.022154981 0.042284537 -0.220131 0.07894987
000250 0a 15 9c 3c 02 0e d4 bb ff a1 60 3d 68 54 31 bd
       0.019053001 -0.0064713964 0.05484199 -0.043293387
000260 38 7b 56 3f b4 1b 00 bd 20 9e 2f 3e 02 c3 0c 3e
       0.83781767 -0.03127642 0.17150164 0.13746265
000270 68 e9 cf be 12 fe 22 be 78 43 f6 3e 1d 7e 18 37
       -0.40607762 -0.15917233 0.4809835 9.089269e-06
000280 03 14 ae 3e b1 43 97 3c 51 52 51 3c f6 7a 58 be
       0.33999643 0.018464895 0.012775973 -0.21140656
000290 8f fb 6d 3e f6 a2 88 bf f0 82 2d bd 15 fc 6a 3e
       0.23240493 -1.0674732 -0.0423612 0.22947724
0002a0 78 85 97 be 93 8e 5d 3c a3 b1 31 3c 46 c7 25 3e
       -0.29594016 0.013522762 0.010845575 0.16189298
0002b0 2c 89 82 be 6d f1 34 3e c3 36 07 3d cf 11 0e 3e
       -0.2549528 0.17670222 0.03301121 0.13873981
0002c0 ba e8 26 3d 3d d4 37 3c 75 15 73 3d 93 15 a0 bd
       0.04074929 0.011220035 0.059346635 -0.07816615
0002d0 f4 a1 a5 3e bc d2 b8 be f1 cd 12 3e d5 90 e8 be
       0.32350123 -0.36098278 0.14336373 -0.45422998
0002e0 ff 83 de 3d 44 b8 5c 3f 6a 1c 1f be 99 bf b1 3e
       0.1086502 0.8621867 -0.15538183 0.3471649
0002f0 89 ec 90 3c 37 77 d8 3d 21 37 b5 b9 d5 4e 5d be
       0.017690914 0.105696134 -0.00034564084 -0.21612103
000300 c8 d8 19 3e 63 8d 8e 3d 19 80 73 bd 0b fe 60 3e
       0.15024102 0.06960561 -0.059448335 0.2197191
000310 13 e3 ff be 95 34 9f be e4 7a 49 3e f8 a7 13 3e
       -0.4997793 -0.31094804 0.19675785 0.14419544
000320 8f 4f ab 3d 76 ab d3 bd 52 85 6a 3e 75 eb 4e bd
       0.08364784 -0.10335438 0.2290242 -0.050517518
000330 6d 19 83 bb e1 da 1f 3d 10 9f d3 bd e1 da 9e 3e
       -0.0040008337 0.0390271 -0.10333073 0.31026366
000340 1c 46 91 3d 66 4d 7f 3d 14 eb c5 3d 1c d7 bc 3d
       0.070934504 0.062329672 0.09663978 0.09220716
000350 4b 2e 86 3e d5 b8 1d 3f 71 06 5a 3e 0d 11 86 3d
       0.26207194 0.61610156 0.2129152 0.06546221
000360 2c 6e 16 be 35 c0 da 3d 03 a6 8e 3d db 5b ee 3d
       -0.14690465 0.10681192 0.06965258 0.11638614
000370 33 cb 14 80 2d 7a 1e 3e 8e 6d 73 be 28 cf d3 3d
       -1.909604e-39 0.15476294 -0.2377226 0.10342246
000380 2e b8 fa bb 6a 7c 89 3d ea 30 79 3e 78 87 25 3e
       -0.0076513505 0.06713183 0.24335065 0.16164958
000390 9e b3 b6 bd 92 3d 56 bd f8 57 00 bf b2 3a 3d bd
       -0.08920978 -0.05230481 -0.5013423 -0.046198554
0003a0 c0 d6 b7 3d 8f e8 1d bd 5c 21 eb 3e 1a 70 22 3b
       0.08976507 -0.038551863 0.4592389 0.0024786056
0003b0 28 1a 94 3e e6 e7 e7 bc 68 48 30 bd 8b 61 47 3e
       0.28926206 -0.02830882 -0.043037802 0.19470803
0003c0 64 ed b2 3e ab a0 1c 3d fd 5b 1f 3e fd 1e 5f bf
       0.3494674 0.038239162 0.15562434 -0.8715666
0003d0 8c c4 88 bd 2b 6d 23 3c d8 56 6a 3f 1d 8d 62 bd
       -0.06678113 0.009974758 0.91538763 -0.055310357
0003e0 06 27 76 3e 1d 23 1e 3e 7d dd 40 3e b0 0a 63 3d
       0.24038324 0.15443082 0.18834491 0.055430114
0003f0 e4 e7 72 bc 2e 0b 62 bd 38 74 a0 bf 6d 89 9d bd
       -0.014825795 -0.055186443 -1.2535467 -0.076922275

feature.2.bias f4 [128]
000000 1e 3a bd bd 5a 9f 9d be 16 05 ca 9e bb 75 57 bd
       -0.092396006 -0.30785638 -2.1389685e-20 -0.05260251
000010 ae 52 bc bc 50 8a 06 be aa d3 51 3e dc 46 c5 bd
       -0.022988643 -0.131387 0.204909 -0.09632656
000020 46 a2 7e 3e ad c9 7f 3e e9 88 e1 b2 d3 01 9a a5
       0.2486659 0.24979277 -2.6255707e-08 -2.6715978e-16
000030 b3 ac 6f be 49 6c 8e bc d7 db 38 be 7b 11 94 be
       -0.23405723 -0.017385619 -0.18052612 -0.28919587
000040 c9 64 61 3f 4c 9f 76 bd 9f 1a 80 b8 70 e8 68 b5
       0.8804441 -0.06021051 -6.108474e-05 -8.6764976e-07
000050 7c ad e6 be 60 e9 38 bd 4d 6b 26 b7 d7 6d a4 be
       -0.45054233 -0.04514444 -9.919354e-06 -0.3211505
000060 35 33 08 bf 7c 7a 03 3f 74 a9 05 bd 4b 58 42 bd
       -0.53203136 0.5135877 -0.032632306 -0.047447484
000070 36 19 df 3d 45 d7 4b 3e 56 c2 39 be cb b0 15 3f
       0.108934805 0.19906338 -0.1814054 0.5847289
000080 fd cd 2f be 4c 1e e7 be 5f 06 50 be 74 66 3e be
       -0.17168422 -0.45140302 -0.2031493 -0.1859377
000090 98 a3 62 be 01 87 09 3e 64 88 98 be 8d 5b a4 3c
       -0.22132719 0.13430406 -0.29791558 0.020063186
0000a0 b1 f3 cc bd f2 0d 23 be 10 ab dc b8 19 e5 77 be
       -0.10007418 -0.15923288 -0.0001052228 -0.24208488
0000b0 e0 e9 e0 3d 53 04 9e a7 90 f8 66 be 63 44 27 bd
       0.10982108 -4.3858498e-15 -0.22555757 -0.040836703
0000c0 07 35 29 3f 94 27 d7 aa ff 1a 43 3d 22 21 ed bd
       0.6609654 -3.8219135e-13 0.047633167 -0.11578585
0000d0 5f d1 00 9e 7e df 97 bd 31 cf 9e be d1 22 0b 9f
       -6.8195605e-21 -0.074156746 -0.3101745 -2.9463194e-20
0000e0 b5 07 0a ba 80 1f 26 3d 4e b6 e3 3d be 54 8a 3d
       -0.00052654307 0.040557384 0.11118756 0.067544445
0000f0 38 5c 3f b4 bf 93 58 9d a8 aa f1 3c b7 bf 16 be
       -1.782181e-07 -2.8663745e-21 0.02950032 -0.14721571
000100 cc cd 24 bd 4a 74 23 be 8c 15 24 be 8a 5e 07 be
       -0.040235326 -0.1596233 -0.16023844 -0.13219658
000110 f0 15 8b 3e db 9c 2b 3f af 1e 45 3e 0d c9 78 af
       0.27165174 0.6703622 0.19249986 -2.2626896e-10
000120 7c fc 99 be b0 da ec 3c 73 84 73 be 13 00 4d 3e
       -0.30075443 0.028912872 -0.23780994 0.2001956
000130 b5 a3 00 be 91 b0 4c be 6a 48 87 bd 1c 9b 13 ba
       -0.1256245 -0.1998923 -0.06605609 -0.0005630718
000140 5f f7 d8 b9 2d 42 e5 bd 3d a6 ad be 88 40 b4 bd
       -0.00041383036 -0.11194263 -0.33915892 -0.08801371
000150 00 d9 5d be d6 c5 1b be b9 76 8e ba f0 59 bd 3d
       -0.2166481 -0.15212187 -0.0010869122 0.0924567
000160 59 5a ee a8 73 0e 00 be 63 e4 55 3e 54 89 d5 be
       -2.646249e-14 -0.12505512 0.20887904 -0.41706336
000170 05 3f 57 3e 3f 18 84 be ed ca 4d bc ce 6c 96 a2
       0.21020134 -0.25799748 -0.012560588 -4.0772783e-18
000180 54 68 12 3c c2 40 cf bd 69 ed 02 be d1 10 e8 3d
       0.008936007 -0.101197734 -0.12785877 0.113313325
000190 e7 b2 45 bd 0a 5f 12 3e 86 a6 c0 bd b4 2d 4c be
       -0.048266318 0.14294067 -0.09406762 -0.1993931
0001a0 0a f9 19 3e d5 02 f4 bd a6 88 b7 bb 0d 90 43 be
       0.15036407 -0.11914603 -0.0056010066 -0.1909792
0001b0 47 57 b5 b2 41 11 25 bc eb 58 15 3e cb 70 ee b6
       -2.1110862e-08 -0.010074914 0.14584701 -7.1060836e-06
0001c0 f5 f1 72 3c f0 b2 12 be 5b 7d 0d 3d 54 34 28 be
       0.014828195 -0.14326072 0.034543376 -0.16426212
0001d0 d5 0e 78 3e f9 8d 88 bd 81 ad 88 bd dc 9a d2 be
       0.24224408 -0.06667704 -0.06673718 -0.41133773
0001e0 46 b3 90 3e 3f a5 28 be a7 53 53 bc a4 21 f1 3e
       0.28261775 -0.16469286 -0.012898362 0.47095978
0001f0 e7 84 fc a4 e5 16 33 bc ab 23 c5 be 5c f6 ed 3d
       -1.09512724e-16 -0.010930751 -0.38503775 0.11619255

advantage.0.weight f4 [64, 128]
000000 c1 c5 0a 3e d2 c3 88 3f 9b 4c 10 80 c2 31 9b 3e
       0.13552 1.068476 -1.496849e-39 0.303114
000010 fe 60 11 3f 12 a4 dd 3e 00 a4 4a 3e ef e6 f5 3d
       0.56788623 0.43289238 0.19789124 0.12006938
000020 f2 f8 bc 3e d4 c7 dc be 8d 71 15 1f 2c c1 32 00
       0.3690868 -0.43121207 3.1645904e-20 4.661072e-39
000030 2c bf 1e 3e c1 59 19 bf 0c 3e 72 3f c5 24 46 3d
       0.15502614 -0.5990258 0.94625926 0.04837491
000040 5a 20 e6 3d fd f0 83 bd 94 34 57 b5 55 49 db 29
       0.11236639 -0.06442449 -8.017025e-07 9.738275e-14
000050 be 81 28 be 30 a6 aa be c9 7f 15 b1 99 ba dd 3d
       -0.16455743 -0.33329916 -2.1754991e-09 0.10826606
000060 a2 d9 83 3d 39 70 97 3e 02 45 8a 3c 5b 14 8e bc
       0.064379945 0.29577807 0.016878609 -0.01734369
000070 05 f7 1b bf dc b8 d8 be d8 f2 39 3f 4d 55 4b 3e
       -0.60923797 -0.42328537 0.72636175 0.19856758
000080 cd 76 58 be e1 2a 8e 3e 8b 2d 9a 3e cb b4 17 bf
       -0.21139069 0.2776709 0.30112872 -0.59260243
000090 0b 85 16 3f 10 8b ca be dc b9 e3 3e 5c 5a a2 3e
       0.5879676 -0.3955922 0.44477737 0.31709564
0000a0 40 8c 29 3f 2d e6 16 3e 67 64 3b b7 f2 6b ee 3c
       0.6622963 0.14736243 -1.1169445e-05 0.029104207
0000b0 b7 72 02 3f d0 63 13 a8 13 23 d6 3d 2a 67 cf be
       0.5095629 -8.181783e-15 0.104559086 -0.40508395
0000c0 03 5c 93 be 44 24 5f 97 82 44 cd 3e f3 5d be bd
       -0.28781137 -7.210096e-25 0.4009133 -0.09295263
0000d0 dd 71 7d 80 a1 5f 7a 3b 15 c9 79 3f 91 7e 21 25
       -1.1520283e-38 0.0038203972 0.9757245 1.4007406e-16
0000e0 13 ae e0 b8 f7 0a b8 be bb 16 9f bc dc 98 7b be
       -0.00010713576 -0.35945866 -0.019420018 -0.2457003
0000f0 be 2e d8 30 92 6c 70 00 67 b6 e7 3c 2f 6a 14 3e
       1.5729353e-09 1.0324523e-38 0.028285218 0.14493631
000100 ca 91 61 3f 10 32 ef be d7 34 0a 3f f4 18 85 be
       0.8811308 -0.46717882 0.5398688 -0.259956
000110 58 6d 01 3f 8c a1 99 be 10 1a 3e bf 41 b3 52 2f
       0.5055747 -0.30006063 -0.7425852 1.9163073e-10
000120 a2 ac b3 3c 37 80 0a be 17 65 0d 3e fd b1 9d 3d
       0.021932904 -0.13525473 0.13808094 0.07699964
000130 87 bd 56 be f7 32 96 3d ec 34 a0 3e 86 01 4a b2
       -0.20970736 0.073339395 0.31290376 -1.1758294e-08
000140 78 b9 91 b8 8d 85 91 bd 05 36 40 be 2a 00 49 bc
       -6.948685e-05 -0.07105551 -0.18770607 -0.0122681055
000150 2c 0d d2 be 83 3d 19 be fb dd de 33 78 7a cc be
       -0.41025674 -0.14964871 1.03780586e-07 -0.39937186
000160 22 c4 94 8f 36 6d 9a 3d ec db c4 3d 68 fe 23 3d
       -1.4669474e-29 0.075403616 0.09612259 0.040037543
000170 c5 b0 a2 3c 90 d7 af be 88 8d 88 be c8 93 82 80
       0.01985968 -0.3434415 -0.2667048 -1.1991628e-38
000180 89 61 13 be 30 b5 9e be d8 14 fd be c1 57 a4 3d
       -0.14392675 -0.3099761 -0.49429965 0.0802455
000190 24 19 16 bd b1 e8 c3 be d2 2b 40 3d 75 31 e5 bd
       -0.03664507 -0.38263467 0.04691679 -0.11191074
0001a0 23 7c af be a4 97 69 3e c0 be b1 b9 48 76 8c 3e
       -0.34274396 0.22811753 -0.0003390219 0.2743399
0001b0 26 e0 68 80 89 92 fe be ad 35 3e be 5d f5 58 2d
       -9.631301e-39 -0.49721172 -0.18575163 1.233266e-11
0001c0 58 43 80 bd a1 3e a8 bd 87 db a3 3e 48 0d 98 3e
       -0.06262845 -0.082150705 0.32003424 0.29697633
0001d0 8b fb df bc a0 ab 8c be cb 94 a4 3d b5 fc 64 bf
       -0.027341625 -0.2747469 0.080361925 -0.894481
0001e0 41 63 1c bd 58 a4 52 bd 15 2d 28 3c ae 46 4c 3e
       -0.038180593 -0.05142626 0.010264655 0.19948837
0001f0 25 ed 9a 0e 8f 53 84 b6 93 4c 27 be 9b 37 33 bf
       3.8192293e-30 -3.943634e-06 -0.16337804 -0.7000672
000200 58 2b a1 ae da 28 98 15 80 1b 85 00 fd ef 08 87
       -7.329132e-11 6.1456763e-26 1.2223986e-38 -1.0302029e-34
000210 4a 0f 02 8f dd c1 0c ae b4 71 b5 a3 24 44 87 02
       -6.4124394e-30 -3.20045e-11 -1.9672214e-17 1.9875578e-37
000220 57 72 5a 14 72 17 a5 a4 2e 66 02 81 f0 27 22 81
       1.1028737e-26 -7.159706e-17 -2.395054e-38 -2.9783355e-38
000230 3e 37 0a 03 3e e2 4e 80 1e 55 7c 14 2d cd 38 80
       4.061797e-37 -7.244329e-39 1.2739535e-26 -5.216391e-39
000240 92 2b aa ad 88 ab f0 00 18 ad a6 00 fc 9d 00 00
       -1.9346112e-11 2.2102053e-38 1.5306787e-38 5.6674e-41
000250 10 1a 0d 91 d4 db a1 97 48 84 ba 00 5c a3 39 80
       -1.113097e-28 -1.0459874e-24 1.7128856e-38 -5.293226e-39
000260 c2 55 6e 85 17 83 d4 98 c3 d5 4d ae e7 a2 0c 91
       -1.12064574e-35 -5.4933082e-24 -4.6801462e-11 -1.1094251e-28
000270 dd c1 e8 a6 c7 9e 02 01 88 13 33 a9 d2 69 16 ad
       -1.6150781e-15 2.3991146e-38 -3.9762925e-14 -8.55001e-12
000280 22 4d 5d 90 14 a6 40 80 a1 77 e9 99 89 7b 45 a3
       -4.3643986e-29 -5.93705e-39 -2.4139953e-23 -1.0705551e-17
000290 ae 92 8b a4 0b ec ba 0d c6 56 17 15 c3 81 df aa
       -6.0530126e-17 1.151996e-30 3.056266e-26 -3.9702798e-13
0002a0 5a 50 1b a9 79 a3 68 80 34 ec 32 00 e6 0c 9c 00
       -3.4486608e-14 -9.609535e-39 4.676509e-39 1.4330964e-38
0002b0 b7 1a 7e 03 fc 24 5a 80 f9 49 47 08 ad 6a 43 80
       7.467456e-37 -8.278462e-39 5.997134e-34 -6.191246e-39
0002c0 2c bc 05 a8 2e 1b 01 00 13 93 2b 8a 1d c0 37 80
       -7.423786e-15 1.01586e-40 -8.261012e-33 -5.11987e-39
0002d0 7e f2 00 01 73 83 cb 81 ba 6a c2 0d 24 9f 8f 80
       2.3683867e-38 -7.4759043e-38 1.1981867e-30 -1.3189565e-38
0002e0 30 f7 ea 80 65 81 27 80 2e 87 a6 99 13 98 dd 00
       -2.157818e-38 -3.628002e-39 -1.7218596e-23 2.0350199e-38
0002f0 e4 f0 55 80 50 56 a1 80 d0 95 40 80 e2 70 b0 14
       -7.892432e-39 -1.4816478e-38 -5.931214e-39 1.7815983e-26
000300 4c 23 87 90 67 2a f6 80 ac 03 f0 0b d3 38 35 9c
       -5.3302495e-29 -2.2606743e-38 9.245016e-32 -5.996132e-22
000310 76 3a 16 81 e3 07 a2 8e 00 64 ff 99 20 f8 b5 00
       -2.7592593e-38 -3.9943678e-30 -2.6406772e-23 1.6711235e-38
000320 2b 75 6e 91 cb 5a 27 91 c7 c8 7f 80 87 86 24 83
       -1.8810995e-28 -1.3201955e-28 -1.1735133e-38 -4.83497e-37
000330 20 28 a8 b4 0f d6 b1 a2 87 5d b5 97 de d0 58 00
       -3.1321633e-07 -4.820259e-18 -1.172046e-24 8.156451e-39
000340 94 e4 2a 80 2b a9 b1 af e8 66 c2 8a 52 ef 15 00
       -3.939089e-39 -3.2316314e-10 -1.872023e-32 2.014397e-39
000350 f0 c6 90 00 a2 99 72 80 10 ec 44 00 78 97 04 01
       1.3295677e-38 -1.052436e-38 6.329497e-39 2.4353244e-38
000360 06 a6 23 80 2e 78 5c 13 d0 6a 04 0e e9 5d e8 90
       -3.2738e-39 2.7827157e-27 1.6321685e-30 -9.1652557e-29
000370 4c 1c 24 ab ac 2b 9f a7 59 16 e1 07 f0 56 8a 81
       -5.8303774e-13 -4.4178714e-15 3.3867372e-34 -5.0817943e-38
000380 2a ef e9 02 4a dd 79 80 7c ca 52 85 23 dc 6a 10
       3.4373546e-37 -1.1191479e-38 -9.911343e-36 4.631795e-29
000390 7c 8a 85 00 56 18 7c 89 14 f3 f1 00 6e 5e 73 99
       1.22638e-38 -3.034484e-33 2.2219555e-38 -1.25818755e-23
0003a0 cd 40 02 8a 29 bd 97 90 58 2f 8a 01 20 7d 03 9b
       -6.27146e-33 -5.9850446e-29 5.076113e-38 -1.0876496e-22
0003b0 d0 ce 97 80 44 14 9e 00 0d 86 26 85 ee ee b8 00
       -1.394135e-38 1.4517278e-38 -7.829904e-36 1.6983443e-38
0003c0 56 09 47 80 db 1b c8 80 03 e8 c5 9f a0 b3 07 81
       -6.52367e-39 -1.8377092e-38 -8.3816576e-20 -2.4924459e-38
0003d0 43 a2 9b a8 da b2 df 0d 0c 72 30 83 71 a6 c4 a0
       -1.7278827e-14 1.3786493e-30 -5.185267e-37 -3.3313833e-19
0003e0 52 55 6c ad 20 54 ca 02 7a e5 de a3 66 ed 22 b3
       -1.3433992e-11 2.9729518e-37 -2.4166475e-17 -3.7934477e-08
0003f0 7f 9e 03 02 04 02 5e 00 14 92 9e 00 9b e7 11 00
       9.669846e-38 8.63326e-39 1.4562411e-38 1.644288e-39

advantage.0.bias f4 [64]
000000 c8 29 49 3e 3d ef 93 b7 f3 f1 aa b4 b8 70 a8 bc
       0.19644845 -1.763517e-05 -3.184101e-07 -0.020561561
000010 52 3a 88 ae 91 44 02 3e da 3b cb bd 3e 57 92 bd
       -6.194924e-11 0.12721469 -0.09923525 -0.071455464
000020 4d d8 5a bd 7b 0c 89 3d ff 99 3d bd 8c a5 65 97
       -0.053428937 0.066918336 -0.04628944 -7.420284e-25
000030 b5 e6 e3 3d f4 d2 c8 bd e7 b6 20 8d 6c 77 fd 92
       0.11127988 -0.09805861 -4.9523967e-31 -1.59959845e-27
000040 21 58 a1 a5 d5 6e f7 3d e4 0f 8a 3e da 0b 7e b2
       -2.7988766e-16 0.120816864 0.2696525 -1.4787441e-08
000050 ed 83 16 be 8e 76 f1 3d f6 7d 9a bb d9 81 1e 3e
       -0.14698763 0.11790191 -0.0047147227 0.1547922
000060 7b 51 d6 b6 68 62 c0 bd 8b 6e 56 bd ae 26 71 b9
       -6.3871826e-06 -0.093937695 -0.052351516 -0.0002299796
000070 9b f3 c3 b4 1d 33 08 be 08 58 53 3d 4c 60 31 a5
       -3.6498827e-07 -0.13300748 0.051597625 -1.538493e-16
000080 15 07 14 bd c5 15 5c be 4c 76 e1 3d b8 4b 2a 3e
       -0.036139566 -0.2149268 0.110088915 0.16630447
000090 d9 df 63 bd 2f 1e 53 bc e0 3b b1 9b d1 37 fa 3b
       -0.0556334 -0.012885614 -2.9320887e-22 0.0076360484
0000a0 74 c5 85 bd 51 fa 7f b1 12 dc f2 bd 55 40 f2 bd
       -0.06531802 -3.7249672e-09 -0.11858381 -0.118286766
0000b0 a5 bb d3 b7 ec b1 d1 3e b8 52 d4 bd eb 11 03 bd
       -2.5240539e-05 0.40956056 -0.1036734 -0.03199951
0000c0 3c bb d0 bb 66 c0 01 b9 dd 76 b1 bd 0e f1 d5 a3
       -0.0063699763 -0.00012374073 -0.086652495 -2.3195597e-17
0000d0 58 aa 7e 3e 47 7c 7e 3e 02 6d b0 b4 ef f6 4f bd
       0.24869668 0.24852096 -3.2861868e-07 -0.050772604
0000e0 9b 42 9e 3e 72 8c 32 3d 39 c0 d2 ac 04 53 ac bc
       0.3091019 0.04359097 -5.9899e-12 -0.021035679
0000f0 b6 b0 5e 3e a7 de 32 be 80 18 5a 3e 91 9c 51 bd
       0.21747097 -0.17467748 0.21298409 -0.051174704

advantage.2.weight f4 [36, 64]
000000 6e ff 9b 3e 1b 4b 06 3a c3 25 57 38 df ad 80 3e
       0.30468315 0.0005122886 5.1295163e-05 0.25132653
000010 45 4a 42 2e 19 57 95 be 8c 28 a6 3e e1 81 b3 3d
       4.4176458e-11 -0.29168013 0.3245281 0.08765007
000020 77 21 54 3e fe 9d 2d 3f d9 44 ad 3e 4f 05 93 a5
       0.20715891 0.678192 0.3384159 -2.5504032e-16
000030 0c 7a 16 3e 3c fd f3 3c b6 a2 ec 20 b9 5f 04 ae
       0.14694995 0.029783837 4.0087628e-19 -3.0098344e-11
000040 2a b7 c2 b1 4c 17 e8 bd 0b 7a 44 3d 0f eb c0 b4
       -5.6669665e-09 -0.113325685 0.04796795 -3.5933815e-07
000050 42 d8 eb 3d a1 32 20 be 2f 0b ba 3b df 79 03 be
       0.11515857 -0.15644313 0.0056776027 -0.12839459
000060 41 65 1f ba 3c 4d 30 3e bd f9 80 bc cb 90 26 39
       -0.00060804567 0.17216963 -0.015744084 0.00015884933
000070 7a 3d 30 b9 bd 5d 2c 3e e0 60 77 3d a8 a9 d0 34
       -0.0001680757 0.16832633 0.06039512 3.886646e-07
000080 fe c2 36 3d 44 96 a4 3e a4 67 29 3e 88 5f 7e be
       0.044619553 0.32145894 0.16543442 -0.2484113
000090 9b c3 97 3e d9 98 b5 b9 5b b7 92 25 18 39 21 3e
       0.29641423 -0.0003463689 2.545121e-16 0.15744436
0000a0 3c 12 87 3c d4 54 f4 38 80 88 7e 3e 43 98 72 3e
       0.016488187 0.00011650627 0.24856758 0.23690896
0000b0 8e 22 2e 36 af 88 bb bf c8 5e e0 bd 8a ac a6 3e
       2.5948134e-06 -1.4651088 -0.10955578 0.32553512
0000c0 1d c2 78 bd d5 3d 41 39 bc e6 c0 3e a9 58 4b b0
       -0.060731996 0.00018428949 0.37676036 -7.3976963e-10
0000d0 d2 09 7b be 7b d7 48 be 6f dc 44 b9 29 45 03 3d
       -0.24515465 -0.1961345 -0.00018774135 0.03204838
0000e0 f7 f2 36 3d fa ed 1d 3e 66 94 da b3 db c7 b7 3e
       0.044665303 0.15422812 -1.01784096e-07 0.35894665
0000f0 74 4e c3 bf 29 c9 7f 3e 6d 2c 4f be ab 70 6b 3e
       -1.5258317 0.2497908 -0.20231791 0.22992198
000100 39 c7 6b 3d 60 8f 71 34 83 d2 67 b6 83 a6 19 be
       0.05756304 2.2497034e-07 -3.4544216e-06 -0.15004925
000110 34 4d 20 2f ab d6 d3 be b2 05 8d 3e 58 fb f5 bc
       1.4579343e-10 -0.41374716 0.27543408 -0.030027077
000120 76 36 7b 3e 5e 82 e2 3e ef ad 2b 3f 4e 28 87 00
       0.24532494 0.44240087 0.67062277 1.241225e-38
000130 13 f0 56 3e 4e c9 74 be 3a 52 12 81 c3 96 eb b0
       0.20990019 -0.23904917 -2.687496e-38 -1.714135e-09
000140 de 0e a4 06 ad 43 df be 87 07 72 3e 4e 05 82 32
       6.171179e-35 -0.4360632 0.23635684 1.5136404e-08
000150 c2 9e cb 3e 82 1b ae 3d 97 7e e7 b7 75 e8 b4 be
       0.3976956 0.085013404 -2.7596294e-05 -0.353336
000160 a0 af 39 33 38 46 54 3e 2c 99 ec bd 97 05 ea 38
       4.32334e-08 0.20729911 -0.11552653 0.00011159031
000170 ba c4 12 a3 64 37 7c bd d8 c1 c4 be 7a 70 9c 80
       -7.956334e-18 -0.061576262 -0.3842914 -1.4366686e-38
000180 36 57 eb bd 3a 94 0e bf 39 8a 8e bf 95 81 79 bd
       -0.114912435 -0.55694926 -1.1135932 -0.060914595
000190 c9 a4 b7 be d1 2a 5f b7 31 e8 14 12 18 64 05 bf
       -0.3586791 -1.3301805e-05 4.6986764e-28 -0.52105856
0001a0 42 ff a8 ba c1 12 50 a2 b3 59 17 3d 5b a8 03 be
       -0.0012893456 -2.8199185e-18 0.03695078 -0.12857191
0001b0 5c 75 18 2f a0 12 30 bf 6c 3b c6 3d f8 07 0a be
       1.3866014e-10 -0.6877842 0.096793026 -0.13479602
0001c0 70 2d 54 3e 35 83 da 37 d0 af b1 3f 5c 0e 90 a0
       0.20720458 2.6048723e-05 1.3881779 -2.440405e-19
0001d0 01 ac 45 be 10 ff 8f be 7a 3e 2b 15 02 8c 80 be
       -0.19303896 -0.28124285 3.458246e-26 -0.25106817
0001e0 7a 81 e4 bc 3e e4 9f 3d 02 2d af 32 65 ec 6c 3f
       -0.02789377 0.078072056 2.0393149e-08 0.9254821
0001f0 1e a3 3d bf 02 fc a1 bd 2a e0 b2 3e 28 47 d3 bf
       -0.7407702 -0.07909395 0.3493665 -1.650609
000200 11 81 c9 be 18 01 f7 af c4 52 06 36 2e 17 40 bf
       -0.39356282 -4.4929815e-10 2.0015732e-06 -0.7503537
000210 3c 1a fd 9e 2a 0c 81 bd 19 4c 52 3e 80 b5 5b bd
       -2.6798267e-20 -0.06301148 0.20536841 -0.05363989
000220 2d 68 3f 3b f2 5a 8c 3e e2 7e 07 3f 6c 85 a7 1c
       0.002920638 0.27413136 0.5292798 1.1085622e-21
000230 af 8d 9e 3e fa 03 0a be 72 1b c0 00 49 04 86 25
       0.3096747 -0.1347808 1.7642261e-38 2.3248198e-16
000240 00 ea 7e 20 5d 9f b2 bc 04 67 b3 3e cb 21 ab a8
       2.1592061e-19 -0.021804506 0.35039532 -1.8999469e-14
000250 52 f9 d9 3e 77 25 33 3e 98 3d a3 38 c0 b3 3c be
       0.4257303 0.1749476 7.7839184e-05 -0.18427944
000260 56 0d 0b 39 d4 32 8f 3e db 49 95 3e a5 4c a6 b7
       0.00013261041 0.27968466 0.2915791 -1.9824432e-05
000270 e9 fb fe 34 3a e2 58 bd e1 3d ee bd 2c 4d 81 a8
       4.7494476e-07 -0.05295012 -0.11632896 -1.4355345e-14
000280 6c 87 eb bc 6e bc 0e 3e fa c6 33 be 4a 3c ce bd
       -0.028751098 0.13939068 -0.17556372 -0.10070093
000290 c2 a9 68 bf 0d 1c 02 b6 2d 80 af a8 42 fa df 3b
       -0.9088403 -1.9387837e-06 -1.948449e-14 0.006835253
0002a0 14 0f 0f 3d de 16 24 af 43 37 93 3e 37 0a a0 3e
       0.03492649 -1.4923837e-10 0.287531 0.31257793
0002b0 e4 72 aa b3 4f ec ee be 54 db 42 3c 56 e8 39 3e
       -7.9371404e-08 -0.46664664 0.011893112 0.18155035
0002c0 a7 43 91 3e 7d 2c f4 38 f7 c0 54 3c 87 ba 09 30
       0.28371927 0.00011643113 0.0129854595 5.010538e-10
0002d0 88 73 32 c0 b9 c1 13 3e 45 3a 65 36 c8 68 97 bd
       -2.7883015 0.14429368 3.4157576e-06 -0.07393032
0002e0 ad c5 60 3d 7e 8a c3 be 66 49 f7 34 84 38 93 be
       0.05487602 -0.381916 4.606074e-07 -0.28754056
0002f0 26 55 7e 3c e2 0e 5d 3e c1 fd d3 3e 44 0f 2f be
       0.015523231 0.21587709 0.41404536 -0.17095667
000300 76 1e 8e be 4f ce 34 36 4f 87 e3 36 b1 14 b9 bf
       -0.27757615 2.6942178e-06 6.780879e-06 -1.445944
000310 f4 41 0d aa 0f d4 cd 3e 60 5a 21 3e bc db 81 bd
       -1.2546198e-13 0.4020085 0.15757132 -0.06340739
000320 b9 51 60 3d 67 fc f1 3d 1f 3a 51 3e 77 c4 52 80
       0.054765437 0.1181572 0.20432328 -7.600989e-39
000330 a7 75 d0 3e ac c0 b2 be c8 ca af 81 54 27 89 27
       0.40714762 -0.34912622 -6.4575824e-38 3.806778e-15
000340 68 3a de 26 a9 93 90 3e 3a 06 02 3f 28 e3 63 31
       1.5420176e-15 0.28237656 0.5079075 3.316197e-09
000350 b9 98 12 3f 08 fe ed 3d ec 69 52 ba 24 a5 fa be
       0.57264286 0.11620718 -0.0008026648 -0.48954117
000360 97 a6 ad b8 cd cc 9e 3e 57 26 6e 3e d4 6c b5 b5
       -8.2803126e-05 0.31015626 0.23256813 -1.3517224e-06
000370 91 a5 ba b2 2c 50 24 be ec da fd bd 00 3a 49 21
       -2.172854e-08 -0.16046208 -0.12395272 6.817821e-19
000380 25 8b 80 3e 4a 10 0e 3f 90 6c 9e bd 95 14 2a be
       0.2510616 0.55493605 -0.077355504 -0.16609414
000390 a2 e6 c1 bf 9b 40 22 37 75 17 45 a5 89 4a 24 bd
       -1.5148509 9.670995e-06 -1.7094974e-16 -0.040110145
0003a0 66 da 05 3c 27 8f 16 b0 0f ab cb be 59 a1 11 be
       0.008169746 -5.4773114e-10 -0.39778945 -0.14221705
0003b0 90 e9 73 30 c0 6a 20 bc ce 96 d9 3a d6 04 af be
       8.87348e-10 -0.009791076 0.001660073 -0.34183377
0003c0 d9 35 02 3f 74 58 ed 37 ea 26 54 3e 3f 41 d3 b3
       0.50863415 2.829379e-05 0.2071797 -9.8373214e-08
0003d0 4b 4c 67 be 0c f8 9b 3e 91 46 44 ad f4 ca cf 3b
       -0.22587697 0.30462682 -1.1156979e-11 0.0063413326
0003e0 28 e4 a5 be 79 7e 96 bf 19 9c 1f 33 fd 4c e7 bf
       -0.32400632 -1.1757346 3.7162042e-08 -1.807037
0003f0 37 46 e8 3e 1a 48 c0 3d dc 14 3d 3f 82 36 67 be
       0.4536607 0.09388752 0.73859954 -0.22579387

advantage.2.bias f4 [36]
000000 af ba b6 be a7 88 6c 3d 4d 9c db bd 83 6f 96 3d
       -0.35689303 0.05774751 -0.107231714 0.07345488
000010 a9 ac 97 3b bf aa b9 be 2b 86 50 3e 94 f9 1f 3d
       0.004628737 -0.3626308 0.20363681 0.039056376
000020 d5 fa 3c 3e 6a 4c 6e 3d ac 81 86 3e 23 f3 ae 3b
       0.1845506 0.058178343 0.26270807 0.0053390427
000030 20 77 5f bc 62 83 30 be 36 04 b3 3d cb 7b cb 3d
       -0.013639241 -0.17237619 0.087410375 0.09935721
000040 fd dd f1 3d 3b 4c e9 bd bc 64 ae 3d 0b 8d b0 bd
       0.11809919 -0.11391493 0.08515307 -0.08620652
000050 eb cd 63 3e d8 96 3b 3e fd d1 38 3e 7c 41 78 bd
       0.2224652 0.18319261 0.18048854 -0.060609326
000060 99 8e 69 3e 95 e4 a1 3e ac b6 35 3d 34 3f 0b be
       0.22808303 0.31619707 0.044363663 -0.13598329
000070 1c 76 3d 3e ef 59 a6 3d 47 ed 2a bf b3 29 d9 3d
       0.18502086 0.08122622 -0.66768306 0.106036566
000080 aa 3d 92 3e 70 e8 98 bd ce 42 dd bd aa 65 ee 3e
       0.2856267 -0.07466209 -0.108037576 0.4656194

value.0.weight f4 [64, 128]
000000 70 a4 19 00 06 c1 20 00 1a 74 9a 80 bc 5a 0c 01
       2.354876e-39 3.00798e-39 -1.4184316e-38 2.5779038e-38
000010 b8 f0 5e 80 38 9b 91 00 0c 2c ae 00 fa 48 83 80
       -8.71889e-39 1.3371829e-38 1.5995177e-38 -1.2056629e-38
000020 56 61 fe 81 5c c3 ed 81 44 a1 ed 01 a0 4c 99 80
       -9.3444534e-38 -8.734038e-38 8.7291455e-38 -1.4078319e-38
000030 d8 d2 90 80 9e 86 e2 80 26 06 41 80 74 8d 66 80
       -1.3299948e-38 -2.0803114e-38 -5.971513e-39 -9.417964e-39
000040 70 f7 d4 00 a4 38 2f 01 9a 17 d0 00 6a e8 b8 80
       1.9557889e-38 3.218306e-38 1.911025e-38 -1.6981106e-38
000050 90 a9 87 80 b0 46 36 00 80 4e 33 00 c4 f3 53 80
       -1.245862e-38 4.984475e-39 4.711771e-39 -7.709793e-39
000060 f4 c2 18 80 90 40 38 80 f4 45 36 80 bc 29 44 81
       -2.273988e-39 -5.165948e-39 -4.984211e-39 -3.6029457e-38
000070 98 17 5a 00 18 0b ee 80 64 81 f0 80 c8 2f 5b 00
       8.273658e-39 -2.1860828e-38 -2.2086936e-38 8.374171e-39
000080 28 4b 65 00 80 ab 1a 81 f8 b6 b0 80 90 8f ca 00
       9.302346e-39 -2.8408378e-38 -1.6228684e-38 1.8602271e-38
000090 32 94 42 80 b0 2a fe 80 72 2e 2f 80 0c 67 3a 80
       -6.114305e-39 -2.334153e-38 -4.33293e-39 -5.363425e-39
0000a0 58 e5 0d 80 fc eb a7 80 74 57 eb 80 4c 63 df 80
       -1.276134e-39 -1.5421183e-38 -2.1612714e-38 -2.0514937e-38
0000b0 a8 e9 8d 80 92 d9 e1 81 06 b1 27 80 8c c6 dc 80
       -1.3032625e-38 -8.2964145e-38 -3.645088e-39 -2.0275034e-38
0000c0 00 83 46 80 a0 3f bf 00 44 2a d7 00 e0 a1 61 00
       -6.475479e-39 1.7563404e-38 1.9759794e-38 8.966113e-39
0000d0 d1 c4 8c 01 54 6a 7d 80 be 4f 75 00 fc 1e f0 00
       5.1710296e-38 -1.151758e-38 1.0773359e-38 2.2051634e-38
0000e0 ea 02 15 00 a8 b4 88 80 30 a5 72 00 90 37 a0 80
       1.929591e-39 -1.2554435e-38 1.0528505e-38 -1.4713611e-38
0000f0 4e cd a1 80 a0 6b 21 80 60 53 67 01 36 22 19 80
       -1.4859164e-38 -3.06918e-39 4.2487818e-38 -2.30816e-39
000100 aa 1d 1e 00 ba fb 38 80 3c 24 95 00 5c ab 7b 81
       2.765706e-39 -5.23309e-39 1.3696487e-38 -4.6224363e-38
000110 40 f9 ac 00 63 7b 9e 81 30 33 54 81 42 05 b8 00
       1.588512e-38 -5.8217085e-38 -3.8974976e-38 1.6899617e-38
000120 e4 e3 8a 01 e8 25 c7 01 40 79 4a 80 66 7e f8 00
       5.10202e-38 7.315545e-38 -6.839323e-39 2.2820546e-38
000130 44 7a 94 80 f4 aa de 81 96 10 a8 01 f6 94 f9 80
       -1.3635514e-38 -8.1795226e-38 6.1737253e-38 -2.2920476e-38
000140 fe 4b 9f 01 c0 7a a2 81 1e e9 c7 00 a4 15 51 00
       5.851642e-38 -5.968554e-38 1.835889e-38 7.446438e-39
000150 88 2f ae 81 22 7f 4e 80 7c 7c bf 00 b0 31 81 80
       -6.398571e-38 -7.208775e-39 1.7585236e-38 -1.1864604e-38
000160 c9 bb a4 01 c0 69 59 01 d8 d4 e0 00 1a 87 f0 81
       6.0513544e-38 3.9932477e-38 2.0647505e-38 -8.835594e-38
000170 4e 09 af 00 a1 21 fe 81 7c 70 3e 80 8c 95 1a 80
       1.607455e-38 -9.335312e-38 -5.734153e-39 -2.44137e-39
000180 4c 2f 92 00 14 77 27 80 e0 7c a4 00 53 1c fb 01
       1.342495e-38 -3.624302e-39 1.5105818e-38 9.224348e-38
000190 1a de be 80 3a de 81 81 08 1d db 00 74 0c 51 80
       -1.7528419e-38 -4.7705995e-38 2.0122388e-38 -7.443143e-39
0001a0 23 07 05 02 56 b0 34 00 84 6a 82 00 60 c6 7f 00
       9.773345e-38 4.838703e-39 1.1976825e-38 1.1734272e-38
0001b0 90 16 6d 00 7c b5 b8 80 f5 58 b0 81 60 6b 6b 80
       1.0018163e-38 -1.6962836e-38 -6.4779836e-38 -9.864917e-39
0001c0 64 4c e4 00 3c 89 ac 80 84 b6 32 80 a6 92 3e 80
       2.0965897e-38 -1.5844936e-38 -4.657249e-39 -5.746408e-39
0001d0 f2 36 1f 00 7e f7 d0 00 58 a4 2e 00 04 65 a3 00
       2.866611e-39 1.9190567e-38 4.283388e-39 1.5005423e-38
0001e0 b2 49 03 80 a8 92 e1 80 cc 46 d7 00 c4 17 e5 00
       -3.01943e-40 -2.0715597e-38 1.9770029e-38 2.1038854e-38
0001f0 f8 fe 4d 80 b0 e8 c6 00 06 68 8c 00 c0 d7 a9 80
       -7.162799e-39 1.8266901e-38 1.2894286e-38 -1.5597595e-38
000200 9c 46 f2 80 7c 88 89 80 0a 4e a5 01 d8 7e 39 80
       -2.224952e-38 -1.2630424e-38 6.072341e-38 -5.280126e-39
000210 da 9e 65 00 b4 12 7a 80 a8 16 22 80 b4 50 e8 80
       9.33237e-39 -1.121064e-38 -3.130534e-39 -2.1334786e-38
000220 98 04 2e 00 08 cb cc 00 24 ea 97 81 10 fd aa 80
       4.226081e-39 1.8807275e-38 -5.5804615e-38 -1.5702816e-38
000230 a0 18 0d 80 aa 79 61 00 60 c2 c6 80 44 ba 01 81
       -1.202695e-39 8.951688e-39 -1.8253157e-38 -2.3827197e-38
000240 b8 a3 c6 00 3e 96 66 80 a0 58 85 80 c1 fd 8c 81
       1.824216e-38 -9.421117e-39 -1.2245914e-38 -5.1791997e-38
000250 38 67 26 80 e8 14 b4 00 6c 2d 65 80 00 f5 58 80
       -3.526777e-39 1.6537889e-38 -9.29168e-39 -8.169413e-39
000260 c8 2a b1 01 32 ff 4d 00 e0 d9 88 00 07 15 00 01
       6.508092e-38 7.16288e-39 1.2567786e-38 2.3524973e-38
000270 e5 2d 02 81 34 d3 63 81 c0 17 9b 00 fe 03 03 01
       -2.3910157e-38 -4.1844846e-38 1.4243022e-38 2.4063764e-38
000280 9c 29 04 01 d8 27 32 80 68 74 0b 82 a2 c7 9b 00
       2.4274424e-38 -4.606068e-39 -1.0245514e-37 1.4306117e-38
000290 7a a4 0f 80 ea 93 a0 01 20 dd 67 00 5a 00 13 00
       -1.436536e-39 5.8986964e-38 9.538381e-39 1.745e-39
0002a0 92 55 0f 00 78 7b 95 00 c4 7d cd 80 68 7c 47 81
       1.408229e-39 1.3727781e-38 -1.8871393e-38 -3.6639785e-38
0002b0 38 9f 4c 80 04 50 9c 00 76 e5 a8 00 a6 af 0e 00
       -7.036615e-39 1.4355042e-38 1.5510678e-38 1.348708e-39
0002c0 78 43 50 00 04 38 3f 01 6a 2f 99 81 f0 e4 0d 00
       7.371043e-39 3.512135e-38 -5.627136e-38 1.275989e-39
0002d0 18 de 9a 80 78 2a 5f 00 e8 e4 6e 00 30 e4 47 00
       -1.4222339e-38 8.739607e-39 1.018402e-38 6.602178e-39
0002e0 a8 2c 67 80 4f 1b ca 01 e8 c8 7a 81 32 fa 05 00
       -9.475076e-39 7.4242267e-38 -4.606189e-38 5.4893e-40
0002f0 0c 93 22 00 18 e6 3b 80 78 8c 84 00 78 e1 52 00
       3.175157e-39 -5.500836e-39 1.2172676e-38 7.611394e-39
000300 2c 1d f1 00 6c 2b 6a 80 04 46 07 80 12 e7 12 00
       2.214282e-38 -9.75014e-39 -6.67965e-40 1.735931e-39
000310 00 21 c7 80 f0 f0 b9 80 ba cb d0 80 7c 20 14 00
       -1.8287102e-38 -1.7075999e-38 -1.9174867e-38 1.848363e-39
000320 88 14 53 81 46 77 c9 80 7c fa 52 01 22 04 25 00
       -3.876931e-38 -1.8501722e-38 3.8750622e-38 3.399396e-39
000330 04 a8 60 00 b8 a6 1c 80 e8 29 c5 00 f8 d9 e1 00
       8.87648e-39 -2.631201e-39 1.8106626e-38 2.0741179e-38
000340 84 bf 47 00 14 78 34 81 2a cd 20 00 bf b0 e7 01
       6.589023e-39 -3.314693e-38 3.012335e-39 8.5109617e-38
000350 ea e6 94 80 14 10 6f 81 7a 47 43 00 b4 e4 2b 00
       -1.367449e-38 -4.3908903e-38 6.178619e-39 4.03097e-39
000360 86 33 a4 80 68 83 65 00 a0 db d8 00 48 cf 76 80
       -1.5079504e-38 9.322525e-39 1.9915254e-38 -1.0910947e-38
000370 f2 29 fd 81 c0 85 79 80 53 78 b9 01 dc 71 74 01
       -9.299771e-38 -1.1160075e-38 6.8130924e-38 4.4897412e-38
000380 0c 6f 94 80 8d 68 bb 81 64 a7 3c 80 e6 3b f9 00
       -1.363149e-38 -6.8842974e-38 -5.570178e-39 2.2888526e-38
000390 3e e3 cb 00 5e 9b f6 00 28 61 8a 00 b4 ce 3e 00
       1.8724125e-38 2.2647267e-38 1.2708152e-38 5.767952e-39
0003a0 c8 1f c8 80 dc 77 2a 00 60 0c 79 80 62 3e 4f 00
       -1.83785e-38 3.900088e-39 -1.1116534e-38 7.277383e-39
0003b0 52 17 8b 81 46 6a 4e 80 b4 2b 0b 01 f8 73 0e 00
       -5.1094e-38 -7.201292e-39 2.5561623e-38 1.327299e-39
0003c0 94 16 c0 01 9a 43 2e 00 54 f5 71 00 24 6b 8d 80
       7.056206e-38 4.248684e-39 1.0465418e-38 -1.298724e-38
0003d0 aa b0 27 00 0e 16 b2 81 68 41 e1 00 40 42 d6 80
       3.64496e-39 -6.541852e-38 2.068645e-38 -1.9676562e-38
0003e0 52 d6 04 81 2c cc 12 00 2c f6 b4 80 a8 e2 2c 80
       -2.4398338e-38 1.726282e-39 -1.6618699e-38 -4.122071e-39
0003f0 f8 78 c5 01 e0 4c 34 80 a0 ca 82 80 dc 99 68 80
       7.253995e-38 -4.803023e-39 -1.2011303e-38 -9.606086e-39

value.0.bias f4 [64]
000000 4c 19 4c 01 c6 46 df 00 da c2 02 80 58 c2 2f 80
       3.7487032e-38 2.0504704e-38 -2.5357e-40 -4.385986e-39
000010 fa fb c9 01 40 9e 7e 00 48 08 17 80 98 0a 14 00
       7.419731e-38 1.1628042e-38 -2.115187e-39 1.84051e-39
000020 58 2c dc 01 3c f1 1e 00 d8 ba 21 81 80 3d 35 00
       8.0878867e-38 2.841603e-39 -2.9705084e-38 4.889343e-39
000030 7e 60 94 01 80 00 12 00 10 4f 85 80 16 96 e6 00
       5.4505073e-38 1.653218e-39 -1.2242483e-38 2.1176005e-38
000040 f2 c5 3f 00 62 5d ac 00 27 78 04 02 6e 9a 47 00
       5.856646e-39 1.5829205e-38 9.73231e-38 6.575719e-39
000050 b2 e0 4b 80 0c be 0c 00 1b fb b2 01 58 c7 be 01
       -6.968268e-39 1.170202e-39 6.574719e-38 7.008102e-38
000060 60 26 71 00 32 86 b7 81 94 6b 36 00 a0 21 40 00
       1.0391177e-38 -6.7416144e-38 4.997709e-39 5.889534e-39
000070 5a 4a 17 00 b4 80 4c 80 d8 1a 7c 01 f6 fd b1 80
       2.138889e-39 -7.025668e-39 4.630435e-38 -1.6345987e-38
000080 30 68 00 01 cc 66 a4 80 38 13 52 80 58 e0 f0 01
       2.3584638e-38 -1.5097898e-38 -7.537405e-39 8.8483994e-38
000090 90 47 a6 01 12 39 65 80 98 b0 2d 00 f2 b8 bf 01
       6.1081457e-38 -9.295858e-39 4.195947e-39 7.04277e-38
0000a0 58 03 4f 81 a4 7c 4c 00 fc 2b 93 00 ac b6 09 80
       -3.8022294e-38 7.02421e-39 1.3515597e-38 -8.9205e-40
0000b0 94 d7 61 80 5c 85 33 00 de 59 d2 00 86 58 43 80
       -8.985378e-39 4.73145e-39 1.9317692e-38 -6.184734e-39
0000c0 be 2e 0a 00 9c 0f 54 00 30 c7 ec 80 5c 31 9b 80
       9.35123e-40 7.719781e-39 -2.1744632e-38 -1.4252209e-38
0000d0 dc 62 c2 80 f2 b3 58 80 ca 2b 22 00 f0 90 10 80
       -1.785155e-38 -8.146076e-39 3.138115e-39 -1.521362e-39
0000e0 12 d4 10 80 2c 06 16 80 48 46 c2 00 60 52 52 00
       -1.545444e-39 -2.022595e-39 1.7841298e-38 7.560061e-39
0000f0 fc ac f6 80 7c 65 00 80 a0 75 fb 80 6a 9d 1e 00
       -2.2653587e-38 -3.6406e-41 -2.3092905e-38 2.811534e-39

value.2.weight f4 [1, 64]
000000 fa a8 47 80 7d fe 98 01 0c e8 31 01 62 8e 24 00
       -6.580938e-39 5.6201154e-38 3.267625e-38 3.357155e-39
000010 f8 ff 12 00 b0 e4 af 81 b2 27 c4 81 93 51 a0 80
       1.744863e-39 -6.4613e-38 -7.205599e-38 -1.4722943e-38
000020 57 47 0a 80 d2 80 28 80 ce f9 95 00 24 91 36 80
       -9.43947e-40 -3.719632e-39 1.3773102e-38 -5.011183e-39
000030 98 e2 9c 00 b8 55 6d 80 30 12 2c 00 be 04 39 00
       1.4407624e-38 -1.0040819e-38 4.047286e-39 5.236324e-39
000040 08 f3 04 01 44 c6 3d 00 d8 44 2f 00 89 c5 96 00
       2.4418937e-38 5.67309e-39 4.340965e-39 1.3846187e-38
000050 c8 7e d1 00 46 20 05 80 c4 67 cc 00 f8 fb 3d 00
       1.9239099e-38 -4.70755e-40 1.8771665e-38 5.692355e-39
000060 5e 13 e3 81 28 b9 f2 00 ce 62 68 80 98 8d 5a 80
       -8.341442e-38 2.2290612e-38 -9.586336e-39 -8.315989e-39
000070 60 0b d9 00 f0 65 37 80 04 20 2b 80 2c 17 f7 80
       1.9932383e-38 -5.08752e-39 -3.960411e-39 -2.269168e-38
000080 05 47 9b 00 60 96 3f 00 6b 38 27 00 58 bb 04 01
       1.4259979e-38 5.83958e-39 3.601823e-39 2.4378984e-38
000090 88 02 45 00 37 b6 2e 80 91 4b 35 80 12 88 9b 00
       6.337557e-39 -4.289799e-39 -4.89439e-39 1.4283315e-38
0000a0 44 ee 34 00 f2 ae b4 80 c4 bc 2f 00 a0 f1 75 80
       4.86092e-39 -1.6593148e-38 4.383985e-39 -1.0831432e-38
0000b0 19 86 70 80 7e d6 2d 00 d8 c8 82 80 2c c9 7c 00
       -1.0333681e-38 4.209543e-39 -1.2010664e-38 1.1459768e-38
0000c0 cf b7 9a 01 af ea 3b 00 70 b8 01 01 12 ce 6d 80
       5.683442e-38 5.502483e-39 2.3825885e-38 -1.0083993e-38
0000d0 b2 7e 2e 00 76 1d c8 81 4f 24 44 80 32 d9 70 80
       4.269883e-39 -7.351067e-38 -6.257839e-39 -1.036349e-38
0000e0 30 94 23 00 4c c2 e7 00 42 ae af 00 18 0b aa 80
       3.267402e-39 2.12837e-38 1.6133724e-38 -1.5616014e-38
0000f0 f0 07 c7 80 c6 aa ab 80 08 1a 53 00 a2 85 a7 01
       -1.8278111e-38 -1.5765132e-38 7.631684e-39 6.1537865e-38
