pre-trained/ddqn_dnn20000.pth (torch_old, 650004 bytes, 44 tensors)

feature.0.weight f4 [128, 36]
00000000: 552c acbc 2936 a93c 6d6b 0d3d 1887 6a3c
00000010: 6cf8 ddbb 0d07 d2bc 4610 b0bc 35a6 6abd
00000020: 8ce3 343d 868f 553c 1788 113d 999a 783d
00000030: ea94 d6bd c8bc 54bd 8386 b73d 89c8 633e
00000040: 87a7 2f3c def3 c63c 9d9a 073d 88e0 b73b
00000050: c628 223e 64f4 36c0 75c7 6abb 318a ad3c
00000060: e9a6 6dbc 6774 c63c 520c 183c 73e3 29bd
00000070: 0247 12bd f2ff 9e3d 6575 db3c 3f5a 6dbd
00000080: 86d3 e63b 6e07 d4bd e887 783d a578 2b3e
00000090: fae3 4dbd 1275 023e e683 803c f29b fcbc
000000a0: c5c8 673c 82f0 6ebc dd39 8a3e eba8 a13d
000000b0: fbd9 a6bd 3194 38bd e380 033d d186 02bd
000000c0: 1617 e03d cbbc 503d 5330 bdbb 4970 543c
000000d0: c979 8f3d 734e 73bd d9cc 0abe cee4 17bd
000000e0: 1a1d 133c 04d0 d43d 8c54 2b3e df1a bf3d
000000f0: d1d4 e6bf 2250 09be 8d20 1a3e 3ed0 103e
00000100: 7e26 033e d43a 26bd c5eb abbf e9df 3abe
00000110: 4e76 af3d e29b c73b 06af a2bd 4ad6 0c3e
00000120: 3f2a 4fbd 6f95 dfbc f5b5 133d f1fb bd3c
00000130: 2adc 093c 3883 09bd 584e 5cbe 314f 523d
00000140: bb80 92bc 9172 403d 81fa 813d ec4a 063c
00000150: f8ca 52bf 96e9 f1bf eae7 f63d f43a 01bd
00000160: 33c6 be3d 5625 05bd 19bc bb3e 2b3c c13e
00000170: d2a9 ebba e13a 29bc f878 ddbc 4295 273b
00000180: 4cd5 433e 2ae1 683e 1fdc 083e 09a9 21bc
00000190: 4fda a5bd cbbb 7dbd 5402 a13c 5a6b 893d
000001a0: 8426 533b fc3c ce3c 1088 6abd 87e5 1e3e
000001b0: e5b3 12be 7207 9c3d 2db9 413d 4e67 3fbd
000001c0: fea6 7cbb f549 33bc d31e 4fbd b559 18be
000001d0: 62e9 63bb 1407 b83d 6951 1cbc ec28 92bc
000001e0: ee7c 22bd fcad cabd 6fc1 f13d be29 3e3e
000001f0: 8e71 3ebd 3832 8d3b d70b 8c3d e386 1c3e
00000200: 688a cf3f 7a1e a6be 7a3e eabd 3dce e8bc
00000210: 5a91 863c 3015 393d f5b5 73bc 5f60 4c3e
00000220: bb45 82bd 1666 1d3d 24c9 67bc 0c6b c3bd
00000230: 34af 36be fca4 26be 43e7 abbc 2766 313e
00000240: 7d82 4cbe 3d65 f5be fd85 04bf d22f 7ebe
00000250: 57ce 6dbe 5742 54bc 1162 a0be 02c2 72be
00000260: 12d2 87be 4379 bcbe f524 0d3e bb47 88be
00000270: 9f21 1dbe 9c42 cebe 8d56 88bf 6ac5 40bf
00000280: 1507 373e 2dda a1be 719d cebe 779a 06bf
00000290: 332b d0be 3e98 22bf 4756 6ebe 652a c9be
000002a0: 3eab 833d 5b63 3c3e b65f a33c 2f70 81bd
000002b0: 2616 63be 495e c43e 8e24 93be 2fd1 85bd
000002c0: 9255 55bd 7844 a9be 1de4 0b3f 68bc 53bd
000002d0: ced1 453d 8712 4fbb f990 f23c 40a2 2b3d
000002e0: de08 863c 2b32 a43d 4b89 17bd be8a adbc
000002f0: b6d6 f03c 0fef 283c 2e65 8ebc 483d d8bc
00000300: b6b5 663d d928 043e 41d8 093d 4469 de3b
00000310: 3cb2 31bc 9878 9cbd 035e a3bd 7156 82bd
00000320: 52b0 313e af63 be3d e328 a6bd 7210 d8bd
00000330: e9f6 16be 2556 28be f321 84bd eddc 463d
00000340: 2dee 293d 72c6 82be bf3d cc3f 3655 1abf
00000350: be4b 0dbd dedb 6dbb 4eb2 9ebc 13cc af3d
00000360: 0a32 9fbc fab1 f8bc b750 44bd 5832 163e
00000370: eece 963d 1d17 9abe 446e 8d3d b031 cbbc
00000380: cdae 193d 4514 4fbc 1c1c 0c3d 40df dd3d
00000390: 0f48 57bc fbee e2bc cfe7 283d 344c 623d
000003a0: a4c6 d8bf 3d92 d3bf bbd4 77bd 1206 9cbc
000003b0: 1401 8f3b bd2b 173e 3312 b83d ca30 90bd
000003c0: f385 95bc 8530 1b3a f625 0a3d 6708 5c3d
000003d0: 517f 943d 6932 a2bd 174e 653c 1cae 04bc
000003e0: 3d93 19bc 2237 55bc cfd0 f2bd 5000 64bd
000003f0: 22cd 66be d6f9 e6bd 5e78 9b3d 42ca d53d
-0.021017233 0.020655708 0.034526277 0.014314435 -0.006773999 -0.025638128 -0.021492135 -0.057287414
0.044162318 0.013034707 0.035530176 0.06069431 -0.10477622 -0.05193785 0.08961203 0.22244467
0.010721094 0.024286207 0.033106435 0.005611483 0.15835866 -2.8586664 -0.0035824452 0.021184059
-0.0145051265 0.024225427 0.009280281 -0.041476678 -0.03571225 0.077636614 0.026789377 -0.057947394
0.0070442585 -0.103529796 0.060676485 0.16745241 -0.050266244 0.12739971 0.015687894 -0.03083608
0.014146988 -0.014583709 0.2699727 0.07893547 -0.08147045 -0.0450632 0.032105338 -0.031866852
0.10941903 0.050961297 -0.005773583 0.012966224 0.070056506 -0.059400987 -0.13554706 -0.03708344
0.008979106 0.10391238 0.16731471 0.09331297 -1.8033696 -0.13409474 0.1505148 0.14141938
0.12807652 -0.040583447 -1.3431326 -0.18249477 0.08567487 0.0060915807 -0.07943539 0.1375362
-0.0505774 -0.027292935 0.0360622 0.023191424 0.008414308 -0.033572406 -0.21514261 0.051345054
-0.01788365 0.04698426 0.06346608 0.008196574 -0.82340956 -1.889941 0.12055953 -0.031550363
0.09315147 -0.03250631 0.36666945 0.37741217 -0.0017979688 -0.010328979 -0.027035221 0.0025571142
0.19124335 0.22742143 0.1336522 -0.009866961 -0.0809828 -0.06194667 0.01965443 0.06709929
0.0032219002 0.025175564 -0.057258666 0.15517245 -0.14326437 0.076186076 0.047295738 -0.04672938
-0.0038551684 -0.010942926 -0.050566506 -0.1487797 -0.0034776558 0.08985725 -0.009540894 -0.017841779
-0.039669923 -0.09896466 0.11804473 0.18570611 -0.046495013 0.004308965 0.06838196 0.1528583
1.6214113 -0.32445127 -0.11437698 -0.028418655 0.01642673 0.04518622 -0.014874925 0.19958638
-0.06360956 0.038427435 -0.014147077 -0.09541902 -0.17840272 -0.16273874 -0.020984298 0.17324124
-0.19971652 -0.479288 -0.5176695 -0.2482293 -0.23223244 -0.01295527 -0.3132482 -0.2370682
-0.26527458 -0.36811265 0.13783629 -0.26617226 -0.15344857 -0.40285194 -1.0651413 -0.7530123
0.17873795 -0.31611767 -0.40354493 -0.52579445 -0.40657958 -0.63513553 -0.232751 -0.39290157
0.06429146 0.18397276 0.0199431 -0.063202254 -0.22176418 0.38353184 -0.28738827 -0.06534039
-0.05208356 -0.3306005 0.5464495 -0.05169335 0.04829579 -0.0031596737 0.029610144 0.04190278
0.01636165 0.08017381 -0.036996167 -0.021184321 0.029399257 0.010310902 -0.01738223 -0.026396409
0.056325637 0.12906207 0.0336535 0.006787451 -0.010845717 -0.07640189 -0.07976916 -0.06364144
0.17352417 0.09296357 -0.08113267 -0.10550012 -0.14742626 -0.16439112 -0.06451788 0.048550535
0.041486908 -0.25542027 1.5956343 -0.6028627 -0.03449606 -0.003629438 -0.019372132 0.08583846
-0.01943304 -0.030358303 -0.04792854 0.14667642 0.073636875 -0.3009576 0.06905797 -0.024803966
0.03752022 -0.01263911 0.034206495 0.10833597 -0.013139739 -0.027701845 0.041236695 0.055248454
-1.693562 -1.6529003 -0.06050561 -0.019045863 0.004364142 0.14762779 0.08987846 -0.07040556
-0.018252349 0.0005920011 0.03372761 0.05371895 0.07250846 -0.07919771 0.013995669 -0.008098152
-0.009373483 -0.013013633 -0.11856233 -0.05566436 -0.2253919 -0.11278121 0.075913176 0.10438968

feature.0.bias f4 [128]
00000000: fdb1 63bd 1385 98bd dcae 00be a1b5 8fbc
00000010: 1980 90be 300e b6bc fbd5 8ebd 2715 eabc
00000020: 0426 41bc 7fba ad95 05b4 ecbd 4e9f b8bc
00000030: 1463 05bd 9da0 92bd 53e7 97bc c263 a5bd
00000040: 2f10 643d 4998 c8bd 3b9a e7bd e159 97bd
00000050: 0f06 78bc 467d 88be 08a6 34bd b766 14be
00000060: 4753 91bc 7489 42be dd8b 9abd 24e7 7fbd
00000070: 600e 1cbd 3ec2 a43b 87df 2cbe 5609 04b1
00000080: c6d3 b7bd a0dd 683d 962e 40be 52fa 33be
00000090: 5157 e0bd 77b8 26be bd21 29be 5607 433b
000000a0: 8cf8 253d 497d 0c3d dc22 5abd 50e7 e4bd
000000b0: 7b15 1bbd b8c1 bbbc 28c4 61bd eeb5 2b3c
000000c0: ff50 94bd c829 c63d ce95 a8bb f883 0abe
000000d0: efee 04be d4c2 0dbc ddb2 64bd 3211 bcbd
000000e0: 9e2c 2cbe 3445 973a 825c 2a3c 377f 29bd
000000f0: b2bf f1bd 0398 d8bd c453 26b6 d4ae 06be
00000100: c3a8 14bc 1203 83bd 46aa 153c 9326 d2bd
00000110: eb6d e4bc d5d9 f0bd 6554 10bb 189e 9dbd
00000120: ce77 1a3d e36c cd3e 084d 7d3d 135b 8bbd
00000130: 43b1 f7bd fa6b 9ebd 662a 533d 7bd0 92bd
00000140: 3bf6 083e 5732 78bd 746f 163e 50d5 6abe
00000150: 8c73 123b 724c 0b3e fd8c c9bc e4f2 f2bc
00000160: e010 3b3d b039 60bd f395 873c d9c6 e1bd
00000170: 6127 5abd b9d7 83bc cab5 e8bd 9bec 89be
00000180: adf4 45be a9bf b83e 489a c5bd bf03 83bd
00000190: 8584 943d 4a96 70bc 21d2 d03d d579 653e
000001a0: ee4b 8ebc 5f68 963c bb1d f7bd f2c5 563c
000001b0: 2192 97bd fcdc 443d 23c5 fdbc 1636 8fbe
000001c0: eb19 9ebd d955 563d 8839 6c3d 52f8 443c
000001d0: 1ee7 14be 6544 6dbd 9f81 52be 08bb 7a3c
000001e0: 0180 edbd 8bb3 f4bc 2ca8 80bd 9949 d4bc
000001f0: 6baa d73d 7a87 9dbd 0061 96bc e619 67be
-0.055589665 -0.07447257 -0.12566704 -0.017542662 -0.2822273 -0.022223562 -0.06974407 -0.02857454
-0.011788849 -7.016838e-26 -0.115577735 -0.0225369 -0.03256519 -0.07159541 -0.018542921 -0.08075668
0.055679496 -0.09794671 -0.11308714 -0.0739019 -0.015138163 -0.26658076 -0.044103652 -0.14492308
-0.017739905 -0.18997747 -0.07546208 -0.062476292 -0.038099647 0.0050280383 -0.16882144 -1.9213835e-09
-0.089759395 0.056851983 -0.18767771 -0.17575958 -0.10954154 -0.16281305 -0.16516776 0.0029759011
0.040520236 0.03429917 -0.0532559 -0.11176932 -0.037862282 -0.02291952 -0.05511871 0.010480387
-0.07242011 0.09675938 -0.0051448112 -0.13526905 -0.12981771 -0.008652408 -0.05583464 -0.09182967
-0.16813895 0.001154101 0.010398032 -0.041381087 -0.11804141 -0.10575869 -2.4784686e-06 -0.13152629
-0.009073439 -0.0639707 0.009134835 -0.10261264 -0.027884444 -0.11760298 -0.002202296 -0.076961696
0.03771191 0.40122136 0.06184104 -0.068044804 -0.12094357 -0.07735439 0.051554106 -0.07168671
0.1337518 -0.060594883 0.14690953 -0.22932935 0.0022346703 0.1360338 -0.024603361 -0.029656835
0.04567039 -0.054742515 0.016550994 -0.11024255 -0.05326021 -0.016094076 -0.113627985 -0.26938328
-0.19331618 0.36083725 -0.096485674 -0.06397199 0.072518386 -0.014684269 0.10196329 0.22409756
-0.01737019 0.018360315 -0.120662175 0.013108717 -0.07400919 0.04806231 -0.030977791 -0.27970952
-0.07719787 0.052327964 0.057672054 0.012022095 -0.14541289 -0.057926554 -0.20557259 0.015303381
-0.115966804 -0.029870769 -0.06282076 -0.025914 0.105305515 -0.07691856 -0.0183568 -0.22568473

feature.2.weight f4 [128, 128]
00000000: 0157 a8bd 5aa3 3c3c 2f75 3e3d afda bf3d
00000010: 9699 a0be aa89 223e 69f4 0ebe bb77 ac3d
00000020: c0ba 713d de7f 7180 425e 2b3e 419c f73d
00000030: 6f68 93bd 2725 b33d fbca 383f 4bb4 36bd
00000040: 8b5f 3fbe e520 f93d 0988 873e d10e 793e
00000050: 420f 1b3e ba7d 5a3e cbee f93d e04d a33e
00000060: f647 513d 0d3d 19bd 8039 b5bd 3596 ee3e
00000070: 1f3a 5ebe b1ae 093d 9d2a e93e 3474 1e80
00000080: 606b ca3d 993d a63d d6b8 003f 3da3 6c3e
00000090: 3540 19bd b0c8 133e c611 a23c 0de3 343d
000000a0: 30bb 083e 67e5 4f3e 0759 0ebe d733 1a3e
000000b0: 9ec4 afbe 1724 923c 0eb8 1e3e 904e d5bd
000000c0: 309d 21bd cbfe a13d f5d3 53bd 3412 27be
000000d0: d27a 623e 379a 9f3e 3462 d13d c364 a9bc
000000e0: 7856 12bc 8bc8 e0bd 75d6 6f3d b453 a53c
000000f0: f83a 4f3e 1f51 b1bd a817 f000 eb22 973e
00000100: d2a0 513e 7612 babd 82cc 83bd d80d 6e3d
00000110: 79a2 db3d b8e3 9d3e e72f efbd 7aef 553c
00000120: 5bfe 0a3e df5c 7ebe 9311 7f3e 0fa5 19be
00000130: e14b e43b ce91 bb3d 46dd 723c 1578 973e
00000140: 5b62 bdbd e455 4f3e 2f41 db3e db67 723e
00000150: dca7 aebc b4ec 3d3e c0ad 903e 80da c63d
00000160: 6472 ce3d 2965 633e 8dca aebe 9cd9 18be
00000170: 9d68 27a5 82a1 143e 613f f1bd 54e2 343d
00000180: 3f5e a23e f9b5 39be c32b 083e 37aa 63be
00000190: d7ae 75be 2afd bd3d c7a9 cebc 3ddb 8bbd
000001a0: c2c4 2dbd a4f6 103c 94cd b2bd 36e1 b5bd
000001b0: 8b74 023d a120 8abb 927a f6ba b0ff a9be
000001c0: 3094 2d3f 498c a5bc e31b d93d cf4c 1ebc
000001d0: 138c 8bbd 685e 673d 6655 c7bd 240c b23e
000001e0: 8c3a 99be 65e6 49be c581 353e df27 5d3d
000001f0: 20cf efbc 9417 b03c e0a0 0cbe 68ba 8b3e
00000200: aa66 3a3e 05f0 0b3e 947e 993d 992f 793d
00000210: f57c 003d 1e1e 2a3e a8c9 1dbf baaf 693d
00000220: 7597 443e fb43 4e00 2fbc 26bd 2df8 8b3c
00000230: c423 c9be c5a7 093e 8368 5c3e d1a0 c2bd
00000240: d13d 253d 3d6b 863c ac48 abbd 57da e33d
00000250: e3b6 a13c 8c89 ddbc 1511 ae3d 3419 53bd
00000260: 43d2 5c3f db9a 4ebd 8292 bc3d c92f 863e
00000270: 280c fabe bc41 11be 41ac 0a3f d37d 0c80
00000280: e695 163e c304 f9bc f6c8 573d 20ae 69be
00000290: 3272 933e 0c64 72bf 543e adbd c173 553e
000002a0: f9c6 ddbe 66fd 0a3d b57d 5eb9 c613 c03d
000002b0: 6fc8 51be 1e1d d53d c37f d1bc 4ce2 d93d
000002c0: 85d1 833d 52b3 8c3a abac 2c3e c41c 893c
000002d0: 5cc5 4c3e c84b c7be aea0 2a3e d2e0 03bf
000002e0: cf9b 383e 6b80 6d3f f260 29be 660d 1b3f
000002f0: 6fbe 853d fe5e 3d3e 83fb 5a80 9f7d b0be
00000300: 3cf3 123e 5341 a53d 0cad ecbb 55d3 613e
00000310: 9b75 ebbe 2292 acbe d526 893e 3954 2c3e
00000320: bea0 ec3c 1f4e e7bd b719 d93d 33af 19be
00000330: fd7c f0bd bb57 5f3c 86c9 5ebd ceab 8e3e
00000340: d5ad 613d 0aeb 0a3c ebf7 0a3e 7e65 b43d
00000350: 6489 693e 8b77 2f3f 1092 1f3e bcf5 273d
00000360: a302 b3bd dfdf 993d f313 99bc 9b7f 6a3e
00000370: abab 53b0 7914 be3d 4ad3 45be 0351 403c
00000380: a3ad 56bd da50 9c3d dddc cd3e a017 523e
00000390: 6cf3 a8bd 1ec4 06bd 6cd1 e9be 4876 64bd
000003a0: 54bf 773e 5440 813b b977 0a3f 2d6e a63c
000003b0: 7793 583e c761 a63c cd74 9fbd 780c 443e
000003c0: 401d f43e 2a49 e03d e041 103e 09b5 87bf
000003d0: 8105 27be 5e17 b2ba 01f1 613f cd86 e7bd
000003e0: eef4 8a3e 1d5b 993d 5b0c 133e e54b f93d
000003f0: abab c7bc 2193 d6bd d77b 9ebf 4737 f3bd
-0.0821972 0.011513555 0.046498474 0.093678825 -0.31367177 0.15872827 -0.13960423 0.08421274
0.05901599 -1.0423281e-38 0.16735175 0.1209035 -0.071976535 0.087473206 0.72184724 -0.044605535
-0.1868879 0.12164477 0.26470974 0.24322058 0.15142539 0.21337023 0.12203749 0.3189535
0.051094018 -0.03741174 -0.08848858 0.46598974 -0.21701859 0.033613864 0.45540324 -2.796751e-39
0.098837614 0.081172176 0.5028204 0.23109145 -0.03741475 0.14432025 0.019783866 0.044161845
0.13352656 0.20302354 -0.13901149 0.15058838 -0.34329695 0.017839475 0.15499899 -0.10415375
-0.039456546 0.07909926 -0.05171581 -0.16315538 0.22117165 0.31172344 0.10223809 -0.02067793
-0.008931749 -0.109757505 0.05855413 0.020181514 0.20237339 -0.08658051 2.2049005e-38 0.29518828
0.20471504 -0.090855524 -0.06435491 0.05811867 0.107243486 0.30837798 -0.116790585 0.013057584
0.13573591 -0.24840115 0.24909048 -0.15004371 0.0069670533 0.091586694 0.0148232635 0.29583803
-0.092472754 0.20247608 0.4282317 0.2367243 -0.021320276 0.18547326 0.2825756 0.09709644
0.10080412 0.22206558 -0.3413891 -0.14926761 -1.4520385e-16 0.14514735 -0.11779667 0.044161156
0.3171253 -0.18135823 0.13297944 -0.222329 -0.23992477 0.09276803 -0.02522744 -0.06828926
-0.04242397 0.008847866 -0.08730617 -0.08880846 0.031849425 -0.0042153154 -0.0018804839 -0.33202887
0.6780424 -0.020208495 0.10601022 -0.009661867 -0.068138264 0.056486517 -0.09733085 0.34774888
-0.2992748 -0.19716795 0.17725284 0.053993102 -0.02927357 0.021495618 -0.13733244 0.27290654
0.18203226 0.13665779 0.07494846 0.06083641 0.03136917 0.16613051 -0.6163583 0.05705235
0.19198401 7.187555e-39 -0.04070681 0.017086113 -0.392851 0.13442905 0.21524243 -0.095033295
0.040342156 0.016408557 -0.083634704 0.111256294 0.019740527 -0.027043127 0.08499352 -0.051537707
0.86258334 -0.05044065 0.09207632 0.26208332 -0.488374 -0.14185232 0.5416909 -1.147163e-39
0.14705619 -0.030397778 0.052681886 -0.2282033 0.28798062 -0.9468391 -0.08459154 0.20844938
-0.43315867 0.033933066 -0.000212184 0.093787715 -0.20486616 0.10405944 -0.025573617 0.10638866
0.06436447 0.0010734594 0.16862743 0.01673735 0.19997162 -0.38925004 0.16662857 -0.51514924
0.18028186 0.92774075 -0.16540888 0.6056732 0.06530463 0.18493268 -8.35542e-39 -0.3447084
0.14350599 0.080691 -0.007222777 0.22053273 -0.45988163 -0.3370524 0.2678744 0.16829003
0.028885242 -0.11294197 0.10600608 -0.1500824 -0.117425896 0.013631756 -0.054391406 0.27865452
0.05509742 0.008478889 0.13571136 0.088084206 0.22806317 0.68541783 0.15583062 0.041005835
-0.08740737 0.07513403 -0.01868627 0.2290024 -7.700531e-10 0.092812486 -0.19318882 0.011738065
-0.052411687 0.07632609 0.40207568 0.20516825 -0.08249554 -0.032901876 -0.4566759 -0.055776864
0.2419408 0.003944436 0.5408893 0.020316208 0.21150003 0.020310296 -0.0778595 0.19145381
0.47678566 0.10951455 0.1408763 -1.0602123 -0.16310693 -0.0013587286 0.8825837 -0.11305008
0.27139992 0.074880816 0.14360182 0.12172679 -0.02437385 -0.10477281 -1.2381543 -0.11875778

feature.2.bias f4 [128]
00000000: 05e6 bdbd 2293 a5be 2e92 34b3 54c2 1ebd
00000010: 4e2b e0bc a47d 00be 99ab 733e 1978 c7bd
00000020: e94d 703e 9540 893e 1aee ceb4 fd9d e3b4
00000030: d0d8 95be e98c f8bc b066 56be 05aa a2be
00000040: 4823 713f cace 64bc 6ef9 12bb ec6f ccba
00000050: d411 04bf c1a1 cfbc b2db 70bc c31c c0be
00000060: 6090 13bf b992 0e3f ab4e 6cbc a901 0cbd
00000070: 63b7 283e 670d 613e dd6c 46be 3295 1f3f
00000080: 404e 3abe f563 00bf d78c 72be eb25 43be
00000090: 6e90 69be 30fa 333e 8aef a5be 689c 173d
000000a0: ca6a a3bd 5c19 fabd 250b 32bb 68b1 84be
000000b0: 5fcb 253e ec96 56b2 74f1 7ebe 5e8f 58bd
000000c0: e428 363f db48 08a8 5522 d93c 2a04 16be
000000d0: b362 b394 d914 b99e 3187 a0be d915 d8ad
000000e0: c0c8 80bb d25c 683b 3220 ed3d 3ff3 d83d
000000f0: c1fa 55b9 735a 7daa 3503 abbc fc44 f3bd
00000100: 2abf 6bbd d966 3bbe aefc 15be 69f2 28be
00000110: b772 7d3e ee0a 263f 7bd0 623e f21c 1d99
00000120: a25f a9be 005f 343d dd6f 92be 9b34 553e
00000130: da35 f7bd e85c 3fbe 0ff9 edbd 3c2f cdbc
00000140: e2fe 43ba 0b06 aebd 84ce d4be d13b 539a
00000150: e242 65be e6b0 38be aba8 37bd 572c 853d
00000160: 666a ffb1 f21f 0abe e53f 663e 032a e5be
00000170: 17bf 843e 6fac a6be 1692 5abc 84b9 32ac
00000180: 2d5e 5dbb 17a4 9abd 7d2a 1dbe 5314 d93d
00000190: 4b90 9da1 2ed0 4e3e 9841 859f 71e6 5cbe
000001a0: 1921 423e 5d9e 45be 6ac4 58bd 2509 4ebe
000001b0: f749 49af a377 353d 10d2 e33c b790 59a4
000001c0: c6a3 843c ea12 ffbd f32d c4bb b4b2 26be
000001d0: 90cc 823e 1873 3cbd 4970 46bd 52df ecbe
000001e0: ff21 923e a318 5cbe af05 283c 2172 063f
000001f0: 6728 f7b2 829e 20bd 4851 c6be 33c0 e63d
-0.09272388 -0.32338816 -4.2042466e-08 -0.038759544 -0.0273644 -0.12547928 0.23795928 -0.09739704
0.2346722 0.26807085 -3.8543732e-07 -4.2396996e-07 -0.29266977 -0.030340629 -0.2093761 -0.3177034
0.9419446 -0.013965318 -0.0022426504 -0.001559732 -0.51589704 -0.025345685 -0.014700817 -0.37521943
-0.57642174 0.5569263 -0.014423053 -0.03418127 0.16476206 0.21977769 -0.19377466 0.6233703
-0.18193913 -0.5015252 -0.23686539 -0.19057433 -0.22809002 0.17575908 -0.32409316 0.037014395
-0.07979353 -0.12211868 -0.0027167287 -0.259166 0.16190861 -1.2490755e-08 -0.24896795 -0.0528711
0.71156144 -7.565315e-15 0.026505629 -0.14650026 -1.8113311e-26 -1.959626e-20 -0.31353143 -2.456606e-11
-0.0039301813 0.0035455716 0.115784064 0.105932705 -0.00020406676 -2.2502295e-13 -0.020875553 -0.11878392
-0.057555355 -0.18300952 -0.14647171 -0.16498722 0.24750791 0.6486043 0.22149841 -8.122555e-24
-0.33080775 0.04403591 -0.2860097 0.20820849 -0.12070818 -0.18687785 -0.1161977 -0.025046937
-0.000747664 -0.08497246 -0.4156381 -4.3682097e-23 -0.22388795 -0.18036231 -0.04483859 0.06502598
-7.433573e-09 -0.13488749 0.22485311 -0.44758615 0.2592704 -0.3255343 -0.013340494 -2.5398303e-12
-0.0033778057 -0.07550829 -0.15348239 0.1059958 -1.0676928e-18 0.20196602 -5.6436207e-20 -0.21572281
0.18957938 -0.19298692 -0.05292169 -0.20120676 -1.8307121e-10 0.044303548 0.027810127 -4.7176953e-17
0.016191375 -0.124547794 -0.005986923 -0.16279107 0.25546694 -0.0460082 -0.048446927 -0.4626413
0.28541562 -0.21493773 0.010255261 0.52517897 -2.8772957e-08 -0.039213665 -0.38733888 0.11267128

advantage.0.weight f4 [64, 128]
00000000: e91f 733d 5f7d 8f3f e17a 06b0 7ed3 c23e
00000010: a269 0e3f 9184 ac3e 95a1 2f3e 27eb 5c3d
00000020: 8ef1 d33e ee79 c1be 881d cf8c 25e2 9fb4
00000030: 22e6 153e 4d9f 30bf 2804 833f 9777 d13d
00000040: ffd0 bf3d a0ce af3c 2afc 952e a505 a0b3
00000050: 13f4 c0bd a3eb d0be 02eb 433b 11bf 663c
00000060: ffad 2abd ac70 813e 87c8 663d 94ef f9bb
00000070: 335a 13bf 16d0 d9be b451 263f 43e2 513e
00000080: 7dde 6ebe 1b91 723e 6620 403e 38c5 e9be
00000090: 3b41 103f 86e0 01bf 6ccd de3e f5a2 473e
000000a0: 5c15 293f 53a1 243e 813e 3aba aa30 be3d
000000b0: adb4 3a3f 4cb5 55ab 1a73 1b3e a9c3 b4be
000000c0: 68aa 83be c1b9 4181 6951 6c3e 2ed1 c6bd
000000d0: 0d31 0f80 47db 6e00 e481 6f3f 7c93 8d1d
000000e0: fc49 ce39 9457 c3be 5abd 9b3d 6076 aabe
000000f0: ff8e e6b6 b8fa 8726 81a8 153d 2fe0 e93d
00000100: 7910 533f b784 e4be 7429 f93e 2833 70be
00000110: 7b30 0a3f aa86 8abe 937c 48bf fabe 3f01
00000120: 2c0c ff3c dd21 3abe 7931 e73d 46d7 0e3e
00000130: 8543 7cbe 8de1 ab3d fc1f 8d3e ab03 1bbb
00000140: b125 c6b8 d855 2a3c 815a 03be 4d57 0081
00000150: eed1 bebe 7acf 09be cf4c 8e3b 3ec2 80be
00000160: 89ae 9926 3213 e13d cef9 a83d 33f0 63bd
00000170: 26c8 1a3c 2d0d 97be 658d 80be a8aa 8525
00000180: 5163 1ebe 283e afbe dbdb c5be ad9d 133d
00000190: 52ff bd9e 1376 d3be d4f4 1001 b491 3abe
000001a0: f0f0 ddbe a01f b13e 6481 63bd ddfc 833e
000001b0: ee30 1601 40f4 12bf a5e6 86bd 6931 7fb0
000001c0: 675d 8ebc 999c 86bd 0fc1 cc3e d033 a03e
000001d0: c197 123c 35e2 53be e253 a93b 43cc 51bf
000001e0: a6d3 11bd 5055 81bb e1c2 e53d d0b7 2e3e
000001f0: 2d5b 1b84 4708 1c3d d103 9fbe decf 3dbf
00000200: db82 42aa 4143 8812 801b 8500 8de5 a39d
00000210: 56cd b103 848e bd9b 7971 bf9c 808d 6100
00000220: 707e 5699 a64a 409c 2e66 0281 f027 2281
00000230: 79b4 0081 6b3c cc8c 3ac3 7012 e222 0001
00000240: e874 b1a8 88ab f000 18ad a600 6cf9 4d01
00000250: 5c14 43a1 c70e 1c86 4884 ba00 8116 c500
00000260: 5688 4400 f6be ef9b 61f4 7c9e 39db b903
00000270: cda3 c903 0ae5 2800 0474 eea3 7d6d f6aa
00000280: fd3f 01a1 7e69 bd80 c2ee ba97 42d6 be91
00000290: ef65 38a2 9de3 1411 b75f f000 2f9e f2a7
000002a0: 5380 74b0 a0cc 8102 34ec 3200 fd3d 3800
000002b0: bcdc b39c fc24 5a80 442b 3310 67ed c203
000002c0: 2a19 11aa 2e1b 0100 fef7 0ea8 7d98 870a
000002d0: 7ef2 0001 ab9c b101 0399 1100 249f 8f80
000002e0: 30f7 ea80 54f4 3898 3a94 8208 a7f1 8b80
000002f0: e4f0 5580 5056 a180 e43d c600 54c0 c19a
00000300: 4715 4880 c862 be98 2704 5493 5ab4 699f
00000310: bc30 1b80 a373 58a3 6311 260a 20f8 b500
00000320: 7f43 1f04 0cdd 4e12 b639 6880 4495 c686
00000330: 6250 36b4 dc32 dd08 ab67 e709 ded0 5800
00000340: 94e4 2a80 3b2c afa8 93ea 0e09 52ef 1500
00000350: dfb7 5a00 115e 638c 10ec 4400 b4e6 b686
00000360: 06a6 2380 48e2 959c 13e9 1c00 6405 8186
00000370: 5e8a e4ac 6d7f c996 3234 61ab 7005 f301
00000380: db7b 4504 a798 2c80 f95b 2780 7b51 41ac
00000390: 7c8a 8500 c6ad 6b80 14f3 f100 e78e 0609
000003a0: ced5 5984 03ed b6a5 8a25 f381 4f99 aa86
000003b0: d0ce 9780 0251 9b80 b00d 3a81 eeee b800
000003c0: e48a c498 ef69 1e0a 4f3b b1a7 10a7 ef9c
000003d0: c264 2b10 7809 ff84 6361 1d01 b44c 3a02
000003e0: 3ab6 c3a9 37bd e580 c2ac 8698 2aa2 c9ac
000003f0: 3dc4 0302 0402 5e00 e762 7400 0a64 1501
0.059356604 1.1210135 -4.892354e-10 0.3805198 0.5562993 0.3369489 0.17151482 0.053935196
0.4139523 -0.37788337 -3.1911173e-31 -2.97806e-07 0.1463857 -0.68993074 1.0235643 0.10227888
0.09366035 0.021460831 6.820529e-11 -7.451607e-08 -0.094215535 -0.40804777 0.0029894714 0.01408364
-0.04166984 0.25281274 0.05634358 -0.007627437 -0.5755951 -0.4254157 0.6496842 0.20496468
-0.2332706 0.23688166 0.18762359 -0.45658278 0.56349534 -0.5073322 0.435161 0.19495757
0.66048217 0.16077165 -0.0007104651 0.09286626 0.7293194 -7.59244e-13 0.15180627 -0.35305527
-0.25715947 -3.5581773e-38 0.2307793 -0.097078666 -1.395129e-39 1.0180566e-38 0.9355757 3.7474885e-21
0.00039346504 -0.38152754 0.07604475 -0.33293438 -6.871181e-06 9.435464e-16 0.03653765 0.11419713
0.8244701 -0.44632503 0.4866444 -0.23457015 0.53980225 -0.27055866 -0.78315085 3.5218178e-38
0.031133734 -0.1817698 0.11288733 0.13949308 -0.24635132 0.0839263 0.27563465 -0.002365331
-9.448396e-05 0.010396443 -0.12827493 -2.3572522e-38 -0.3726954 -0.13458052 0.0043426524 -0.25148195
1.0663816e-15 0.10989989 0.082507715 -0.055648994 0.009447133 -0.2950224 -0.25107875 2.3187463e-16
-0.15467574 -0.3422711 -0.386443 0.036039043 -2.0116751e-20 -0.4130102 2.6624278e-38 -0.18219644
-0.43347883 0.3459444 -0.05554332 0.25778857 2.7585754e-38 -0.57403946 -0.06586961 -9.2838676e-10
-0.017378522 -0.065728374 0.39991042 0.3128953 0.008947314 -0.2069176 0.0051674703 -0.81952304
-0.035602234 -0.0039469376 0.11218811 0.17062306 -1.8262028e-36 0.03809383 -0.310576 -0.74145305
-1.7276061e-13 8.599386e-28 1.2223986e-38 -4.338309e-21 1.0450268e-36 -3.1359526e-22 -1.2668652e-21 8.958804e-39
-1.10890745e-23 -6.362395e-22 -2.395054e-38 -2.9783355e-38 -2.363937e-38 -3.146754e-31 7.597128e-28 2.3534914e-38
-1.9701648e-14 2.2102053e-38 1.5306787e-38 3.7831505e-38 -6.6095515e-19 -2.9351196e-35 1.7128856e-38 1.8099666e-38
6.293722e-39 -3.966264e-22 -1.3391305e-20 1.0923654e-36 1.1851325e-36 3.755584e-39 -2.5853146e-17 -4.377435e-13
-4.379159e-19 -1.7394752e-38 -1.2080239e-24 -3.010876e-28 -2.4990613e-18 1.174528e-28 2.2074855e-38 -6.7339996e-15
-8.894904e-10 1.9072295e-37 4.676509e-39 5.165025e-39 -1.1902285e-21 -8.278462e-39 3.5334856e-29 1.14568e-36
-1.2887318e-13 1.01586e-40 -7.936358e-15 1.3057387e-32 2.3683867e-38 6.524434e-38 1.616094e-39 -1.3189565e-38
-2.157818e-38 -2.3904797e-24 7.858938e-34 -1.2851822e-38 -7.892432e-39 -1.4816478e-38 1.820563e-38 -8.013365e-23
-6.619789e-39 -4.9213592e-24 -2.676021e-27 -4.9488852e-20 -2.497041e-39 -1.17338705e-17 7.995879e-33 1.6711235e-38
1.8721353e-36 6.52746e-28 -9.571594e-39 -7.469865e-35 -1.6979314e-07 1.3312911e-33 5.5708716e-33 8.156451e-39
-3.939089e-39 -1.9448085e-14 1.7202925e-33 2.014397e-39 8.331155e-39 -1.7515751e-31 6.329497e-39 -6.879978e-35
-3.2738e-39 -9.918485e-22 2.655005e-39 -4.853233e-35 -6.4955116e-12 -3.2553718e-25 -8.0008493e-13 8.9271905e-38
2.321411e-36 -4.095523e-39 -3.614578e-39 -2.747218e-12 1.22638e-38 -9.888736e-39 2.2219555e-38 1.6196856e-33
-2.5606402e-36 -3.1732573e-16 -8.931797e-38 -6.417216e-35 -1.394135e-38 -1.4263562e-38 -3.4172625e-38 1.6983443e-38
-5.0805056e-24 7.627347e-33 -4.919167e-15 -1.5858878e-21 3.3801425e-29 -5.9958908e-36 2.8906217e-38 1.3687135e-37
-8.691351e-14 -2.1098206e-38 -3.481263e-24 -5.7307674e-12 9.680678e-38 8.63326e-39 1.0688397e-38 2.7438752e-38

advantage.0.bias f4 [64]
00000000: 8da8 2a3e 6348 96b6 1610 0fa2 ea5c 663d
00000010: f6a3 0faa 1dd8 003e 2428 f8bd 7746 afbb
00000020: 8c0b 83bd fbe0 ef3d a0d2 8bbd 6ab6 83ac
00000030: 416e 0d3e 516e f3bd 885d b2b4 27d9 d4ba
00000040: 14bb 67b0 5975 013e 6b6b 953e 1aa5 11b3
00000050: 50ad fcbd 315b 033e 12a8 7ca4 f06b 3c3e
00000060: 761d 1abd 4648 b3bd 269e 7abc ac1c e0a9
00000070: 1791 3aae 479d 3abe 3545 a43c 923c ab8a
00000080: 7359 cebd 44ed 7ebe 4eea bc3d 029f 543e
00000090: 9996 d8bd 667f edad 4b38 04bb 391b 603c
000000a0: c5a4 afbb bc27 83b0 aea9 e5bd 82f2 08be
000000b0: 8922 3dbd 58d2 f73e d374 17bd d4c9 103c
000000c0: c217 c63c c637 feb1 0f17 cdbd fc21 69b4
000000d0: 7a66 7d3e 5a08 893e 64a2 9fb3 c76e 80bd
000000e0: 385f b63e 5f8c 283d 1999 3db3 27fa 1b3c
000000f0: 429b 793e 1fb1 5cbe 912d 633e 933d c1bd
0.1666586 -4.4787753e-06 -1.938863e-18 0.056240954 -1.2757837e-13 0.1258244 -0.12117031 -0.0053489762
-0.06398687 0.117128335 -0.06827283 -3.743496e-12 0.1381159 -0.118862756 -3.3223137e-07 -0.0016239033
-8.4303164e-10 0.12642421 0.29183516 -3.3910602e-08 -0.12337744 0.12827756 -5.478615e-17 0.1840055
-0.037625752 -0.087540194 -0.015296495 -9.952572e-14 -4.242037e-11 -0.18224059 0.020052532 -1.6489485e-32
-0.10075655 -0.24895197 0.092243776 0.20763782 -0.10575599 -2.7000357e-11 -0.0020175155 0.013678365
-0.005360218 -9.542798e-10 -0.112140045 -0.1337376 -0.046175513 0.48402667 -0.036976647 0.008837182
0.02418125 -7.3987136e-09 -0.10014164 -2.171218e-07 0.24746123 0.26764184 -7.433553e-08 -0.06271129
0.3561952 0.041149493 -4.4144233e-08 0.00952009 0.24375632 -0.21551941 0.22185351 -0.094355725

advantage.2.weight f4 [36, 64]
00000000: 120f ce3e cff0 bb37 392a 64b5 5c7a 8f3e
00000010: 0716 882c 10ef 8cbe 6c95 ce3e e4f7 d6bc
00000020: aa9b 3f3e 4d51 2c3f 8094 bc3e fa48 e1b8
00000030: eb24 3f3e e3cb b93c 875c 8439 b803 e5ba
00000040: b363 2eb7 caa9 d8bd a967 5a3d fba6 ce39
00000050: c9cd cb3d cfa6 46be a495 e821 01be 4bbe
00000060: 8519 9a3c 2075 503e 1328 95bd 2ca5 09af
00000070: c93b cbb3 21c5 7e3e 4ce0 f03d 0120 5dac
00000080: 256b 313c 2353 cb3e beef 2e3e 4f08 b5be
00000090: ed1c 983e f4fb 6ab6 5b9d 09ba 3a27 003e
000000a0: aa14 3abb 37b3 3834 d9d1 5d3e 7ede 693e
000000b0: 301d 333d d64f d3bf d3e8 61bc 449a c83e
000000c0: decb 93bd d524 e4b5 c142 d23e cfbb 4434
000000d0: 490c e2bd 98bb 54be 1520 4fba 6caa 31bd
000000e0: 1131 dc3d 8b86 f93d c9f6 93b4 7914 c93e
000000f0: 574b c8bf e979 873e 0890 e7bd 4d0d 933e
00000100: 8688 9c3d 3cea 70b6 7423 2595 c7b5 0b3e
00000110: dbaf dc2a 153e cebe 7c7f 6b3e 9441 08a4
00000120: 15ca 4c3e d313 d83e a517 243f 3ac1 df33
00000130: e52f 153e 2763 48be 1d57 3180 3fbd 6cbb
00000140: 1404 4c00 7c55 bbbe 3ba1 a13e 616c 24b8
00000150: d5ef c93e 6bdf bb3d 7ee6 a800 b76b a6be
00000160: d075 4c3d 8ee6 6b3e ba5a 0abe 9106 9bac
00000170: c23e 50a6 e15f dcbd 8e17 a2be 2088 b91e
00000180: bb73 edbd fa3a 11bf 84cd 9abf b0be b2bd
00000190: de57 c3be 0073 47a4 2971 863a 091d fdbe
000001a0: f119 3a85 0154 1c24 00f9 523d 8e9f 07be
000001b0: f074 873c 90ba 35bf 47ba b8bb 271a 52bd
000001c0: 76c7 413e dd68 c307 a952 c43f 4ea8 74b3
000001d0: f763 50be 8164 a8be 62c8 e3b4 9c1e 9bbe
000001e0: ef69 debd ffd6 503e 132a 32ae 2554 833f
000001f0: 0063 2cbf 4181 983c 1cab e43e ab98 e0bf
00000200: 5951 b1be dd92 7b32 aa93 9f29 aaa5 82bf
00000210: daa0 06ae fc0a 2cbd c057 573e 4891 99b2
00000220: 852b 893d 5629 813e 8408 083f 069a b7b5
00000230: dfc8 9f3e 2043 14be e23c 2180 a2c3 c737
00000240: 569e ca21 60cb ea3b 717e a73e e2d5 df33
00000250: 129e e43e 0b09 da3d d43a 03ab c752 2bbe
00000260: df44 233c 767b a23e e712 563e 8aea 7216
00000270: 5c5e 939f 499d 72bc 49bd 1fbe b328 2700
00000280: fca1 343d d0bf fd3d fe9c 2cbe 764e 8dbd
00000290: 2fd0 6bbf 2cb8 8e34 dc0c 8aba d4a5 aa3d
000002a0: e881 488c 78a6 d628 fe2d 803e 75d9 903e
000002b0: 62f4 40bd a772 b5be 276b 153b dc05 483e
000002c0: 446e 583e 6163 2923 5c05 26bc f419 8433
000002d0: e5d9 4ec0 e663 da3d 3312 152e d3e3 afbd
000002e0: a431 fd3d 597f a8be 8578 d6b4 012e 24be
000002f0: 59b1 1dbd dcd5 c63e f245 e73e b5de 2d3c
00000300: 377d 9ebe f34b eb31 3a73 7034 add6 dbbf
00000310: 19b2 c92d 99b4 e33e 0d32 103e 0f3e 3430
00000320: 6a81 003d 070c db3d 028b 113e be7c 65b2
00000330: fac0 e23e da76 9abe d369 0e9c 5b5f 28b9
00000340: 5f8e 0280 1297 713e 6b02 113f f2d4 0833
00000350: 6a2f 213f d9eb c13d 7bf2 331a 0d9e 0ebf
00000360: de53 82bc 6218 a43e 03cd 883e a803 8fa0
00000370: 9441 d5a9 28a2 2ebe b775 a8bd e870 2c84
00000380: 62e1 5d3e 8e60 293f 02cb 553d 9646 4ebe
00000390: fcf7 dcbf 72a0 8133 7e7e 6c3a bca3 f5bc
000003a0: 4dfe 2085 3d19 2e2f a68a b8be d2c4 38be
000003b0: 9f12 ccbc 22ce acbd 7ed6 43bc d7b7 adbe
000003c0: ee7c e53e 3e01 49af 4504 043e 20c1 bd31
000003d0: 51ec 5abe c4d1 9f3e ce0b 60b8 36b7 2d3d
000003e0: c9a4 73be f8c1 9ebf 824a 2934 57af dbbf
000003f0: 05f1 e63e 403c 963d 262c 563f bdbe ecbd
0.40245873 2.2404272e-05 -8.499806e-07 0.2802304 3.867798e-12 -0.2752614 0.40348375 -0.02624125
0.18711725 0.67311555 0.36832047 -0.00010742429 0.18666427 0.022680229 0.0002524594 -0.0017472422
-1.0394421e-05 -0.1057926 0.053321514 0.00039415792 0.0995136 -0.1939957 1.5760541e-18 -0.198967
0.018810997 0.2035718 -0.07283034 -1.2518758e-10 -9.463799e-08 0.24879886 0.11761531 -3.1423755e-12
0.010828768 0.39711866 0.17083642 -0.353579 0.2970957 -3.5015373e-06 -0.0005249583 0.12514964
-0.0028393664 1.7201533e-07 0.21662082 0.2283878 0.043729007 -1.6508739 -0.01378842 0.39180195
-0.07216619 -1.6998043e-06 0.41066554 1.8322247e-07 -0.110374995 -0.20774686 -0.0007901204 -0.043375418
0.10751546 0.12183865 -2.7560444e-07 0.39273432 -1.5647992 0.26460198 -0.11306769 0.28721085
0.07643227 -3.589913e-06 -3.3349452e-26 0.13643561 3.9201875e-13 -0.4028174 0.2299785 -2.9545846e-17
0.19998963 0.42202625 0.6409858 1.04193944e-07 0.14569052 -0.19569074 -4.53119e-39 -0.0036123542
6.98096e-39 -0.36588657 0.31568322 -3.9201583e-05 0.3944079 0.09173473 1.5511048e-38 -0.32504055
0.049917042 0.23037168 -0.13511172 -4.406094e-12 -7.224955e-16 -0.10760475 -0.31658596 1.9643937e-20
-0.115943395 -0.56730616 -1.2093968 -0.08727777 -0.38152975 -4.3248655e-17 0.0010257113 -0.49436215
-8.750443e-36 3.3898262e-17 0.051506996 -0.13244459 0.016535252 -0.70987797 -0.0056374404 -0.051294472
0.18923745 2.9401972e-34 1.5337726 -5.696375e-08 -0.20350634 -0.32889178 -4.2427843e-07 -0.3029679
-0.10860049 0.20394515 -4.0509884e-11 1.0260054 -0.6733856 0.01861632 0.44661796 -1.754659
-0.34632376 1.4643516e-08 7.086634e-14 -1.0206807 -3.0610937e-11 -0.042002663 0.21029568 -1.787761e-08
0.06697754 0.2522685 0.53137994 -1.3679389e-06 0.3120794 -0.14478731 -3.052412e-39 2.3813747e-05
1.3729964e-18 0.0071653575 0.32713655 1.0423152e-07 0.44651848 0.10646256 -4.662219e-13 -0.16730796
0.009965151 0.31734818 0.20905648 1.9622612e-25 -6.2413026e-20 -0.0148080075 -0.1559955 3.596184e-39
0.044099793 0.12390101 -0.16856763 -0.06899731 -0.9211454 2.6583564e-07 -0.0010532397 0.083324105
-1.5446532e-31 2.3830967e-14 0.2503509 0.28290907 -0.04710806 -0.35439035 0.0022799463 0.19533485
0.21135813 9.182553e-18 -0.010133114 6.15145e-08 -3.2320492 0.10663585 3.3894842e-11 -0.08588376
0.12362984 -0.3290966 -3.9948296e-07 -0.16033174 -0.03849921 0.38835037 0.45170552 0.0106121795
-0.30954906 6.8480346e-09 2.2393661e-07 -1.7174889 2.2930146e-11 0.44473723 0.14081593 6.557181e-10
0.03137342 0.106956534 0.14213184 -1.3357917e-08 0.44287854 -0.30168802 -4.7120633e-22 -0.00016057251
-2.34744e-40 0.23592785 0.56644315 3.185864e-08 0.62962973 0.094688125 3.7212207e-23 -0.55709916
-0.015909132 0.32049853 0.26718912 -2.4227562e-19 -9.470476e-14 -0.17054045 -0.08225577 -2.0270347e-36
0.21668008 0.66162956 0.052195556 -0.20144114 -1.7263179 6.0362154e-08 0.00090215344 -0.029985301
-7.5698715e-36 1.5834174e-10 -0.3604328 -0.18043831 -0.024911223 -0.08437754 -0.011952994 -0.3392932
0.44821876 -1.8281285e-10 0.12892254 5.5225797e-09 -0.2137921 0.31214726 -5.3416756e-05 0.04241105
-0.2379333 -1.2402945 1.5766457e-07 -1.7162884 0.45105758 0.073357105 0.83661115 -0.11559818

advantage.2.bias f4 [36]
00000000: f392 c5be 398c d53d b91a a0bd ef79 623d
00000010: e2c0 91bc 26c8 c2be b9e6 513e 55c3 7abc
00000020: 35f3 163e 0688 663c 93d6 8d3e 2277 f9bc
00000030: 004d 8bbc 4f8b 12be faef da3d 9899 ff3c
00000040: aa2a 173e 346b cfbd c28b 9dbc afd5 c6bd
00000050: 9663 1b3e 4dc0 053e 34c7 4e3e 0d89 7abd
00000060: 12e6 843e 59c2 703e aea2 553d 683e f6bd
00000070: 6c64 313e 3d92 803d 32f0 25bf 6cae ea3d
00000080: ea8d 913e 4f1f b9bd 58cb f0bd 6808 063f
-0.38588676 0.10427136 -0.07817597 0.055292066 -0.017792169 -0.38043326 0.2049817 -0.01530536
0.14741214 0.014070516 0.2770277 -0.030452315 -0.01700449 -0.14310955 0.10690303 0.031201169
0.14762369 -0.10127869 -0.01923168 -0.09708726 0.15174708 0.13061638 0.20193177 -0.061165858
0.2595678 0.23511638 0.052157097 -0.12023622 0.17323464 0.06277893 -0.64819634 0.114590496
0.28428584 -0.09039175 -0.11757535 0.52356577

value.0.weight f4 [64, 128]
00000000: 70a4 1900 06c1 2000 1a74 9a80 bc5a 0c01
00000010: b8f0 5e80 389b 9100 0c2c ae00 fa48 8380
00000020: 5ca3 7d01 3637 8f01 feba ed01 a04c 9980
00000030: d8d2 9080 9e86 e280 2606 4180 748d 6680
00000040: 70f7 d400 a438 2f01 9a17 d000 6ae8 b880
00000050: 90a9 8780 b046 3600 804e 3300 c4f3 5380
00000060: f4c2 1880 9040 3880 f445 3680 3835 4481
00000070: 9817 5a00 180b ee80 6481 f080 c82f 5b00
00000080: 284b 6500 80ab 1a81 f8b6 b080 908f ca00
00000090: 3294 4280 b02a fe80 722e 2f80 0c67 3a80
000000a0: 58e5 0d80 fceb a780 7457 eb80 4c63 df80
000000b0: a8e9 8d80 8672 9b01 06b1 2780 8cc6 dc80
000000c0: 0083 4680 a03f bf00 442a d700 e0a1 6100
000000d0: 63fd 8c01 546a 7d80 be4f 7500 fc1e f000
000000e0: ea02 1500 a8b4 8880 30a5 7200 9037 a080
000000f0: 4ecd a180 a06b 2180 b07d 6701 3622 1980
00000100: aa1d 1e00 bafb 3880 3c24 9500 f4b9 7b81
00000110: 40f9 ac00 4db7 9e81 e05f 5481 4205 b800
00000120: e479 f281 9a3e c701 4079 4a80 667e f800
00000130: 447a 9480 aec8 de81 c85e d581 f694 f980
00000140: 6cc3 dd81 54e5 da01 1ee9 c700 a415 5100
00000150: 0626 cf01 227f 4e80 7c7c bf00 b031 8180
00000160: a96f d881 2c91 5901 d8d4 e000 eac6 f081
00000170: 4e09 af00 3ade 7d01 7c70 3e80 8c95 1a80
00000180: 4c2f 9200 1477 2780 e07c a400 81d3 8181
00000190: 1ade be80 ac80 fb01 081d db00 740c 5180
000001a0: c83a 0502 56b0 3400 846a 8200 60c6 7f00
000001b0: 9016 6d00 7cb5 b880 49bd b081 606b 6b80
000001c0: 644c e400 3c89 ac80 84b6 3280 a692 3e80
000001d0: f236 1f00 7ef7 d000 58a4 2e00 0465 a300
000001e0: b249 0380 a892 e180 cc46 d700 c417 e500
000001f0: f8fe 4d80 b0e8 c600 0668 8c00 c0d7 a980
00000200: 9c46 f280 7c88 8980 5c83 a501 d87e 3980
00000210: da9e 6500 b412 7a80 a816 2280 b450 e880
00000220: 9804 2e00 08cb cc00 6c88 e501 10fd aa80
00000230: a018 0d80 aa79 6100 60c2 c680 44ba 0181
00000240: b8a3 c600 3e96 6680 a058 8580 6526 8d81
00000250: 3867 2680 e814 b400 6c2d 6580 00f5 5880
00000260: 9a3a b101 32ff 4d00 e0d9 8800 0715 0001
00000270: e52d 0281 dc00 6481 c017 9b00 fe03 0301
00000280: 9c29 0401 d827 3280 3cef 4c01 a2c7 9b00
00000290: 7aa4 0f80 aea4 a001 20dd 6700 5a00 1300
000002a0: 9255 0f00 787b 9500 c47d cd80 2c9d 4781
000002b0: 389f 4c80 0450 9c00 76e5 a800 a6af 0e00
000002c0: 7843 5000 e448 3f01 0248 9981 f0e4 0d00
000002d0: 18de 9a80 782a 5f00 e8e4 6e00 30e4 4700
000002e0: a82c 6780 fb2e b381 2f08 0002 32fa 0500
000002f0: 0c93 2200 18e6 3b80 788c 8400 78e1 5200
00000300: 2c1d f100 6c2b 6a80 0446 0780 12e7 1200
00000310: 0021 c780 f0f0 b980 bacb d080 7c20 1400
00000320: 61e8 0902 4677 c980 b416 5301 2204 2500
00000330: 04a8 6000 b8a6 1c80 e829 c500 f8d9 e100
00000340: 84bf 4700 1478 3481 2acd 2000 d3e3 e701
00000350: eae6 9480 7014 6f81 7a47 4300 b4e4 2b00
00000360: 8633 a480 6883 6500 a0db d800 48cf 7680
00000370: a0c1 7f01 c085 7980 d5dc b901 5c82 7401
00000380: 0c6f 9480 7bb4 bb81 64a7 3c80 e63b f900
00000390: 3ee3 cb00 5e9b f600 2861 8a00 b4ce 3e00
000003a0: c81f c880 dc77 2a00 600c 7980 623e 4f00
000003b0: 6e5d f201 466a 4e80 b42b 0b01 f873 0e00
000003c0: 7a39 bd81 9a43 2e00 54f5 7100 246b 8d80
000003d0: aab0 2700 00c8 ca01 6841 e100 4042 d680
000003e0: 52d6 0481 2ccc 1200 2cf6 b480 a8e2 2c80
000003f0: 24fa c501 e04c 3480 a0ca 8280 dc99 6880
2.354876e-39 3.00798e-39 -1.4184316e-38 2.5779038e-38 -8.71889e-39 1.3371829e-38 1.5995177e-38 -1.2056629e-38
4.6585966e-38 5.260913e-38 8.732837e-38 -1.4078319e-38 -1.3299948e-38 -2.0803114e-38 -5.971513e-39 -9.417964e-39
1.9557889e-38 3.218306e-38 1.911025e-38 -1.6981106e-38 -1.245862e-38 4.984475e-39 4.711771e-39 -7.709793e-39
-2.273988e-39 -5.165948e-39 -4.984211e-39 -3.6037697e-38 8.273658e-39 -2.1860828e-38 -2.2086936e-38 8.374171e-39
9.302346e-39 -2.8408378e-38 -1.6228684e-38 1.8602271e-38 -6.114305e-39 -2.334153e-38 -4.33293e-39 -5.363425e-39
-1.276134e-39 -1.5421183e-38 -2.1612714e-38 -2.0514937e-38 -1.3032625e-38 5.710234e-38 -3.645088e-39 -2.0275034e-38
-6.475479e-39 1.7563404e-38 1.9759794e-38 8.966113e-39 5.179147e-38 -1.151758e-38 1.0773359e-38 2.2051634e-38
1.929591e-39 -1.2554435e-38 1.0528505e-38 -1.4713611e-38 -1.4859164e-38 -3.06918e-39 4.2518176e-38 -2.30816e-39
2.765706e-39 -5.23309e-39 1.3696487e-38 -4.6234834e-38 1.588512e-38 -5.830306e-38 -3.9007037e-38 1.6899617e-38
-8.9071665e-38 7.3190884e-38 -6.839323e-39 2.2820546e-38 -1.3635514e-38 -8.183788e-38 -7.8379847e-38 -2.2920476e-38
-8.1462995e-38 8.040962e-38 1.835889e-38 7.446438e-39 7.609435e-38 -7.208775e-39 1.7585236e-38 -1.1864604e-38
-7.9506093e-38 3.996076e-38 2.0647505e-38 -8.8447504e-38 1.607455e-38 4.66282e-38 -5.734153e-39 -2.44137e-39
1.342495e-38 -3.624302e-39 1.5105818e-38 -4.769061e-38 -1.7528419e-38 9.2387473e-38 2.0122388e-38 -7.443143e-39
9.788166e-38 4.838703e-39 1.1976825e-38 1.1734272e-38 1.0018163e-38 -1.6962836e-38 -6.49238e-38 -9.864917e-39
2.0965897e-38 -1.5844936e-38 -4.657249e-39 -5.746408e-39 2.866611e-39 1.9190567e-38 4.283388e-39 1.5005423e-38
-3.01943e-40 -2.0715597e-38 1.9770029e-38 2.1038854e-38 -7.162799e-39 1.8266901e-38 1.2894286e-38 -1.5597595e-38
-2.224952e-38 -1.2630424e-38 6.079992e-38 -5.280126e-39 9.33237e-39 -1.121064e-38 -3.130534e-39 -2.1334786e-38
4.226081e-39 1.8807275e-38 8.431707e-38 -1.5702816e-38 -1.202695e-39 8.951688e-39 -1.8253157e-38 -2.3827197e-38
1.824216e-38 -9.421117e-39 -1.2245914e-38 -5.1850313e-38 -3.526777e-39 1.6537889e-38 -9.29168e-39 -8.169413e-39
6.510362e-38 7.16288e-39 1.2567786e-38 2.3524973e-38 -2.3910157e-38 -4.1877603e-38 1.4243022e-38 2.4063764e-38
2.4274424e-38 -4.606068e-39 3.7640525e-38 1.4306117e-38 -1.436536e-39 5.901102e-38 9.538381e-39 1.745e-39
1.408229e-39 1.3727781e-38 -1.8871393e-38 -3.6663293e-38 -7.036615e-39 1.4355042e-38 1.5510678e-38 1.348708e-39
7.371043e-39 3.5133456e-38 -5.630665e-38 1.275989e-39 -1.4222339e-38 8.739607e-39 1.018402e-38 6.602178e-39
-9.475076e-39 -6.582163e-38 9.406303e-38 5.4893e-40 3.175157e-39 -5.500836e-39 1.2172676e-38 7.611394e-39
2.214282e-38 -9.75014e-39 -6.67965e-40 1.735931e-39 -1.8287102e-38 -1.7075999e-38 -1.9174867e-38 1.848363e-39
1.013186e-37 -1.8501722e-38 3.8770868e-38 3.399396e-39 8.87648e-39 -2.631201e-39 1.8106626e-38 2.0741179e-38
6.589023e-39 -3.314693e-38 3.012335e-39 8.518291e-38 -1.367449e-38 -4.391203e-38 6.178619e-39 4.03097e-39
-1.5079504e-38 9.322525e-39 1.9915254e-38 -1.0910947e-38 4.6975022e-38 -1.1160075e-38 6.8275146e-38 4.490925e-38
-1.363149e-38 -6.895193e-38 -5.570178e-39 2.2888526e-38 1.8724125e-38 2.2647267e-38 1.2708152e-38 5.767952e-39
-1.83785e-38 3.900088e-39 -1.1116534e-38 7.277383e-39 8.9030825e-38 -7.201292e-39 2.5561623e-38 1.327299e-39
-6.951011e-38 4.248684e-39 1.0465418e-38 -1.298724e-38 3.64496e-39 7.4490067e-38 2.068645e-38 -1.9676562e-38
-2.4398338e-38 1.726282e-39 -1.6618699e-38 -4.122071e-39 7.2725305e-38 -4.803023e-39 -1.2011303e-38 -9.606086e-39

value.0.bias f4 [64]
00000000: 0027 4c01 c646 df00 dac2 0280 58c2 2f80
00000010: 06d3 b281 409e 7e00 4808 1780 980a 1400
00000020: 8a33 dc01 3cf1 1e00 d8ba 2181 803d 3500
00000030: 9483 9401 8000 1200 104f 8580 1696 e600
00000040: f2c5 3f00 625d ac00 a409 6981 6e9a 4700
00000050: b2e0 4b80 0cbe 0c00 4f50 ca81 6055 bf01
00000060: 6026 7100 eef5 b781 946b 3600 a021 4000
00000070: 5a4a 1700 b480 4c80 2a62 ff81 f6fd b180
00000080: 3068 0001 cc66 a480 3813 5280 f0f3 f001
00000090: e6e2 d681 1239 6580 98b0 2d00 16e1 bf01
000000a0: 980c 4f81 a47c 4c00 fc2b 9300 acb6 0980
000000b0: 94d7 6180 5c85 3300 de59 d200 8658 4380
000000c0: be2e 0a00 9c0f 5400 30c7 ec80 5c31 9b80
000000d0: dc62 c280 f2b3 5880 ca2b 2200 f090 1080
000000e0: 12d4 1080 2c06 1680 4846 c200 6052 5200
000000f0: fcac f680 7c65 0080 a075 fb80 6a9d 1e00
3.7496864e-38 2.0504704e-38 -2.5357e-40 -4.385986e-39 -6.5689677e-38 1.1628042e-38 -2.115187e-39 1.84051e-39
8.088919e-38 2.841603e-39 -2.9705084e-38 4.889343e-39 5.455542e-38 1.653218e-39 -1.2242483e-38 2.1176005e-38
5.856646e-39 1.5829205e-38 -4.2802258e-38 6.575719e-39 -6.968268e-39 1.170202e-39 -7.431832e-38 7.0284826e-38
1.0391177e-38 -6.7576475e-38 4.997709e-39 5.889534e-39 2.138889e-39 -7.025668e-39 -9.3813065e-38 -1.6345987e-38
2.3584638e-38 -1.5097898e-38 -7.537405e-39 8.851211e-38 -7.893677e-38 -9.295858e-39 4.195947e-39 7.04853e-38
-3.802893e-38 7.02421e-39 1.3515597e-38 -8.9205e-40 -8.985378e-39 4.73145e-39 1.9317692e-38 -6.184734e-39
9.35123e-40 7.719781e-39 -2.1744632e-38 -1.4252209e-38 -1.785155e-38 -8.146076e-39 3.138115e-39 -1.521362e-39
-1.545444e-39 -2.022595e-39 1.7841298e-38 7.560061e-39 -2.2653587e-38 -3.6406e-41 -2.3092905e-38 2.811534e-39

value.2.weight f4 [1, 64]
00000000: faa8 4780 6551 e481 0ce8 3101 628e 2400
00000010: f8ff 1200 d2ec af81 2e42 c481 9351 a080
00000020: 5747 0a80 d280 2880 cef9 9500 2491 3680
00000030: 98e2 9c00 b855 6d80 3012 2c00 be04 3900
00000040: 08f3 0401 44c6 3d00 d844 2f00 89c5 9600
00000050: c87e d100 4620 0580 c467 cc00 f8fb 3d00
00000060: cc1a e381 28b9 f200 ce62 6880 988d 5a80
00000070: 600b d900 f065 3780 0420 2b80 2c17 f780
00000080: 0547 9b00 6096 3f00 6b38 2700 58bb 0401
00000090: 8802 4500 37b6 2e80 914b 3580 1288 9b00
000000a0: 44ee 3400 f2ae b480 c4bc 2f00 a0f1 7580
000000b0: 1986 7080 7ed6 2d00 d8c8 8280 2cc9 7c00
000000c0: 61f8 9a01 afea 3b00 70b8 0101 12ce 6d80
000000d0: b27e 2e00 9838 c881 4f24 4480 32d9 7080
000000e0: 3094 2300 4cc2 e700 42ae af00 180b aa80
000000f0: f007 c780 c6aa ab80 081a 5300 40d0 d581
-6.580938e-39 -8.387077e-38 3.267625e-38 3.357155e-39 1.744863e-39 -6.462467e-38 -7.209399e-38 -1.4722943e-38
-9.43947e-40 -3.719632e-39 1.3773102e-38 -5.011183e-39 1.4407624e-38 -1.0040819e-38 4.047286e-39 5.236324e-39
2.4418937e-38 5.67309e-39 4.340965e-39 1.3846187e-38 1.9239099e-38 -4.70755e-40 1.8771665e-38 5.692355e-39
-8.342508e-38 2.2290612e-38 -9.586336e-39 -8.315989e-39 1.9932383e-38 -5.08752e-39 -3.960411e-39 -2.269168e-38
1.4259979e-38 5.83958e-39 3.601823e-39 2.4378984e-38 6.337557e-39 -4.289799e-39 -4.89439e-39 1.4283315e-38
4.86092e-39 -1.6593148e-38 4.383985e-39 -1.0831432e-38 -1.0333681e-38 4.209543e-39 -1.2010664e-38 1.1459768e-38
5.692707e-38 5.502483e-39 2.3825885e-38 -1.0083993e-38 4.269883e-39 -7.3549605e-38 -6.257839e-39 -1.036349e-38
3.267402e-39 2.12837e-38 1.6133724e-38 -1.5616014e-38 -1.8278111e-38 -1.5765132e-38 7.631684e-39 -7.8542667e-38
