pre-trained/ddqn_dnn6000.pth (torch_old, 650004 bytes, 44 tensors)

feature.0.weight f4 [128, 36]
000000 cc 9c 19 3a ee e9 69 bd 72 78 13 3d 91 3c e9 3d
       0.00058598514 -0.05710786 0.036003537 0.11388505
000010 73 d6 82 3d 8d c1 e1 3d 91 03 2c be 4e 16 0a 3e
       0.06388559 0.11023245 -0.16798235 0.13485071
000020 9e d1 39 bc 4f cf 78 3c db 11 de 3e b0 e0 db 3d
       -0.011341481 0.015186145 0.43372998 0.10736215
000030 db 33 1f be 63 c5 8b 3b 95 32 f8 3d ce 54 79 3e
       -0.15547125 0.0042654737 0.12119023 0.24348757
000040 b7 34 c1 3d ac 0f 68 3c 4c 74 83 3a 6e a4 70 bd
       0.09433883 0.014163893 0.0010029166 -0.058750562
000050 04 37 6b 3e 31 8d 8b bf c2 ae 2a 3e 91 b4 f5 bd
       0.22970206 -1.0902463 0.16668227 -0.11997331
000060 10 99 3d bd f7 a2 20 3e 32 fa fd bb 48 ef 5f be
       -0.04628855 0.15687166 -0.007750773 -0.21868622
000070 69 0b 4d be 0d 8a b0 be 2d 82 40 3d 18 fe 83 bc
       -0.20023884 -0.34480324 0.046999145 -0.016112372
000080 23 01 ca bd d1 e7 3b bd 77 fa be be 62 cd 59 bd
       -0.09863498 -0.045875374 -0.37300465 -0.053174384
000090 a0 85 be bc 00 e5 ab 3d 02 5e ee 3d 43 b0 19 3c
       -0.023257077 0.08393288 0.11639024 0.009380403
0000a0 87 e7 20 bd 42 24 86 3c ec 05 36 3d ed 65 0c 3c
       -0.0392833 0.016374711 0.04443924 0.008569223
0000b0 16 ca 03 3e 3d 24 0a 3c da fe 20 bd 51 32 d9 3a
       0.12870058 0.008431491 -0.039305545 0.0016570782
0000c0 d1 93 65 bb e6 59 6f bd b7 a0 44 3e bb e1 30 3d
       -0.0035030732 -0.058435343 0.19201933 0.043184023
0000d0 a8 b2 86 bc b3 ab 9d 3d a1 0e 80 3c 0c 23 61 3d
       -0.016442612 0.07698765 0.015631976 0.054965064
0000e0 a2 f2 3a bc cf 12 65 3e 34 c1 8d 3d 37 42 1b 3e
       -0.011410387 0.22370456 0.06921616 0.15161978
0000f0 1b a4 3e bf 8d 64 06 bf bd d6 9b 3d 60 df 82 3d
       -0.74469155 -0.5249718 0.076093175 0.06390262
000100 2c 33 33 3d b8 b4 c6 bd cc 11 b0 bf eb 35 7e be
       0.043749973 -0.09702438 -1.3755431 -0.24825256
000110 1d e1 7e 3e 19 33 ef 3c a9 a3 0a be 78 10 0d bd
       0.24890561 0.02919917 -0.13538994 -0.034439534
000120 1a 1c 2b 3e 18 41 53 be f2 de 34 be 64 71 4e bd
       0.16709939 -0.206303 -0.17663172 -0.050401106
000130 ca 1d 2b 3e bd 77 a8 3d 55 10 8a 3c f9 9f 54 bd
       0.16710582 0.08225963 0.01685349 -0.051910374
000140 40 4c cd 3d 56 56 34 be a5 a3 2d bd d6 09 ea 3d
       0.10024309 -0.1761106 -0.04239239 0.11427657
000150 d7 9c 85 be bb 3f 9c bf b6 c6 65 3d d6 91 81 be
       -0.26096222 -1.2206949 0.05609771 -0.25306576
000160 10 ab 2b 3d 55 ff 1d 3d e4 d4 e9 3e 0c 92 0e 3f
       0.041911185 0.03857358 0.45670235 0.556916
000170 23 ae 4d be cf 26 70 bd 75 8c ff 3c 7d 86 ca 3d
       -0.20085959 -0.05863076 0.031194905 0.09888933
000180 25 27 a4 3e 4d ad bb 3d 49 70 2d 3e cc c9 6e bc
       0.32061115 0.09163914 0.16937365 -0.014574479
000190 fb 2a 6a bd 19 15 99 bd 15 dd ad bd 50 53 7f 3d
       -0.057169896 -0.07474727 -0.08489434 0.062335312
0001a0 68 83 1a 3d 6f 35 52 3c a7 1d 46 be 64 fe 09 3e
       0.037722975 0.012830122 -0.19347249 0.13475949
0001b0 10 ed 54 3b ee fa f2 3d 45 0e 6b bd aa 1c 4f bd
       0.0032489933 0.11864267 -0.057386655 -0.050564446
0001c0 9b f4 a0 3d fb 60 26 be 18 48 a4 bd 05 3b 54 be
       0.07859155 -0.16247933 -0.08021563 -0.20725639
0001d0 23 2a d3 3d ae da cc bb 79 bb 6b bd 47 83 f1 3d
       0.10310771 -0.0062516546 -0.057551835 0.11792617
0001e0 93 83 e7 bc 8e 37 b5 3c eb 6d 2c bd 0b 72 ae 3d
       -0.028260982 0.022121217 -0.042097013 0.08517846
0001f0 10 92 a1 3d a8 87 1e 3e 62 2a c2 bc e2 84 00 3e
       0.07889187 0.15481436 -0.02370185 0.12550691
000200 4a 1c ad 3f 69 d5 89 be 6d 2b 5a be 67 db 5f 3e
       1.3524258 -0.26920632 -0.21305628 0.21861039
000210 8c 37 a3 bd 2a 3c fa 3d 59 73 a8 bd 86 60 34 bd
       -0.07969579 0.12218507 -0.08225126 -0.044037364
000220 de 68 a7 bc 99 3b d5 3c 5e 32 9e bb c7 d3 33 bd
       -0.020435747 0.026029395 -0.0048277816 -0.04390314
000230 12 9a 9d bb 45 69 05 be ab 10 04 be 7d 12 2a 3e
       -0.0048096264 -0.13028438 -0.12896983 0.16608615
000240 3d 64 44 be 07 d1 3f be 92 ab 57 be 47 ec cd bd
       -0.19178863 -0.18732081 -0.21061543 -0.10054832
000250 87 a2 82 be ad 1d d1 3d 47 5e ed bd 0a 70 b6 bd
       -0.25514624 0.10210738 -0.115902476 -0.089080885
000260 f1 51 cc be 2a 79 91 be 7d eb 54 3e 3d 05 3b be
       -0.39906266 -0.28412753 0.20792957 -0.18263717
000270 6f 5d 59 be 68 01 21 be b3 18 d5 be f9 50 0c bf
       -0.21227048 -0.15723193 -0.41620407 -0.54811054
000280 98 a6 88 3e 87 b4 8d bd c0 4d 09 be 34 4f 16 be
       0.266896 -0.069191985 -0.13408566 -0.14678651
000290 07 5b 86 be 76 31 e1 be 41 6d 75 be 3c 6e 36 3e
       -0.26241323 -0.43983048 -0.23967458 0.17815489
0002a0 9b a6 06 bd bf ee 04 3c ba 8a e0 bb 6d 1f 3c be
       -0.03287373 0.008113562 -0.006852475 -0.18371363
0002b0 56 39 63 bc 02 ac 86 3e f5 82 9c be 9a 59 26 bd
       -0.01386865 0.26303107 -0.30568662 -0.040612794
0002c0 61 57 29 3e 91 d8 9b 3e 9a 25 40 3f 18 85 05 be
       0.16537239 0.30438665 0.75057375 -0.13039052
0002d0 72 fb be 3d 00 8e e4 bc 70 53 50 bd e4 de 3c 3d
       0.09325303 -0.027899742 -0.050860822 0.046111003
0002e0 0f c4 18 3d 1a 80 c5 be fc 6a 8f bc 4c 83 f5 3c
       0.03729635 -0.38574296 -0.017507069 0.029969834
0002f0 44 ae 41 3e 07 6f 04 3e 0c 9d 00 bd e2 d3 2b bc
       0.18914133 0.12932979 -0.03139977 -0.0104875285
000300 20 42 61 3c cb fb b6 3e 3a 90 82 3e d8 ce 15 3e
       0.013748676 0.35738978 0.2550066 0.14629686
000310 1c a2 97 3d 17 f0 80 3d ea 6b 9d bd da 0d 80 bc
       0.07403967 0.062957935 -0.076865986 -0.015631605
000320 3f e0 05 3e de 20 b1 3b 26 84 22 bd 2b 80 02 3d
       0.13073824 0.0054055294 -0.039676808 0.03186051
000330 62 8d 8b be 38 3a 86 be dc 9a b4 bd 1b 0f f5 bc
       -0.27256304 -0.26216292 -0.088185996 -0.02991443
000340 db 0b ad 3c 26 45 bd 3d 4b 62 a7 3f 6b 45 3c bf
       0.021123817 0.09241705 1.3076872 -0.73543423
000350 a5 0a 1f 3d c0 f5 52 be c0 a9 9b 3c 98 b4 9c 3e
       0.03882851 -0.20601559 0.019001842 0.30606532
000360 a9 94 ad bd df a1 be bc 7d 54 84 bd 39 33 69 3d
       -0.0847562 -0.023270546 -0.06461427 0.056933615
000370 36 d8 98 3d d8 5c 12 be bc 3e 90 bc 63 49 b0 bb
       0.07463114 -0.1429323 -0.01760804 -0.005379842
000380 eb 9b 88 bc ac d6 15 3c 8d c1 08 bd 52 1c 14 3e
       -0.01667591 0.00914542 -0.03338771 0.14463928
000390 3c 17 51 3a b9 a3 34 3d cc ab d7 3d 32 c7 c2 3d
       0.00079761795 0.04410145 0.105308145 0.0951065
0003a0 a8 de 34 bf 66 2f 69 bf 0a 86 22 3c 3b 53 51 3c
       -0.70652246 -0.9108795 0.009919653 0.012776191
0003b0 e1 3a 3a 3e 33 d2 7d 3e fa 3e 84 3b 8a 31 34 3f
       0.18186523 0.24787216 0.0040358277 0.7038809
0003c0 72 7e 3f 3d d6 73 a4 3d f5 ca ab 3d 09 c4 87 be
       0.046751447 0.080299065 0.0838832 -0.2651675
0003d0 e4 61 23 be 06 ed ad be c9 ea 83 3c ae 09 8b bd
       -0.15955311 -0.33969897 0.016103165 -0.06788956
0003e0 fe 45 9e bd aa 21 02 be 31 f4 86 be b2 73 af be
       -0.07728194 -0.12708154 -0.26358178 -0.34267956
0003f0 25 53 40 be d2 38 5d bd a1 2d b9 3d 82 8e fb 3d
       -0.18781717 -0.054009266 0.09041906 0.122830406

feature.0.bias f4 [128]
000000 a7 65 b5 3c 98 9e bb b9 e7 58 ce bd 03 39 60 bd
       0.022143198 -0.0003578558 -0.100755505 -0.05474187
000010 15 54 1a be 5b 62 18 be 85 5a f4 bd 3b 8b 0b be
       -0.15071137 -0.1488127 -0.11931328 -0.13627331
000020 a1 c1 21 bd 63 c9 79 b5 e2 0e 18 be 46 cd f1 bd
       -0.0394913 -9.3052785e-07 -0.14849427 -0.11806731
000030 57 63 86 bd ab f1 69 bd 8c 3c 77 3b 6d 53 f9 bd
       -0.06561916 -0.05711524 0.0037725298 -0.12174115
000040 08 3a 0e bd cb 8e 03 be 0b dd ac bd 6c 29 a5 bd
       -0.03472331 -0.1284744 -0.08440598 -0.08064541
000050 ed 26 4a bd 4a 4c 1e be fe 0d 75 bd 01 c2 20 be
       -0.04935353 -0.1545879 -0.059827797 -0.15699007
000060 f7 58 c7 bd f1 8c 11 be 3b fd 44 be 1d 51 ce bc
       -0.097337656 -0.14213921 -0.19237225 -0.025185162
000070 cb 0e 0b be 40 f8 51 bd 6d 32 53 be 6a b3 e0 b9
       -0.13579862 -0.05126214 -0.20624705 -0.00042858283
000080 9a 19 0a be 40 19 d2 bc 27 df c8 bd c2 cd eb bd
       -0.13486329 -0.025646806 -0.09808188 -0.115138546
000090 0d f0 15 be ad e0 24 be 41 08 df bd 3f ee 8b bd
       -0.14642353 -0.16101332 -0.10890246 -0.06832551
0000a0 d3 93 83 bb 08 bb 45 bd 30 83 b9 bd c4 7e 04 be
       -0.0040154248 -0.04827407 -0.09058225 -0.12938982
0000b0 9e 24 22 3d ea 8e 9e bd 52 90 4d bd 26 1f 1e be
       0.039585702 -0.077421024 -0.050186463 -0.1544157
0000c0 b2 e2 0a be a2 f0 be 3c b8 33 14 bd 5d b6 d8 bd
       -0.1356304 0.023308102 -0.036182135 -0.10581658
0000d0 3f 7d 1b be 28 35 2b bd 85 ac e4 bd 32 74 a3 bc
       -0.15184496 -0.04179874 -0.11165718 -0.019952867
0000e0 2b 36 04 be 60 a8 18 bd 98 5e 44 bd 53 7b 58 bd
       -0.12911288 -0.03726995 -0.047941774 -0.052851986
0000f0 38 7a 48 be 57 49 43 be 2e 65 85 bc cd 9f 93 be
       -0.19577873 -0.19070946 -0.016283598 -0.28832856
000100 15 ac 9d bd ab b6 40 be d3 9b 71 bd 47 96 46 be
       -0.07698838 -0.18819682 -0.058986496 -0.19393264
000110 d2 23 86 bd d2 e8 55 bd 5e ba c5 3d 58 6d 02 be
       -0.06549801 -0.052223988 0.09654687 -0.12737024
000120 e5 fe 06 3d 65 fc ae 3e 8c bc 9b bc e1 f3 20 be
       0.03295793 0.34176937 -0.019010805 -0.15718032
000130 14 58 f9 bd ef 59 08 be b9 74 f3 ba 61 7a 57 be
       -0.12175003 -0.13315557 -0.0018574215 -0.21042778
000140 2e 71 2a 3d e6 49 50 be 9a 65 e3 3d 75 f9 42 be
       0.041611843 -0.2034069 0.11103363 -0.19040473
000150 7f 28 ae bd fa 92 7c 3d 9a 80 95 bb f6 6d f8 bd
       -0.08503818 0.061663605 -0.0045624496 -0.121303484
000160 62 9f f1 bd b7 d8 79 bd b3 04 81 3c fe 7f 2b be
       -0.11797978 -0.06099769 0.015749311 -0.16748044
000170 b3 1e 05 be a9 ae eb bc c6 cc 9d bc b0 5b 3a be
       -0.12999992 -0.028769808 -0.019262683 -0.18199039
000180 01 8d 3f be 27 b1 83 3e 60 84 2b be 68 a4 56 3b
       -0.18706132 0.25721094 -0.16749716 0.0032751802
000190 88 29 36 3d 4b aa 9d bd ef 25 45 3c d2 94 40 3d
       0.0444732 -0.076984964 0.01203297 0.047016926
0001a0 3a 72 33 bd 35 1d e4 bc 45 c9 4f be a2 f8 32 bd
       -0.043810107 -0.027845958 -0.20291622 -0.043694146
0001b0 31 e4 1d be 19 a7 83 3d e9 4b d7 bd 22 93 23 be
       -0.1541908 0.06428356 -0.105125256 -0.15974095
0001c0 ae 33 50 3c d6 37 b0 bd 16 19 22 bb 35 9c 7b bd
       0.012707634 -0.086044 -0.002473419 -0.061428268
0001d0 34 e9 d0 bd d7 d9 8d bc 38 73 31 be 95 c3 fa bd
       -0.1020073 -0.017315788 -0.17329109 -0.122443356
0001e0 f1 25 94 bd b5 69 fd 3c 24 f6 b3 bc 00 fe d5 bc
       -0.07233799 0.030934194 -0.021967955 -0.026122093
0001f0 c7 d4 78 3d 83 5e d6 bd fd 91 39 3c 2b 01 bc bd
       0.060749795 -0.104672454 0.01132631 -0.0917991

feature.2.weight f4 [128, 128]
000000 1f 56 bf bd 01 e5 ef 3d 33 05 34 3e bf f3 50 3e
       -0.09342598 0.11713601 0.17580108 0.20405482
000010 97 77 58 be e9 83 15 3e c1 14 4f be 6f ce 3d 3c
       -0.2113937 0.14601101 -0.2022276 0.011584862
000020 30 0d ca bd 95 7c 53 00 f7 93 d1 3d 8d a0 14 3e
       -0.098657966 7.667038e-39 0.102333 0.1451437
000030 8c 7d b3 3c f0 b8 bc bd 5f 65 9b 3e 74 17 a1 bd
       0.021910451 -0.092149615 0.30350778 -0.078658015
000040 a2 3e ea bd 51 aa 06 be 92 02 b3 3e 1f 44 bf 3e
       -0.114377275 -0.13150908 0.34962898 0.3735666
000050 18 55 bf 3d 6c e8 e6 3e 6c 9f 14 3d ac 7d 07 3f
       0.09342402 0.450992 0.03628485 0.52926135
000060 b5 95 ed 3d f3 71 26 be 5d 6d 2a 3c 86 b5 8c 3e
       0.1160082 -0.16254406 0.010402051 0.2748224
000070 a3 5d 86 be 76 32 89 3d de 41 6a 3e a0 0c 9b 80
       -0.26243314 0.06699078 0.22876689 -1.4239031e-38
000080 93 24 c7 3d 8e 4c bb 3d ad 98 71 3e d1 59 5f 3e
       0.09723773 0.09145461 0.23593397 0.21811606
000090 5b e0 4d be 39 f2 65 be 98 0e cc bb 0a be 52 3e
       -0.20105116 -0.22455682 -0.0062273256 0.20580307
0000a0 7c 5e 2d 3e d0 33 13 3e eb b9 ea 3d 63 11 49 3d
       0.16930574 0.14375234 0.11461242 0.049088847
0000b0 80 e8 97 be 79 51 d1 3d c9 67 55 3e aa 21 38 3e
       -0.2966957 0.10220618 0.20840372 0.17981592
0000c0 41 6b 21 3e 94 38 39 3e d0 6c 19 be 27 ae 35 bd
       0.1576357 0.18087989 -0.14982915 -0.044355538
0000d0 cd 2e 35 3d a3 54 c4 3e f0 84 5d 3d 7a 43 4e 3c
       0.044234086 0.38345823 0.054081857 0.01258933
0000e0 44 06 9a 3d 1c 26 ec bd 49 7f 25 bd ce 64 2b bd
       0.07520726 -0.11530706 -0.04040459 -0.04184418
0000f0 a6 49 7d 3e a0 22 45 be a4 69 06 80 3e 3e 50 3e
       0.24735126 -0.1925149 -5.8891e-40 0.20336244
000100 95 9d b4 3e a8 60 a4 bd 58 ee 08 3e 58 32 a1 3d
       0.35276476 -0.08026248 0.13372171 0.078709304
000110 c1 f3 98 3d f5 ee 4a 3e 57 46 90 be 14 47 34 bd
       0.07468367 0.19817717 -0.28178665 -0.044013098
000120 75 22 94 3d 50 a6 9b be 34 f6 72 3e 2e b3 c7 bd
       0.07233135 -0.30400324 0.23726732 -0.09750973
000130 3e f7 19 3e cd 3e 80 3e c4 39 41 3e 8e 52 8a 3e
       0.15035722 0.25047913 0.18869692 0.2701611
000140 d8 24 5a bd 8c 65 ab 3e 66 61 c7 3e e6 9f 0c 3e
       -0.053257793 0.33475912 0.38941497 0.13732871
000150 2e 71 1e bd 8f f7 58 3e 68 bd a3 3d 01 f8 37 3d
       -0.038682155 0.21188186 0.07995111 0.04491425
000160 ba a9 6e bc d2 24 54 3e 9b ea 9e be 3f ba 0c be
       -0.014566833 0.20717171 -0.31038365 -0.13742922
000170 4a 0f 0a 33 c1 d3 a4 3c 5d 02 b4 3c 4f 97 a5 3e
       3.2144534e-08 0.020120503 0.021973783 0.32342002
000180 26 39 6f 3e 44 a7 12 be 08 76 08 bd e7 f4 9a be
       0.23361644 -0.1432162 -0.03331569 -0.3026497
000190 0c c1 c1 bd d2 9c 4f bd dd 7e 15 3d 2c ab e3 bd
       -0.09460649 -0.050686665 0.03649794 -0.11116633
0001a0 96 a2 99 3e 7d 5a da bc c5 19 3e bc 60 ec eb 3d
       0.30006856 -0.026654476 -0.011602824 0.11519694
0001b0 34 15 8d 3e 6a af 37 3d 72 cb 92 bd 49 c1 69 be
       0.2755524 0.044845022 -0.0716771 -0.22827639
0001c0 ba 2d 0e 3e 90 66 a7 3d 4e 35 94 bc 42 1f 08 be
       0.13884631 0.08173859 -0.018091824 -0.13293174
0001d0 34 ce 14 3e 1c 05 5f 3d bc 2c b3 3c f5 e7 2e 3e
       0.14531785 0.054448232 0.021871917 0.17080672
0001e0 f3 52 14 be bc fe 0c be ac e5 e3 3d 30 54 2b 3e
       -0.14484768 -0.13769048 0.11127791 0.16731334
0001f0 d1 0e ee 3d f1 2b da 3d b4 4f fe 3c ca 27 96 3d
       0.1162392 0.106529124 0.031043865 0.07331808
000200 5c 7b 78 ba ce 4a c6 3d 96 b9 55 3d 0b 46 9a 3d
       -0.0009478831 0.096822366 0.05217894 0.07532891
000210 7e 09 ea bc 2f 79 78 3e f5 52 0e bf ae 7d 6b 3e
       -0.02856898 0.24264978 -0.5559533 0.22997162
000220 af b0 07 3e ac c2 66 80 88 ad a7 3e df ab 24 3e
       0.13250993 -9.437056e-39 0.3274958 0.16081189
000230 3d 75 83 be be 4f 00 be 61 b6 13 3e 26 b6 ed 3d
       -0.25675383 -0.12530419 0.14425041 0.11607008
000240 ea 01 5a 3d 8b 9b 2b 3e 8b 75 37 be c0 24 a8 3d
       0.05322448 0.16758554 -0.17915933 0.082101345
000250 d4 65 23 bd 1f e7 64 be 9d 5f 2a be 24 64 be bd
       -0.039892033 -0.2235379 -0.16638036 -0.09296444
000260 f6 aa 25 3f 26 d5 33 3b 05 a9 36 3e b9 3b c8 3d
       0.6471399 0.0027440279 0.17837913 0.09777016
000270 9f 0b cc be d3 fe 64 bc 6e 20 a1 3e 69 6d 93 00
       -0.39852616 -0.01397677 0.31470054 1.3539067e-38
000280 21 52 e2 3e a5 ab 51 3e 13 1e 16 bb ae dd 0e be
       0.44203284 0.20475633 -0.002290611 -0.13951752
000290 68 88 9b 3c f1 05 13 bf 3c 56 83 3d 24 ca 96 3d
       0.018985942 -0.5743094 0.06412932 0.07362774
0002a0 98 3c f7 bd 27 a9 69 bd ef 8a 83 3e 9e 37 1d 3d
       -0.12072104 -0.057046082 0.25691935 0.03838312
0002b0 5b 63 3f be 43 2c 9d 3d 03 e8 04 3c 91 bd 85 3e
       -0.18690245 0.07674458 0.0081119565 0.2612119
0002c0 2f 1d 70 3d e3 b1 80 bc fe 9a 58 be fe 49 05 be
       0.05862158 -0.015709823 -0.21152875 -0.13016507
0002d0 ec 87 40 bd b9 2f d7 bd 1e ed c8 3d 1d b4 87 bd
       -0.047004625 -0.10507149 0.098108515 -0.06626151
0002e0 7a 9f 19 bd b9 d5 08 3f 4e 1d 07 be 9b 56 ae 3d
       -0.037505604 0.53451115 -0.13194773 0.085126124
0002f0 18 80 1c be 18 87 db bd a3 e8 bc 80 23 08 a2 be
       -0.15283239 -0.107191265 -1.7348528e-38 -0.31646833
000300 fe 1c 74 3e a0 a0 ad 3d 59 c0 bf bd 7a c4 d7 3c
       0.23839185 0.084779024 -0.09362859 0.026338805
000310 6d b2 ed be e7 0d bb bd 60 68 38 3e e3 9f 33 3e
       -0.4642519 -0.09133511 0.18008566 0.1754146
000320 b4 aa 18 3e 1a 63 be bd 1c e8 7a 3d e1 eb d1 bd
       0.14908868 -0.09296246 0.061256513 -0.102500685
000330 ab c6 bf 3d e9 d4 38 3d 82 91 63 be 77 09 da 3e
       0.09364065 0.045124922 -0.22223476 0.42585346
000340 23 42 8d 3d e6 81 8a 3d 70 9b a7 3c 89 af a8 bc
       0.0689738 0.067630574 0.02045986 -0.020591514
000350 00 96 39 3e a8 cf f9 3d 4d d0 08 3e 3a cf e4 bc
       0.18123627 0.121978104 0.1336071 -0.027930845
000360 92 38 85 3d a9 e5 11 3e b3 cf cf 3e 07 a8 82 3e
       0.065049306 0.14247765 0.4058815 0.2551882
000370 4f aa f8 30 e1 bf a2 3e b6 d6 24 bd 1a d6 b4 bd
       1.809278e-09 0.31787017 -0.040243827 -0.08829899
000380 c3 3a 53 bc 62 fa 6f bd ed b4 a6 bc af 59 ce 3d
       -0.012892428 -0.058588393 -0.020349944 0.100756995
000390 ad 8c 9a 3c 45 ee 06 3e 78 cd e2 be 2f 40 99 3d
       0.018865908 0.1317683 -0.44297385 0.07482945
0003a0 79 0e 2e 3e 6f 31 de bd 5a e3 44 3e c8 dc 93 bc
       0.16997708 -0.108492725 0.19227353 -0.018049613
0003b0 72 74 34 3e 9f 71 91 bd 02 6c 77 3c 59 4d b6 3c
       0.17622545 -0.0710175 0.015101435 0.02225368
0003c0 be cb 14 3e 26 c2 de bd 87 40 93 3e dd c2 75 be
       0.14530846 -0.108768746 0.28760168 -0.24000116
0003d0 c2 a6 c1 3d e4 36 15 3e 20 6b 54 3f bd 40 8b 3d
       0.09455635 0.1457172 0.8297596 0.06799457
0003e0 80 7a 93 3e 44 cf 4a 3d d4 09 5f 3e ef 86 cb 3c
       0.28804398 0.04951407 0.21781093 0.024844615
0003f0 af df 3d 3e d3 7d d1 3d 51 9e 13 bf 64 5c ac 3d
       0.1854236 0.10229077 -0.57663447 0.084160596

feature.2.bias f4 [128]
000000 b8 74 7a bd 03 39 93 be 6d 7a bf b2 49 95 6e bd
       -0.061146468 -0.28754434 -2.2291e-08 -0.05824784
000010 90 e5 1d bd bf b2 a3 bd 5e 6e aa 3d f3 10 21 be
       -0.038549006 -0.079930775 0.08321832 -0.15729122
000020 77 95 82 3e 41 1e 48 3e 51 71 be b6 3c c3 b2 8f
       0.25504658 0.19542791 -5.675633e-06 -1.7627357e-29
000030 b6 aa 18 be cc 99 a0 bd 6f c3 00 be 6e 0c 6c be
       -0.14908871 -0.078418344 -0.12574552 -0.23051617
000040 69 fa 39 3f 92 25 3a bb 73 b5 94 b8 25 23 0e b5
       0.7264772 -0.0028403741 -7.0909875e-05 -5.2950264e-07
000050 f8 fa a8 be 51 cf 31 bd ea 98 60 ba f4 73 24 be
       -0.33003974 -0.043410603 -0.0008567708 -0.16059858
000060 a4 c2 c5 be fb 78 e3 3e e8 ea e9 bd 40 bb 34 bd
       -0.38625062 0.44428238 -0.11421758 -0.044123888
000070 08 d3 1b 3d e2 25 97 3d 37 3c d8 bd d9 bd ea 3e
       0.038043052 0.073802724 -0.1055836 0.45847967
000080 39 12 3a be 7f 8d 8a be 57 bb dc bd 67 63 26 be
       -0.18171014 -0.27061078 -0.1077792 -0.16248856
000090 4f 10 7c be c7 8b 06 3d 7c bc 1a be 49 2d 94 bd
       -0.24615596 0.032848146 -0.15110964 -0.072352
0000a0 cf bc 00 be f5 02 33 be 56 e7 09 b8 b9 7d 45 be
       -0.12572025 -0.17481597 -3.2878794e-05 -0.1928624
0000b0 bf 4f ee 3c 5c a8 f1 b6 29 d1 d6 bd 2b af 9f bc
       0.02909076 -7.2019593e-06 -0.10489113 -0.019492706
0000c0 23 87 08 3f 44 f1 d8 b0 6d a0 3c 3d f8 34 77 bd
       0.533312 -1.578464e-09 0.04605143 -0.06035325
0000d0 16 8c 54 ac 1c d2 4e a7 01 be 7b be 6a 98 9e aa
       -3.0204775e-12 -2.8702143e-15 -0.245842 -2.8172197e-13
0000e0 9d c8 92 ba 3a b5 b4 3d 0c 7d 6b 3d f6 05 2e 3b
       -0.0011198703 0.08823629 0.0574923 0.0026553846
0000f0 14 d7 5d b3 16 ce 39 94 7e 6d a2 3d 88 cd ce bd
       -5.1651185e-08 -9.3807564e-27 0.0793104 -0.10097796
000100 e2 c6 30 bd 5c c5 cd bd ee 95 2e be 77 59 1c be
       -0.04315842 -0.10047409 -0.17049381 -0.15268503
000110 70 c5 74 3e 08 ff 2d 3f 67 9f c8 3d 95 93 3b af
       0.23903441 0.6796727 0.097960286 -1.7059983e-10
000120 78 a0 62 be b4 b7 ab bc 8a 4f 47 be a4 ce 21 3e
       -0.22131526 -0.02096162 -0.19463935 0.15801483
000130 34 79 2d be ea af 65 be 1a 8a 65 3d dc bb 32 bb
       -0.16940767 -0.22430387 0.056039907 -0.0027272617
000140 17 9c 41 ba e4 df 15 be c7 61 39 be 67 6f 3f bc
       -0.0007385625 -0.14636189 -0.18103705 -0.011684275
000150 7f 9d 21 be 16 14 13 be e5 f5 45 bb 35 2d b6 3d
       -0.15782736 -0.14363131 -0.003020638 0.08895341
000160 4b 96 32 b3 18 15 65 bd 80 74 36 3e 9f f0 a3 be
       -4.1580545e-08 -0.05592832 0.17817879 -0.32019517
000170 67 0f a2 3d 99 c0 0b be 51 2d 73 bd 2f d0 95 b6
       0.07913094 -0.13647689 -0.05936939 -4.464782e-06
000180 f5 9f 0e bd 34 7b 26 be 22 94 44 bd 25 4a c1 3d
       -0.034820516 -0.16257936 -0.047992833 0.0943797
000190 4e 1a a3 9d 79 a8 e1 3c 0e e9 5c a1 e4 0f f6 bd
       -4.317294e-21 0.027546154 -7.4847345e-19 -0.1201475
0001a0 4a c6 c5 3c 01 94 8e bd d3 2b 97 bb 12 33 54 be
       0.024142403 -0.06961823 -0.0046133786 -0.20722607
0001b0 ff 32 a3 bc 28 d2 de bc f0 6a 7c 3e 78 ee 82 b9
       -0.019921778 -0.02719982 0.24650168 -0.00024973205
0001c0 91 4a ae bd 63 5d 30 be f0 52 d0 3d 0d a2 0a be
       -0.08510316 -0.17223124 0.10172069 -0.1353838
0001d0 8f 44 4b 3e 04 68 1a bd 30 5f aa bc 17 1c 88 be
       0.19850372 -0.037696853 -0.020797342 -0.2658393
0001e0 74 c4 87 3e 15 e1 bf bd 02 84 73 bd 0b 84 de 3e
       0.2651707 -0.09369103 -0.059452064 0.43460116
0001f0 76 81 a0 b4 72 dc 26 bd 66 6a 85 be 0d e6 c5 3d
       -2.9896518e-07 -0.040737577 -0.26057738 0.09663019

advantage.0.weight f4 [64, 128]
000000 70 97 64 3d ae b5 43 3f 8c 19 5c 00 e3 31 11 be
       0.055808485 0.76449096 8.45803e-39 -0.14179187
000010 db 81 bd 3e 63 4e 0e 3f 61 89 73 3e e1 21 95 3e
       0.37013134 0.5558836 0.23782875 0.2912741
000020 d9 e0 e0 3e b3 2e 82 be 34 4b e5 0b 9c a1 51 00
       0.43921545 -0.25426254 8.8320745e-32 7.49665e-39
000030 10 bd e3 bd ed e6 e2 be 8c 6a 8d 3e 1b ec fb bc
       -0.11120045 -0.44316807 0.2762035 -0.030752232
000040 32 7b 54 3e 93 7a a2 30 ad ec be 87 25 f0 04 00
       0.2075012 1.1821889e-09 -2.8727128e-34 4.5349e-40
000050 cf 95 97 be 7c 57 c9 be 6e 92 23 aa 98 77 82 3e
       -0.29606482 -0.39324558 -1.4528111e-13 0.25481868
000060 d6 24 02 3e 5d 07 66 3e 05 ef 11 be 31 20 76 3d
       0.12709364 0.22463746 -0.14251335 0.060089294
000070 e6 ab 1a bf 1a 1d e0 be 79 0d 3c 3f 5a e9 6c 3e
       -0.60418546 -0.43772203 0.7345806 0.23135892
000080 a3 3a d0 3d c6 d4 b6 3c 6c e7 d2 3e 84 a7 4f bf
       0.10167434 0.022318255 0.41192186 -0.81114984
000090 8a a7 b9 3e 94 0d b0 be a2 1d 0f 3f b9 b4 10 3f
       0.36260635 -0.3438536 0.5590459 0.5652576
0000a0 b9 6b b4 3e cc bb d2 3c df 06 4c 95 1e 27 2d 3e
       0.35238436 0.025724314 -4.1202892e-26 0.16909453
0000b0 77 70 85 3e 32 d6 8f 1b 1b 8a 08 3e 6a b5 10 be
       0.26062366 2.3795786e-22 0.13333933 -0.14131704
0000c0 5b 47 4b be 2b 11 8e 00 c6 21 9e 3e 4d 4f 0d be
       -0.19851439 1.3046799e-38 0.30885142 -0.13799782
0000d0 6c 2a 5e 80 e8 12 2a 80 38 ff 5b 3f e7 db 4d 01
       -8.647755e-39 -3.863873e-39 0.8593631 3.7810326e-38
0000e0 9f a1 dd 26 f2 db f5 bd 11 08 fb 3c 7d 96 fa be
       1.5378763e-15 -0.12004842 0.030643495 -0.48942938
0000f0 fd dc 03 00 d1 17 27 00 43 b3 85 be c5 16 7d 3e
       3.54782e-40 3.590128e-39 -0.26113328 0.24715717
000100 f8 89 4d 3f 56 57 89 be d1 0f b6 3e aa 49 64 be
       0.8028865 -0.26824445 0.35558942 -0.22293726
000110 5d 6a 42 3e 84 2b e7 bd bb 9a 07 bf c8 b7 8d 00
       0.18985887 -0.11287597 -0.52970475 1.3014733e-38
000120 02 7a 57 3d ef 41 18 be 17 09 94 3e 07 f4 5d be
       0.05260659 -0.14868902 0.28913185 -0.2167512
000130 9e 0a 2a be d0 9d 64 3e c6 6f d6 3e 8b 75 2a 37
       -0.16605613 0.22325826 0.4188215 1.0160157e-05
000140 97 e7 6a ad 0d 10 10 3d 28 e9 a2 be 89 44 eb b6
       -1.3352783e-11 0.035171557 -0.3181851 -7.0115243e-06
000150 87 49 86 be 9f 5a d2 bd 83 b1 93 36 87 f0 00 bf
       -0.26227972 -0.10271191 4.4016065e-06 -0.50367016
000160 f0 a5 cf 16 a8 f9 da bd e1 42 1e 3d f3 15 f9 3e
       3.3547375e-25 -0.106921494 0.038638 0.48649558
000170 e4 b8 57 bd eb 2b bf be 09 b7 5d 3e 5d 6b 8f 9c
       -0.05266656 -0.37338194 0.21651854 -9.490699e-22
000180 12 28 f9 3d 11 92 9f be 42 22 fd be 6a 73 78 3e
       0.12165846 -0.31166127 -0.494402 0.24262777
000190 33 0c 5b 80 a7 ce e6 be 7b 6a 57 00 48 fa f4 bd
       -8.361406e-39 -0.45079538 8.027886e-39 -0.119618
0001a0 13 e1 64 be bd cd 09 3e d4 89 05 30 d0 ff c7 3e
       -0.22351484 0.13457389 4.8580984e-10 0.39062357
0001b0 6d bf 22 b9 bc 72 b5 be 5f 96 a7 bd b4 49 d2 98
       -0.00015520836 -0.35439098 -0.08182978 -5.435815e-24
0001c0 0c 08 93 be ae 89 94 be 13 03 76 3e 8b 6e 7b 3e
       -0.28717077 -0.2901129 0.2402461 0.24553888
0001d0 4c ec 62 bd ee 1a b0 be 2e 49 12 3e 6a a2 58 bf
       -0.05540113 -0.34395546 0.14285728 -0.84622824
0001e0 d5 46 44 3e a4 8e f1 3c 47 df 21 bd c0 40 94 3e
       0.19167645 0.029486962 -0.039519574 0.2895565
0001f0 39 db 1b 19 61 b1 8b bb a4 1b 08 3e 5c cd 14 bf
       8.057584e-24 -0.0042630886 0.13291794 -0.58125854
000200 5a e4 15 bc be 99 52 2e 80 1b 85 00 e5 63 15 ba
       -0.009148682 4.7885022e-11 1.2223986e-38 -0.00056987844
000210 f2 08 bd b9 02 a4 12 b8 8f f5 a5 ba 43 ba e8 b6
       -0.00036055554 -3.4961857e-05 -0.0012661683 -6.9358225e-06
000220 35 b1 1e ba 40 20 04 ba 2e 66 02 81 0c 69 21 81
       -0.00060536276 -0.0005040206 -2.395054e-38 -2.9646397e-38
000230 f6 88 3f b2 0d e4 02 bc aa 96 80 b8 37 33 ee b4
       -1.11488045e-08 -0.007988942 -6.131579e-05 -4.4368218e-07
000240 1b ea 04 ba 88 ab f0 00 18 ad a6 00 fc 9d 00 00
       -0.0005070285 2.2102053e-38 1.5306787e-38 5.6674e-41
000250 87 7c 47 bc a9 5d 9c 32 48 84 ba 00 3a 71 e2 b9
       -0.012175686 1.8203382e-08 1.7128856e-38 -0.0004319044
000260 47 54 a8 b4 81 ae 55 b9 d5 47 95 ba 3d 8e 6e b8
       -3.1353758e-07 -0.0002037827 -0.0011389205 -5.687609e-05
000270 6c 76 8d b6 b1 7e dd bb d0 d2 f9 bb d8 24 a6 b8
       -4.2159136e-06 -0.0067594876 -0.0076240078 -7.9223595e-05
000280 b1 8a 98 bb 9a 3c 77 2d ca 14 c2 bb 08 aa b1 32
       -0.004655205 1.4053781e-11 -0.0059228884 2.0682833e-08
000290 16 a4 41 b7 47 ce a0 bb 31 61 f0 ba 29 fa 09 ba
       -1.1541901e-05 -0.0049074027 -0.0018339512 -0.0005263412
0002a0 96 4d 71 bc 0e 86 2f b5 34 ec 32 00 e5 e7 f2 bb
       -0.014727971 -6.5387655e-07 4.676509e-39 -0.007412898
0002b0 8e be 52 b9 fc 24 5a 80 1b 5a ea bb 61 73 07 bc
       -0.00020098148 -8.278462e-39 -0.0071518547 -0.008267255
0002c0 fb 9c 9c b9 2e 1b 01 00 a8 7f 7f bb a2 62 9c bc
       -0.00029871598 1.01586e-40 -0.0038986 -0.01909
0002d0 7e f2 00 01 c7 2d a3 01 39 c9 0d 36 24 9f 8f 80
       2.3683867e-38 5.994243e-38 2.1127764e-06 -1.3189565e-38
0002e0 30 f7 ea 80 7d 64 04 bd 41 fb 59 b6 91 11 ce b8
       -2.157818e-38 -0.032322396 -3.2481769e-06 -9.8261175e-05
0002f0 e4 f0 55 80 50 56 a1 80 a7 fa 9d b5 75 e7 1a ba
       -7.892432e-39 -1.4816478e-38 -1.1770361e-06 -0.00059091236
000300 4c 2f c2 b8 f6 38 95 bb 38 b1 8c ba b3 7d 2e b1
       -9.2594506e-05 -0.0045539094 -0.0010733968 -2.5391784e-09
000310 3d 48 5c bc b6 ca 8b b9 8b 05 8c b9 20 f8 b5 00
       -0.013444957 -0.00026663177 -0.0002670701 1.6711235e-38
000320 06 9d 35 b0 af 45 32 b7 eb 6a 1e ba 91 71 03 b9
       -6.607056e-10 -1.0625851e-05 -0.00060431537 -0.0001253544
000330 6b b0 32 bb da dd f8 b8 e4 5c 9c b6 de d0 58 00
       -0.0027265798 -0.000118668846 -4.659976e-06 8.156451e-39
000340 94 e4 2a 80 cc 72 57 b9 7b 46 f0 bb 52 ef 15 00
       -3.939089e-39 -0.00020546763 -0.0073326207 2.014397e-39
000350 07 86 e5 b2 c7 3d 03 b7 10 ec 44 00 cd ce de b7
       -2.6720057e-08 -7.822592e-06 6.329497e-39 -2.6560761e-05
000360 06 a6 23 80 ac 94 13 2f ce dd b4 36 cc d8 7d af
       -3.2738e-39 1.3422391e-10 5.3902395e-06 -2.3087238e-10
000370 72 29 d3 ba e8 94 66 b9 2b 78 69 bc 16 e8 84 81
       -0.0016110374 -0.00021989981 -0.014249842 -4.882217e-38
000380 b0 f0 1a bc a4 4e d9 b3 a3 61 73 38 28 7c 94 bc
       -0.009456798 -1.01191546e-07 5.8026646e-05 -0.018125609
000390 7c 8a 85 00 8b ec 02 ba 14 f3 f1 00 aa 08 06 bb
       1.22638e-38 -0.0004994354 2.2219555e-38 -0.0020451942
0003a0 af f0 84 b5 63 8f cd bc 40 4c e6 81 f1 be 2f b0
       -9.904815e-07 -0.025092786 -8.459807e-38 -6.3935973e-10
0003b0 34 d5 99 00 1f 5a de bb 1d d2 2c b9 ee ee b8 00
       1.4127314e-38 -0.0067856456 -0.00016481472 1.6983443e-38
0003c0 1d 62 a7 b9 dd 0b 6e 2e 59 6a 8b bc 87 7b b5 ba
       -0.00031925822 5.412547e-11 -0.017018484 -0.0013846018
0003d0 01 77 38 34 30 37 45 bb ea 2d 4b b3 14 40 ed 2c
       1.7179629e-07 -0.0030092709 -4.730638e-08 6.7430592e-12
0003e0 ce ec 92 b6 06 b4 40 b6 be f4 46 ba b4 13 4e 38
       -4.3787068e-06 -2.8715017e-06 -0.000758957 4.9132577e-05
0003f0 16 c4 5f 81 04 02 5e 00 11 7d 21 2e 39 64 2a b8
       -4.1099316e-38 8.63326e-39 3.6718243e-11 -4.0624498e-05

advantage.0.bias f4 [64]
000000 f9 b9 83 3e 86 22 61 bd 3e fe d2 8f 21 b3 bb bd
       0.25727823 -0.054964565 -2.080553e-29 -0.091650255
000010 5b 18 39 91 70 cc 53 3d 60 d7 8c 3c 9d ce 40 a5
       -1.4601432e-28 0.05170864 0.017192543 -1.6723349e-16
000020 10 52 f6 3c d6 4f 86 bc 26 25 08 bd ac 6b b6 a2
       0.030068427 -0.01639549 -0.033238553 -4.94452e-18
000030 01 16 6b 3d 87 c7 76 bd 1a d9 f8 a8 8f 22 28 b7
       0.05739403 -0.060248878 -2.7627684e-14 -1.0021627e-05
000040 27 59 0b b6 a8 e1 e1 3d fe 44 57 3e 2d 07 ab b8
       -2.0764508e-06 0.11029369 0.21022412 -8.155252e-05
000050 54 21 33 be be 98 58 3d b0 c3 67 b8 08 db a4 3d
       -0.17493182 0.05288004 -5.525694e-05 0.080495894
000060 53 71 a4 a5 26 a0 00 be c1 30 c3 bd 88 45 61 ae
       -2.8526256e-16 -0.12561092 -0.095307834 -5.1220833e-11
000070 3e d6 ce 9d 44 52 8c bd 11 3b bc 3d ba 26 54 b9
       -5.4749267e-21 -0.068516284 0.091909535 -0.00020232322
000080 fb 06 54 3d 5a 70 2c be 7b 7e 00 3e 9d 32 80 3a
       0.05176447 -0.16839734 0.12548248 0.0009780709
000090 45 7c dd 3b 88 3d f4 b9 fc 31 d0 b3 d7 a4 f3 bb
       0.006759199 -0.0004658515 -9.694847e-08 -0.007435422
0000a0 eb 1d d1 bc e1 0e 00 bd c2 50 26 be 03 2d 51 bd
       -0.025526961 -0.03126419 -0.16241744 -0.051068317
0000b0 b6 f6 1b bb 1d d2 73 3e 03 fe aa a7 8d 4b e4 bd
       -0.0023798174 0.2381062 -4.745988e-15 -0.11147223
0000c0 7f f9 bb bc 7d 53 a8 bd 84 8a b9 bd cb 96 d0 a9
       -0.022946117 -0.08219049 -0.09059623 -9.263214e-14
0000d0 cd 9a 6f 3e 3c 50 80 3e 2c 1c dd b0 e3 2d 71 3c
       0.23398896 0.25061214 -1.6087873e-09 0.014720413
0000e0 f6 3e 6b 3e 92 71 db 3d 41 89 71 bb 13 83 fc 3b
       0.22973236 0.10715021 -0.0036855491 0.007706055
0000f0 ca df 41 3d 84 c2 53 bd 4d 50 37 3e b8 87 45 bd
       0.047332563 -0.051699176 0.17901726 -0.048225135

advantage.2.weight f4 [36, 64]
000000 62 55 0f 3e f5 5a 4d bd 90 20 87 32 30 9c 59 3e
       0.13997415 -0.05013557 1.5730876e-08 0.21250987
000010 4e 8f 82 b0 89 bf 6e be 34 d8 42 3e a1 e5 58 37
       -9.499475e-10 -0.23315252 0.19027787 1.2928068e-05
000020 8a 47 54 3e 7b 1c c4 3e 52 92 aa 3e 26 b3 b7 32
       0.20730415 0.3830298 0.3331476 2.1385471e-08
000030 a4 a1 db 3d 76 f6 a5 3d b8 69 42 a2 dd d2 e0 b7
       0.1072419 0.08103649 -2.634787e-18 -2.6801072e-05
000040 4c 6b 10 3b 48 61 d5 bd 68 c1 5d ba 2c 77 85 bc
       0.002203661 -0.104189456 -0.0008459301 -0.016292177
000050 42 5d 63 3e a6 16 c2 bd 8a c5 c1 b9 86 5f 34 bb
       0.22203544 -0.09476976 -0.00036959007 -0.0027522757
000060 24 45 2d b6 0d 88 3d 3e 89 75 1c 3e af 40 7c b7
       -2.5819254e-06 0.1850893 0.15279211 -1.5035431e-05
000070 c3 5d 2e b0 8e ce 0b 3e 63 d4 06 bd b0 e5 71 b8
       -6.3434075e-10 0.13653013 -0.03291739 -5.767279e-05
000080 d8 be 03 3d 93 03 15 3e eb d3 00 3e 2c db ca bd
       0.032164425 0.14552145 0.1258084 -0.09905085
000090 2c 33 85 3e f4 7b b4 bb 6b 55 0e 32 41 06 71 3e
       0.26015604 -0.0055079404 8.28491e-09 0.23537542
0000a0 ff 79 bc b8 34 75 82 3d 07 96 4e 3e 26 37 8e 3e
       -8.987262e-05 0.06370011 0.20174418 0.2777645
0000b0 f4 c0 1a 3a b1 bc 88 bf 15 fb a1 b5 ee af 67 3e
       0.0005903386 -1.0682584 -1.2068509e-06 0.22625706
0000c0 ea d4 21 3d 27 c2 bf 3c 0d 0c 58 3e af ea d6 3a
       0.03950969 0.023408009 0.21098347 0.0016396845
0000d0 d0 b3 a6 be c4 9a 14 be ee b0 92 ba 00 4b aa 3d
       -0.3255906 -0.14512163 -0.0011191645 0.08315086
0000e0 55 c1 e8 bd f9 87 e4 3d eb af e8 ba dd bf 80 3e
       -0.11365 0.11158747 -0.0017752623 0.2514638
0000f0 f7 df af bf ad 41 68 3e cf 55 49 be 1f dd 60 3e
       -1.3740224 0.22681303 -0.1966164 0.21959351
000100 60 e4 51 3d aa ea 5e bc a8 1c 62 80 39 7a 93 be
       0.051243186 -0.013605753 -9.010159e-39 -0.28804186
000110 80 4e c1 88 9e 8a 04 bf a2 f0 43 3e 62 3c 20 00
       -1.163422e-33 -0.51774013 0.19134763 2.960397e-39
000120 9c 99 6d 3d 1b cb fe 3e e0 18 30 3f 8a fd 13 95
       0.05800782 0.49764332 0.68787956 -2.988642e-26
000130 45 f6 b2 3e bd 9f 96 bd d6 fc 75 0a 85 4d 76 a7
       0.34953514 -0.073546864 1.1843874e-32 -3.4181381e-15
000140 d6 c2 24 b5 26 27 f1 be 85 29 0c 3d de d9 8b 00
       -6.1378284e-07 -0.4710018 0.034219284 1.284329e-38
000150 e9 f2 bd 3e 68 2b cf 3c 68 d4 56 39 eb 0d 7f be
       0.37099388 0.025289252 0.00020487758 -0.24907653
000160 c6 2d 0d 89 d7 83 db 3d f8 ee 98 3d cd 80 15 b2
       -1.699378e-33 0.10718506 0.07467455 -8.702227e-09
000170 49 88 26 00 e0 ab 17 be dc ec c7 be 5f 9b 27 30
       3.538639e-39 -0.14811659 -0.39047897 6.097504e-10
000180 c2 1a cb bd e2 22 eb be 19 0f 18 bf ff 45 ff 3d
       -0.09917213 -0.4592505 -0.5939804 0.124645226
000190 66 98 91 be f1 e5 9e b8 f6 32 1a 12 f6 fb eb be
       -0.28436583 -7.576857e-05 4.8656646e-28 -0.46090668
0001a0 d5 48 1a bb 8c 05 0a bc 33 91 95 bd e1 60 eb 3d
       -0.0023541946 -0.008424174 -0.07303085 0.114930876
0001b0 87 93 8e b9 f9 3e 30 bf 83 28 b6 a5 e6 c4 0b 3c
       -0.00027194267 -0.6884609 -3.159942e-16 0.008530831
0001c0 21 02 73 3e 4b 73 44 3c 56 04 67 3f 41 8a 33 b1
       0.23731281 0.011990379 0.9024099 -2.6126517e-09
0001d0 74 ea 35 bf 12 33 16 bd c4 1f 79 b5 ba a6 cc be
       -0.7106087 -0.0366698 -9.2805953e-07 -0.39970952
0001e0 5d cf f6 3d 67 c5 0e bd 8f 2a c0 ba c5 5d 0a 3f
       0.1205127 -0.034856226 -0.0014661121 0.5404933
0001f0 5e 18 37 bf 6b e6 ff bc d1 e1 5f 3b b0 e6 84 bf
       -0.71521556 -0.031237802 0.0034161697 -1.03829
000200 43 ea 0b bf 65 f4 7e 3d 91 d1 d2 2e 28 01 4e be
       -0.5465433 0.06224479 9.586921e-11 -0.20117629
000210 4e b7 16 b4 6b 8e f0 3c 3b 55 62 3e 55 cb 0d a5
       -1.4036524e-07 0.029364785 0.22102825 -1.2298692e-16
000220 1a 3b 6d bd 44 45 bc 3e d6 10 e3 3e 9e fe e5 9d
       -0.05791769 0.36771595 0.44348782 -6.0879063e-21
000230 04 df 67 3e e8 de bd bc 98 31 b4 20 00 5f 35 37
       0.22643667 -0.023177579 3.0526004e-19 1.081056e-05
000240 6c b1 84 3a e2 0e ec 3c cf a1 a7 3e 3a 85 81 32
       0.0010123677 0.02881569 0.32740638 1.5078161e-08
000250 e8 7e 7e 3e 93 c3 95 3e 57 5a fb b8 c4 98 6a be
       0.24853098 0.29250774 -0.0001198544 -0.22909838
000260 9d 4c 13 2a bb d2 96 3e 9d 14 a1 3e 5c 61 5a 33
       1.3082803e-13 0.2945765 0.3146104 5.0845628e-08
000270 53 dc 25 27 5f af a4 bd 76 5a bc bd d7 3c 97 b8
       2.3017788e-15 -0.08041262 -0.091969416 -7.2115734e-05
000280 49 9a 53 3d 90 29 af bb 3a e1 b2 be a7 a6 98 bd
       0.05166081 -0.005345531 -0.3493746 -0.074536614
000290 eb b0 3e bf ae 21 62 3a dd f1 0d 36 3e e8 04 3d
       -0.74488705 0.00086262345 2.115142e-06 0.032448046
0002a0 e5 bc 38 bc 85 69 9e bd 37 6e 27 3e c2 b8 71 3e
       -0.011275505 -0.0773497 0.16350637 0.23605636
0002b0 cf 56 e4 39 ba b5 da be 88 9f 0b b0 9a b0 60 3e
       0.00043552226 -0.4271677 -5.0794613e-10 0.21942368
0002c0 a9 de 39 3e f0 41 db bc a0 58 8c 3e d2 8a 24 39
       0.18151344 -0.02676484 0.27411366 0.00015691973
0002d0 c0 6b ee bf 68 9e 3a 3e 1e 4e 8e 36 bc 5b 4e bd
       -1.8626633 0.1822449 4.241024e-06 -0.050380453
0002e0 8c 53 d2 bc b4 14 f2 be f7 c3 10 37 e5 18 97 be
       -0.025674604 -0.4728142 8.6286955e-06 -0.2951118
0002f0 83 68 49 3d 62 42 72 bd 4d 6f 93 3e 1c e4 32 bd
       0.049171936 -0.05914534 0.28795853 -0.043674573
000300 f6 4c eb bd b7 5c 82 bd 0c c9 8a a0 3b ec 26 bf
       -0.114892885 -0.0636534 -2.351115e-19 -0.6520421
000310 80 4f 84 1d 0c 00 ca 3e 73 ea dd 3d 9e 7e bd 2c
       3.502231e-21 0.3945316 0.10835733 5.3857604e-12
000320 0f 86 b1 bd 57 d0 05 3e fc bf 05 3e 71 db 86 1f
       -0.08668148 0.13067757 0.13061517 5.711424e-20
000330 c8 c5 9f 3e c7 df 73 be b2 8b 11 8b 35 e4 20 b6
       0.31205583 -0.23815833 -2.803108e-32 -2.3974692e-06
000340 50 ce cf b3 84 f9 a5 3e 1f 3b 0c 3f c2 ac 11 93
       -9.676717e-08 0.32416928 0.5477771 -1.838675e-27
000350 a5 f5 ef 3e 31 ea 5f 3e e3 31 46 39 4d 3b b3 be
       0.468671 0.2186668 0.00018901336 -0.3500618
000360 e4 ab 0a a9 41 38 44 3e 06 ee de 3c 41 d1 75 31
       -3.0791247e-14 0.19162084 0.027213108 3.577114e-09
000370 82 1b 61 18 f8 ba 83 bd 0c 69 fe bd 78 95 3e b9
       2.9094456e-24 -0.06432146 -0.1242238 -0.00018175493
000380 cc 7a dd 3e e9 f9 0a 3d 55 d6 55 be 0a 6d 31 be
       0.4325775 0.03392974 -0.20882542 -0.17326751
000390 54 5c 81 bf cd 63 7c bb 91 a8 f1 31 fa 49 0f bd
       -1.0106301 -0.0038511634 7.033187e-09 -0.03498266
0003a0 c6 76 a3 3c 32 73 ce 3b 59 fc 86 be 55 60 21 be
       0.019954097 0.0063003534 -0.263644 -0.15759404
0003b0 a4 54 81 39 e1 16 46 3d df 04 ad 2c e6 53 82 be
       0.0002466786 0.048361663 4.9174965e-12 -0.25454634
0003c0 9a 15 95 3e 27 14 d8 3a a0 c3 9d 3e 4b 23 ae 28
       0.29118043 0.0016485498 0.30813313 1.9333187e-14
0003d0 f3 24 85 be 94 89 50 3e 05 ef 81 36 bf 5e 08 be
       -0.26004753 0.20364982 3.872325e-06 -0.13317393
0003e0 0d d2 b1 bd 25 fa 66 bf 78 03 c6 b6 06 cf ed bf
       -0.08682642 -0.9022544 -5.9012636e-06 -1.8578804
0003f0 ac 58 8f 3e 91 ce f8 3c fd 6d ea 3e 5c 52 ad be
       0.2799734 0.030371936 0.4578704 -0.33851898

advantage.2.bias f4 [36]
000000 52 8e 65 be 13 75 b2 3c c1 62 a5 bd e7 41 21 3e
       -0.22417572 0.021784341 -0.080754764 0.15747796
000010 52 5d 5b 3d 63 db 48 be bb 24 00 3e 49 9b 44 3e
       0.053555794 -0.1961494 0.12514012 0.19199862
000020 5b 31 df 3d 3b 4f 32 3e 0b 92 79 3e c0 a8 cf bd
       0.10898086 0.17413037 0.24372117 -0.101396084
000030 15 61 17 3d 3a 8e 17 be 50 6b e5 bd c0 30 17 3e
       0.03695782 -0.14800349 -0.11202109 0.1476469
000040 28 8f 57 3d 32 88 e0 bd b8 cd 3b 3e a6 a4 f4 bc
       0.05262676 -0.10963477 0.18340194 -0.029863667
000050 a1 68 f0 3e 1c dc 6d 3e 52 ed eb bc 29 0d b9 bd
       0.46954826 0.23228496 -0.028799687 -0.09035713
000060 ce 01 ae 3d b8 d4 ba 3e 4b ca c8 3d ee d3 2f bd
       0.08496438 0.36490417 0.09804209 -0.04292672
000070 29 ab 97 3e 8d a9 fd 3d 9e 2c 15 bf 09 e5 97 3d
       0.29622772 0.12385855 -0.58271205 0.07416732
000080 6d 28 10 3e 3b be f3 bd b6 f8 ac bd 12 ca b6 3e
       0.14077921 -0.11901518 -0.08445875 0.35701042

value.0.weight f4 [64, 128]
000000 70 a4 19 00 06 c1 20 00 1a 74 9a 80 bc 5a 0c 01
       2.354876e-39 3.00798e-39 -1.4184316e-38 2.5779038e-38
000010 b8 f0 5e 80 38 9b 91 00 0c 2c ae 00 fa 48 83 80
       -8.71889e-39 1.3371829e-38 1.5995177e-38 -1.2056629e-38
000020 c8 72 71 01 b6 2d 82 01 c0 84 8c 81 a0 4c 99 80
       4.434706e-38 4.782005e-38 -5.1618365e-38 -1.4078319e-38
000030 d8 d2 90 80 9e 86 e2 80 26 06 41 80 74 8d 66 80
       -1.3299948e-38 -2.0803114e-38 -5.971513e-39 -9.417964e-39
000040 70 f7 d4 00 7b 76 0f 82 9a 17 d0 00 6a e8 b8 80
       1.9557889e-38 -1.0539983e-37 1.911025e-38 -1.6981106e-38
000050 90 a9 87 80 b0 46 36 00 80 4e 33 00 c4 f3 53 80
       -1.245862e-38 4.984475e-39 4.711771e-39 -7.709793e-39
000060 f4 c2 18 80 90 40 38 80 f4 45 36 80 2e 96 0a 02
       -2.273988e-39 -5.165948e-39 -4.984211e-39 1.0181738e-37
000070 98 17 5a 00 18 0b ee 80 64 81 f0 80 c8 2f 5b 00
       8.273658e-39 -2.1860828e-38 -2.2086936e-38 8.374171e-39
000080 28 4b 65 00 d0 5e 1a 81 f8 b6 b0 80 90 8f ca 00
       9.302346e-39 -2.8353357e-38 -1.6228684e-38 1.8602271e-38
000090 32 94 42 80 b0 2a fe 80 72 2e 2f 80 0c 67 3a 80
       -6.114305e-39 -2.334153e-38 -4.33293e-39 -5.363425e-39
0000a0 58 e5 0d 80 fc eb a7 80 74 57 eb 80 4c 63 df 80
       -1.276134e-39 -1.5421183e-38 -2.1612714e-38 -2.0514937e-38
0000b0 a8 e9 8d 80 14 1f d9 81 06 b1 27 80 8c c6 dc 80
       -1.3032625e-38 -7.9757806e-38 -3.645088e-39 -2.0275034e-38
0000c0 00 83 46 80 a0 3f bf 00 44 2a d7 00 e0 a1 61 00
       -6.475479e-39 1.7563404e-38 1.9759794e-38 8.966113e-39
0000d0 99 aa da 81 54 6a 7d 80 be 4f 75 00 fc 1e f0 00
       -8.032535e-38 -1.151758e-38 1.0773359e-38 2.2051634e-38
0000e0 ea 02 15 00 a8 b4 88 80 30 a5 72 00 90 37 a0 80
       1.929591e-39 -1.2554435e-38 1.0528505e-38 -1.4713611e-38
0000f0 4e cd a1 80 a0 6b 21 80 ac 79 5d 01 36 22 19 80
       -1.4859164e-38 -3.06918e-39 4.0678585e-38 -2.30816e-39
000100 aa 1d 1e 00 ba fb 38 80 3c 24 95 00 5a ce fb 01
       2.765706e-39 -5.23309e-39 1.3696487e-38 9.249894e-38
000110 40 f9 ac 00 d7 12 92 81 6a 28 01 02 42 05 b8 00
       1.588512e-38 -5.3658964e-38 9.489021e-38 1.6899617e-38
000120 ae ae e8 81 ce cf c1 01 40 79 4a 80 66 7e f8 00
       -8.5473993e-38 7.119519e-38 -6.839323e-39 2.2820546e-38
000130 44 7a 94 80 ac 5d d8 81 34 20 d3 81 f6 94 f9 80
       -1.3635514e-38 -7.948028e-38 -7.755537e-38 -2.2920476e-38
000140 76 ef c2 81 68 36 d4 01 1e e9 c7 00 a4 15 51 00
       -7.1607955e-38 7.795457e-38 1.835889e-38 7.446438e-39
000150 a2 f5 c6 01 22 7f 4e 80 7c 7c bf 00 b0 31 81 80
       7.308618e-38 -7.208775e-39 1.7585236e-38 -1.1864604e-38
000160 bd c7 c4 81 30 2b 50 01 d8 d4 e0 00 70 59 85 01
       -7.228564e-38 3.8234552e-38 2.0647505e-38 4.898482e-38
000170 4e 09 af 00 ea fb 6b 01 7c 70 3e 80 8c 95 1a 80
       1.607455e-38 4.3343423e-38 -5.734153e-39 -2.44137e-39
000180 4c 2f 92 00 14 77 27 80 e0 7c a4 00 5a a7 6b 81
       1.342495e-38 -3.624302e-39 1.5105818e-38 -4.3282752e-38
000190 1a de be 80 a4 e2 79 81 08 1d db 00 74 0c 51 80
       -1.7528419e-38 -4.5896684e-38 2.0122388e-38 -7.443143e-39
0001a0 60 8a 56 81 56 b0 34 00 84 6a 82 00 60 c6 7f 00
       -3.9404872e-38 4.838703e-39 1.1976825e-38 1.1734272e-38
0001b0 90 16 6d 00 7c b5 b8 80 49 e1 b4 01 60 6b 6b 80
       1.0018163e-38 -1.6962836e-38 6.6444826e-38 -9.864917e-39
0001c0 64 4c e4 00 3c 89 ac 80 84 b6 32 80 a6 92 3e 80
       2.0965897e-38 -1.5844936e-38 -4.657249e-39 -5.746408e-39
0001d0 f2 36 1f 00 7e f7 d0 00 58 a4 2e 00 04 65 a3 00
       2.866611e-39 1.9190567e-38 4.283388e-39 1.5005423e-38
0001e0 b2 49 03 80 a8 92 e1 80 cc 46 d7 00 c4 17 e5 00
       -3.01943e-40 -2.0715597e-38 1.9770029e-38 2.1038854e-38
0001f0 f8 fe 4d 80 b0 e8 c6 00 06 68 8c 00 c0 d7 a9 80
       -7.162799e-39 1.8266901e-38 1.2894286e-38 -1.5597595e-38
000200 9c 46 f2 80 7c 88 89 80 02 73 c8 81 d8 7e 39 80
       -2.224952e-38 -1.2630424e-38 -7.3633425e-38 -5.280126e-39
000210 da 9e 65 00 b4 12 7a 80 a8 16 22 80 b4 50 e8 80
       9.33237e-39 -1.121064e-38 -3.130534e-39 -2.1334786e-38
000220 98 04 2e 00 08 cb cc 00 04 ce 96 81 10 fd aa 80
       4.226081e-39 1.8807275e-38 -5.5396916e-38 -1.5702816e-38
000230 a0 18 0d 80 aa 79 61 00 60 c2 c6 80 44 ba 01 81
       -1.202695e-39 8.951688e-39 -1.8253157e-38 -2.3827197e-38
000240 b8 a3 c6 00 3e 96 66 80 a0 58 85 80 cd 47 e0 01
       1.824216e-38 -9.421117e-39 -1.2245914e-38 8.2387634e-38
000250 38 67 26 80 e8 14 b4 00 6c 2d 65 80 00 f5 58 80
       -3.526777e-39 1.6537889e-38 -9.29168e-39 -8.169413e-39
000260 ac 27 c8 81 32 ff 4d 00 e0 d9 88 00 07 15 00 01
       -7.3525323e-38 7.16288e-39 1.2567786e-38 2.3524973e-38
000270 e5 2d 02 81 90 4f 59 81 c0 17 9b 00 fe 03 03 01
       -2.3910157e-38 -3.991369e-38 1.4243022e-38 2.4063764e-38
000280 9c 29 04 01 d8 27 32 80 3c 15 4a 01 a2 c7 9b 00
       2.4274424e-38 -4.606068e-39 3.7116775e-38 1.4306117e-38
000290 7a a4 0f 80 28 e7 9c 01 20 dd 67 00 5a 00 13 00
       -1.436536e-39 5.763704e-38 9.538381e-39 1.745e-39
0002a0 92 55 0f 00 78 7b 95 00 c4 7d cd 80 48 e5 3d 81
       1.408229e-39 1.3727781e-38 -1.8871393e-38 -3.487832e-38
0002b0 38 9f 4c 80 04 50 9c 00 76 e5 a8 00 a6 af 0e 00
       -7.036615e-39 1.4355042e-38 1.5510678e-38 1.348708e-39
0002c0 78 43 50 00 b4 ef 37 01 7e cc db 01 f0 e4 0d 00
       7.371043e-39 3.378377e-38 8.0741327e-38 1.275989e-39
0002d0 18 de 9a 80 78 2a 5f 00 e8 e4 6e 00 30 e4 47 00
       -1.4222339e-38 8.739607e-39 1.018402e-38 6.602178e-39
0002e0 a8 2c 67 80 ef 43 c1 01 12 86 fe 01 32 fa 05 00
       -9.475076e-39 7.0994483e-38 9.3497246e-38 5.4893e-40
0002f0 0c 93 22 00 18 e6 3b 80 78 8c 84 00 78 e1 52 00
       3.175157e-39 -5.500836e-39 1.2172676e-38 7.611394e-39
000300 2c 1d f1 00 6c 2b 6a 80 04 46 07 80 12 e7 12 00
       2.214282e-38 -9.75014e-39 -6.67965e-40 1.735931e-39
000310 00 21 c7 80 f0 f0 b9 80 ba cb d0 80 7c 20 14 00
       -1.8287102e-38 -1.7075999e-38 -1.9174867e-38 1.848363e-39
000320 bb fd 00 02 46 77 c9 80 9c 20 4c 01 22 04 25 00
       9.476772e-38 -1.8501722e-38 3.7492279e-38 3.399396e-39
000330 04 a8 60 00 b8 a6 1c 80 e8 29 c5 00 f8 d9 e1 00
       8.87648e-39 -2.631201e-39 1.8106626e-38 2.0741179e-38
000340 84 bf 47 00 2c 69 34 81 2a cd 20 00 31 22 dd 01
       6.589023e-39 -3.3136236e-38 3.012335e-39 8.123164e-38
000350 ea e6 94 80 3c fa 6d 81 7a 47 43 00 b4 e4 2b 00
       -1.367449e-38 -4.370956e-38 6.178619e-39 4.03097e-39
000360 86 33 a4 80 68 83 65 00 a0 db d8 00 48 cf 76 80
       -1.5079504e-38 9.322525e-39 1.9915254e-38 -1.0910947e-38
000370 6c 88 6c 01 c0 85 79 80 83 e8 ad 81 f4 ba 70 01
       4.3444232e-38 -1.1160075e-38 -6.38838e-38 4.421517e-38
000380 0c 6f 94 80 3f 58 b1 01 64 a7 3c 80 e6 3b f9 00
       -1.363149e-38 6.514616e-38 -5.570178e-39 2.2888526e-38
000390 3e e3 cb 00 5e 9b f6 00 28 61 8a 00 b4 ce 3e 00
       1.8724125e-38 2.2647267e-38 1.2708152e-38 5.767952e-39
0003a0 c8 1f c8 80 dc 77 2a 00 60 0c 79 80 62 3e 4f 00
       -1.83785e-38 3.900088e-39 -1.1116534e-38 7.277383e-39
0003b0 54 19 f1 01 46 6a 4e 80 b4 2b 0b 01 f8 73 0e 00
       8.856576e-38 -7.201292e-39 2.5561623e-38 1.327299e-39
0003c0 9a 64 b5 81 9a 43 2e 00 54 f5 71 00 24 6b 8d 80
       -6.6633255e-38 4.248684e-39 1.0465418e-38 -1.298724e-38
0003d0 aa b0 27 00 16 bb ac 01 68 41 e1 00 40 42 d6 80
       3.64496e-39 6.3451277e-38 2.068645e-38 -1.9676562e-38
0003e0 52 d6 04 81 2c cc 12 00 2c f6 b4 80 a8 e2 2c 80
       -2.4398338e-38 1.726282e-39 -1.6618699e-38 -4.122071e-39
0003f0 0e 61 a0 81 e0 4c 34 80 a0 ca 82 80 dc 99 68 80
       -5.8913984e-38 -4.803023e-39 -1.2011303e-38 -9.606086e-39

value.0.bias f4 [64]
000000 0c 87 48 01 c6 46 df 00 da c2 02 80 58 c2 2f 80
       3.683109e-38 2.0504704e-38 -2.5357e-40 -4.385986e-39
000010 18 8c 98 81 40 9e 7e 00 48 08 17 80 98 0a 14 00
       -5.6037006e-38 1.1628042e-38 -2.115187e-39 1.84051e-39
000020 38 27 a0 81 3c f1 1e 00 db 4d 14 02 80 3d 35 00
       -5.8830994e-38 2.841603e-39 1.0895666e-37 4.889343e-39
000030 9e 1d dc 81 80 00 12 00 10 4f 85 80 16 96 e6 00
       -8.0857735e-38 1.653218e-39 -1.2242483e-38 2.1176005e-38
000040 f2 c5 3f 00 62 5d ac 00 d4 8c 68 81 6e 9a 47 00
       5.856646e-39 1.5829205e-38 -4.271271e-38 6.575719e-39
000050 b2 e0 4b 80 0c be 0c 00 17 7d aa 01 2c ac a2 81
       -6.968268e-39 1.170202e-39 6.262763e-38 -5.9756456e-38
000060 60 26 71 00 40 d1 a1 81 94 6b 36 00 a0 21 40 00
       1.0391177e-38 -5.944232e-38 4.997709e-39 5.889534e-39
000070 5a 4a 17 00 b4 80 4c 80 d2 8a fb 81 f6 fd b1 80
       2.138889e-39 -7.025668e-39 -9.2402036e-38 -1.6345987e-38
000080 30 68 00 01 cc 66 a4 80 38 13 52 80 b4 24 8a 81
       2.3584638e-38 -1.5097898e-38 -7.537405e-39 -5.074586e-38
000090 16 f6 c3 81 12 39 65 80 98 b0 2d 00 60 40 b7 01
       -7.1984803e-38 -9.295858e-39 4.195947e-39 6.7315957e-38
0000a0 2c 7a 4c 81 a4 7c 4c 00 fc 2b 93 00 ac b6 09 80
       -3.7556536e-38 7.02421e-39 1.3515597e-38 -8.9205e-40
0000b0 94 d7 61 80 5c 85 33 00 de 59 d2 00 86 58 43 80
       -8.985378e-39 4.73145e-39 1.9317692e-38 -6.184734e-39
0000c0 be 2e 0a 00 9c 0f 54 00 30 c7 ec 80 5c 31 9b 80
       9.35123e-40 7.719781e-39 -2.1744632e-38 -1.4252209e-38
0000d0 dc 62 c2 80 f2 b3 58 80 ca 2b 22 00 f0 90 10 80
       -1.785155e-38 -8.146076e-39 3.138115e-39 -1.521362e-39
0000e0 12 d4 10 80 2c 06 16 80 48 46 c2 00 60 52 52 00
       -1.545444e-39 -2.022595e-39 1.7841298e-38 7.560061e-39
0000f0 fc ac f6 80 7c 65 00 80 a0 75 fb 80 6a 9d 1e 00
       -2.2653587e-38 -3.6406e-41 -2.3092905e-38 2.811534e-39

value.2.weight f4 [1, 64]
000000 fa a8 47 80 95 4a d8 81 0c cc 2c 01 62 8e 24 00
       -6.580938e-39 -7.945289e-38 3.1737807e-38 3.357155e-39
000010 f8 ff 12 00 ac 11 ae 81 2c d3 b3 01 93 51 a0 80
       1.744863e-39 -6.3942863e-38 6.605723e-38 -1.4722943e-38
000020 57 47 0a 80 d2 80 28 80 ce f9 95 00 24 91 36 80
       -9.43947e-40 -3.719632e-39 1.3773102e-38 -5.011183e-39
000030 98 e2 9c 00 b8 55 6d 80 30 12 2c 00 be 04 39 00
       1.4407624e-38 -1.0040819e-38 4.047286e-39 5.236324e-39
000040 08 f3 04 01 44 c6 3d 00 d8 44 2f 00 89 c5 96 00
       2.4418937e-38 5.67309e-39 4.340965e-39 1.3846187e-38
000050 c8 7e d1 00 46 20 05 80 c4 67 cc 00 f8 fb 3d 00
       1.9239099e-38 -4.70755e-40 1.8771665e-38 5.692355e-39
000060 96 6b e1 81 28 b9 f2 00 ce 62 68 80 98 8d 5a 80
       -8.2806325e-38 2.2290612e-38 -9.586336e-39 -8.315989e-39
000070 60 0b d9 00 f0 65 37 80 04 20 2b 80 2c 17 f7 80
       1.9932383e-38 -5.08752e-39 -3.960411e-39 -2.269168e-38
000080 05 47 9b 00 60 96 3f 00 6b 38 27 00 58 bb 04 01
       1.4259979e-38 5.83958e-39 3.601823e-39 2.4378984e-38
000090 88 02 45 00 37 b6 2e 80 91 4b 35 80 12 88 9b 00
       6.337557e-39 -4.289799e-39 -4.89439e-39 1.4283315e-38
0000a0 44 ee 34 00 f2 ae b4 80 c4 bc 2f 00 a0 f1 75 80
       4.86092e-39 -1.6593148e-38 4.383985e-39 -1.0831432e-38
0000b0 19 86 70 80 7e d6 2d 00 d8 c8 82 80 2c c9 7c 00
       -1.0333681e-38 4.209543e-39 -1.2010664e-38 1.1459768e-38
0000c0 23 ac 8d 01 af ea 3b 00 70 b8 01 01 12 ce 6d 80
       5.2042224e-38 5.502483e-39 2.3825885e-38 -1.0083993e-38
0000d0 b2 7e 2e 00 82 f0 af 01 4f 24 44 80 32 d9 70 80
       4.269883e-39 6.462996e-38 -6.257839e-39 -1.036349e-38
0000e0 30 94 23 00 4c c2 e7 00 42 ae af 00 18 0b aa 80
       3.267402e-39 2.12837e-38 1.6133724e-38 -1.5616014e-38
0000f0 f0 07 c7 80 c6 aa ab 80 08 1a 53 00 a8 e1 a0 01
       -1.8278111e-38 -1.5765132e-38 7.631684e-39 5.909852e-38
