pre-trained/ddqn_dnn12000.pth (torch_old, 650004 bytes, 44 tensors)

feature.0.weight f4 [128, 36]
-0.0211394 0.01544286 0.004942986 0.033671517 0.009701854 0.028915934 0.017755799 -0.036127836
0.049338877 -0.01373407 0.077364475 0.039907884 -0.11900733 -0.01772265 0.07405245 0.30261207
0.062463664 0.056327347 -0.06974182 -0.02812493 0.22192109 -2.4555547 0.102642804 -0.021842998
-0.04586224 0.021146186 0.06543529 -0.005931422 -0.07468709 0.039332774 -0.03755528 0.026288915
-0.0050602243 -0.1205312 -0.036224846 0.11706545 0.06864573 0.097279385 -0.030461818 -0.019823106
0.03875949 -0.066741996 0.17014946 0.11023116 0.0029186364 -0.03662696 -0.008410111 -0.06081498
0.05187294 0.010549798 -0.0002585655 0.03310015 0.10017787 0.052263394 -0.21065815 -0.0100955805
-0.0018076345 0.15277365 0.122134686 0.12793516 -1.4331015 -0.30922198 0.14894673 0.098188534
0.10308769 -0.058144115 -1.3805045 -0.053787738 0.10634447 0.04286292 -0.09926177 0.11822565
-0.05679128 -0.035623457 0.018545197 -0.009658271 -0.027541228 0.009263804 -0.14527301 0.07923978
0.102855176 0.01584493 0.035586562 0.06765808 -0.71559477 -1.7596095 0.08599013 -0.07744917
0.017291073 0.034396645 0.4899561 0.46900687 -0.051050197 -0.030568026 -0.0572805 0.004798468
0.1569124 0.22381571 0.1492823 -0.04769416 -0.037380528 -0.017647266 0.008513025 4.1845615e-05
-0.015021708 0.039942164 -0.05964487 0.27366006 -0.10071488 0.06336369 0.022630492 -0.10732419
-0.004367067 -0.02966374 -0.066347174 -0.14635633 0.03817204 0.029491542 -0.022476073 0.055181127
-0.046614498 -0.06743611 0.121917956 0.12468286 0.028609578 0.049702223 -0.03306108 0.1779242
1.5030985 -0.31331047 -0.15355763 -0.0042737057 -0.013666651 0.087624915 -0.082860045 0.09527642
-0.07609537 0.021904254 0.008821982 -0.09148067 -0.15714663 -0.2182578 0.0077479514 0.233162
-0.31269512 -0.2724203 -0.40777865 -0.19218346 -0.30870944 0.14426142 -0.21916974 -0.11612294
-0.29144162 -0.27614027 0.18008208 -0.23234627 -0.33427116 -0.48095694 -0.9478933 -0.77235466
0.2628121 -0.3847021 -0.14577356 -0.30101043 -0.24400686 -0.65459067 -0.29157048 -0.22347696
0.073094964 0.008920327 0.11597655 -0.08463354 -0.20467938 0.40824243 -0.3328754 -0.059095692
-0.0653803 -0.19665535 0.5216112 0.083366975 -0.115289785 0.03830046 0.083986536 0.093066745
-0.0022421943 -0.067041025 -0.072180375 -0.0072482224 0.07412717 0.029772999 0.024587955 -0.04186116
-0.0093010375 0.13407616 0.06987048 0.024968892 0.029879453 -0.0027365624 -0.038111795 -0.05234634
0.15847221 0.052397657 0.013327605 -0.05825364 -0.2023014 -0.14598958 -0.13491453 0.047586508
0.04549563 -0.14073198 1.5517143 -0.7646875 0.15093005 0.06642576 -0.064887054 0.07021008
-0.005678932 0.019757649 0.030440724 0.023624139 0.08129651 -0.18043391 0.092688136 -0.07599092
0.013645085 0.037374523 0.012919259 0.18200746 0.0016094188 0.048730716 0.03324042 0.12420795
-1.4261785 -1.3009077 0.018566282 -0.009762555 0.0027039284 0.19159745 0.21726464 0.3744084
-0.054213557 0.003395497 -0.0029437086 -0.09535265 0.12556626 -0.088395156 -0.02443177 -0.04533829
-0.044892225 -0.14697514 -0.22094402 -0.14597775 -0.30158934 -0.0714518 0.058827933 0.10956535
00000000: 892c adbc 0d04 7d3c c6f8 a13b 25eb 093d
00000010: 86f4 1e3c 1ce1 ec3c 9c74 913c c8fa 13bd
00000020: 9017 4a3d dd04 61bc 4471 9e3d 7376 233d
00000030: 1dba f3bd 172f 91bc d0a8 973d f8ef 9a3e
00000040: e6d9 7f3d 81b7 663d cdd4 8ebd 4166 e6bc
00000050: 483f 633e cf27 1dc0 6436 d23d 16f0 b2bc
00000060: 0bda 3bbd c43a ad3c f002 863d 605c c2bb
00000070: 8cf5 98bd 671b 213d 91d3 19bd da5b d73c
00000080: 3dd0 a5bb 10d9 f6bd 8160 14bd 03c0 ef3d
00000090: 2296 8c3d 6a3a c73d 108b f9bc 1164 a2bc
000000a0: 45c2 1e3d 07b0 88bd a93b 2e3e e0c0 e13d
000000b0: 9846 3f3b 2706 16bd 90ca 09bc 2119 79bd
000000c0: b878 543d 0fd9 2c3c 1390 87b9 0694 073d
000000d0: 0e2a cd3d 2412 563d c5b6 57be ef67 25bc
000000e0: 26ee ecba b270 1c3e c021 fa3d 6f01 033e
000000f0: df6f b7bf 5852 9ebe 7e85 183e 1217 c93d
00000100: a41f d33d 8628 6ebd 5fb4 b0bf 8850 5cbd
00000110: 21cb d93d 0791 2f3d c149 cbbd 4a20 f23d
00000120: f99d 68bd e7e9 11bd 19ec 973c ba3d 1ebc
00000130: 249e e1bc 36c7 173c 73c2 14be 7748 a23d
00000140: bca5 d23d 3acd 813c 37c3 113d 5290 8a3d
00000150: 3831 37bf e23a e1bf 981b b03d ac9d 9ebd
00000160: 02a6 8d3c 7fe3 0c3d 87db fa3e ab21 f03e
00000170: 031a 51bd cc69 fabc f59e 6abd 783c 9d3b
00000180: a5ad 203e f22f 653e 76dd 183e f45a 43bd
00000190: 531c 19bd 0091 90bc 377a 0b3c 6383 2f38
000001a0: 9c1d 76bc 659a 233d 2e4e 74bd 2c1d 8c3e
000001b0: 9a43 cebd d3c4 813d 9563 b93c c9cc dbbd
000001c0: 9d19 8fbb 5f01 f3bc 07e1 87bd 6fde 15be
000001d0: 495a 1c3d 3f98 f13c be1f b8bc 9b05 623d
000001e0: d8ee 3ebd f11b 8abd 1fb0 f93d ba59 ff3d
000001f0: a25e ea3c 8f94 4b3d 0e6b 07bd c331 363e
00000200: 8865 c03f 3b6a a0be 363e 1dbe 710a 8cbb
00000210: 17ea 5fbc b174 b33d 87b2 a9bd 4920 c33d
00000220: e4d7 9bbd 8d70 b33c 138a 103c 385a bbbd
00000230: 0ceb 20be f97e 5fbe 87e2 fd3b 05c2 6e3e
00000240: 9319 a0be ac7a 8bbe 5dc8 d0be becb 44be
00000250: 2a0f 9ebe 44b9 133e 086e 60be ddd1 edbd
00000260: d637 95be 4262 8dbe 7067 383e 2eec 6dbe
00000270: 9725 abbe fd3f f6be 23a9 72bf 09b9 45bf
00000280: 4f8f 863e acf7 c4be aa45 15be 0a1e 9abe
00000290: efdc 79be 4193 27bf ba48 95be 25d7 64be
000002a0: d0b2 953d 9026 123c 1d85 ed3d 5954 adbd
000002b0: 7997 51be 2705 d13e a56e aabe 530e 72bd
000002c0: 1be6 85bd 0560 49be 5088 053f 4ebc aa3d
000002d0: 0d1d ecbd f1e0 1c3d 2201 ac3d c799 be3d
000002e0: c7f1 12bb ce4c 89bd 4ed3 93bd 7f82 edbb
000002f0: fccf 973d 81e6 f33c ae6c c93c 9c76 2bbd
00000300: 6163 18bc 434b 093e 4118 8f3d 908b cc3c
00000310: c1c5 f43c e657 33bb 1d1b 1cbd 1e69 56bd
00000320: 8a46 223e ed9e 563d 075c 5a3c 5e9b 6ebd
00000330: 1928 4fbe 4b7e 15be 0927 0abe 12ea 423d
00000340: a059 3a3d 0b1c 10be 939e c63f 8fc2 43bf
00000350: 688d 1a3e 3b0a 883d 81e3 84bd 4dca 8f3d
00000360: 5616 babb cbda a13c d35e f93c 6987 c13c
00000370: c97e a63d abc3 38be 47d3 bd3d 21a1 9bbd
00000380: a28f 5f3c 0716 193d 4dab 533c 2a60 3a3e
00000390: 22f3 d23a dc99 473d 1b27 083d bd60 fe3d
000003a0: 048d b6bf 2584 a6bf 5118 983c 20f3 1fbc
000003b0: 6434 313b 1f32 443e 9f7a 5e3e 75b2 bf3e
000003c0: 090f 5ebd fd86 5e3b 3ceb 40bb 4048 c3bd
000003d0: 7194 003e 8508 b5bd 2325 c8bc a5b4 39bd
000003e0: e9e0 37bd a780 16be 263f 62be 317b 15be
000003f0: eb69 9abe 5255 92bd 8ff5 703d cc63 e03d

feature.0.bias f4 [128]
-0.0700435 -0.033666816 -0.12022813 -0.011500374 -0.22125797 -0.035071958 -0.10420021 -0.078230076
-0.03777587 -0.061228916 -0.13331282 -0.037109572 -0.07611223 -0.067362174 0.025172116 -0.09754601
0.06603976 -0.08558737 -0.11535321 -0.08940655 -0.048168894 -0.2855334 -0.04495818 -0.21331184
-0.06330456 -0.20363918 -0.12217691 -0.033480972 -0.06446027 -0.00018375536 -0.15239361 -0.06856896
-0.13719082 0.022800907 -0.17186438 -0.12242508 -0.13290131 -0.16780291 -0.18148118 -0.024896562
0.014096522 0.0047113774 -0.06137849 -0.109362066 -0.023222744 -0.039024837 -0.039819513 -0.05120312
-0.15081722 0.0683709 -0.010790247 -0.09616799 -0.13730662 -0.0037242668 -0.08211172 -0.072755285
-0.1577795 0.008094768 0.013713863 -0.033860076 -0.13450997 -0.118138775 -2.102535e-26 -0.2221584
-0.005662989 -0.099163994 -0.025839567 -0.12665534 -0.013421002 -0.104753725 0.042328995 -0.103532456
0.046727646 0.36060125 0.047760837 -0.06925496 -0.119203515 -0.08856247 0.019565692 -0.0993209
0.10947585 -0.086777955 0.16277665 -0.21112554 -0.051794704 0.09667681 -0.008178234 -0.07931241
0.012238625 -0.060979366 -0.0013520878 -0.13503055 -1.2579126e-07 -0.011241815 -0.07025108 -0.26083168
-0.22328012 0.33090004 -0.0788892 0.004124742 0.06131186 -0.05998645 0.071593 0.1481501
-0.045931395 0.014179347 -0.14057192 0.036961082 -0.09468843 0.037057918 -0.07080642 -0.25699693
-0.04392907 -0.025935415 0.049820166 0.016747484 -0.14020012 -0.036521845 -0.17296699 -0.04740875
-0.11213753 -0.010808444 -0.036811896 -0.02528419 0.1024936 -0.05597981 -0.0006008705 -0.162359
00000000: f772 8fbd 37e6 09bd 2a3a f6bd 116c 3cbc
00000010: 7391 62be 9da7 0fbd eb66 d5bd 1737 a0bd
00000020: dfba 1abd 2ccb 7abd 2883 08be 3500 18bd
00000030: bbe0 9bbd 2ef5 89bd c135 ce3c 34c6 c7bd
00000040: db3f 873d 6e48 afbd 4e3e ecbd c81a b7bd
00000050: bf4c 45bd 6f31 92be 1226 38bd 6b6e 5abe
00000060: d2a5 81bd ca86 50be e337 fabd 5823 09bd
00000070: bf03 84bd 74ae 40b9 120d 1cbe e26d 8cbd
00000080: c07b 0cbe f8c8 ba3c 37fd 2fbe 00ba fabd
00000090: 4817 08be 87d4 2bbe 34d6 39be e0f3 cbbc
000000a0: 19f5 663c e661 9a3b 0368 7bbd 38f9 dfbd
000000b0: a03d bebc 82d8 1fbd c919 23bd 5dba 51bd
000000c0: d46f 1abe 0b06 8c3d 93c9 30bc b9f3 c4bd
000000d0: 1b9a 0cbe d412 74bb 312a a8bd b900 95bd
000000e0: f390 21be eb9f 043c 1cb0 603c ddb0 0abd
000000f0: fbbc 09be bef2 f1bd 9839 d094 7e7d 63be
00000100: 9890 b9bb 7e16 cbbd 80ad d3bc f0b1 01be
00000110: c3e3 5bbc 1f89 d6bd 2b61 2d3d d308 d4bd
00000120: 7d65 3f3d baa0 b83e dea0 433d 8bd5 8dbd
00000130: f920 f4bd 3e60 b5bd 3b48 a03c c268 cbbd
00000140: e034 e03d a4b8 b1bd ecae 263e 4b31 58be
00000150: af26 54bd 7efe c53d 00fe 05bc 8b6e a2bd
00000160: 8484 483c 80c5 79bd 8a38 b1ba 7345 0abe
00000170: 3d11 07b4 972f 38bc ccdf 8fbd bb8b 85be
00000180: 8ba3 64be bb6b a93e a990 a1bd d828 873b
00000190: 2522 7b3d 5ab4 75bd 5a9f 923d a9b4 173e
000001a0: 8f22 3cbd 7e50 683c 16f2 0fbe 8164 173d
000001b0: 02ec c1bd 0bca 173d f502 91bd 1a95 83be
000001c0: f8ee 33bd 8276 d4bc 3b10 4c3d 0532 893c
000001d0: 9f90 0fbe ee97 15bd 421e 31be ad2f 42bd
000001e0: 5da8 e5bd e615 31bc 12c8 16bd ca20 cfbc
000001f0: 2ae8 d13d 164b 65bd bd83 1dba 7041 26be

feature.2.weight f4 [128, 128]
-0.17012697 0.023766458 0.27476147 0.12080702 -0.27953026 0.14969818 -0.055141248 0.04208401
-0.082393184 -1.2129727e-06 0.08778662 0.11190576 -0.17286424 -0.024359908 0.6526275 -0.1981656
-0.14760813 0.13585718 0.27983892 0.34467182 0.20572658 0.28186163 0.027349299 0.4322374
0.071676105 -0.08329339 -0.08006347 0.44914755 -0.06833864 0.060509223 0.48473287 0.0018605159
0.1656164 0.0016860014 0.53485924 0.16995178 -0.094943866 -0.13957117 -0.011466666 0.16685285
0.10472032 0.19116841 -0.16773678 -0.042530917 -0.41798005 0.053119093 0.15032291 0.04206488
0.07760184 0.06226046 -0.13017148 -0.20731351 0.021932438 0.33382735 0.13898273 -0.008225042
-0.061339412 -0.14357996 0.018341715 -0.056614216 0.14795701 -0.08066717 -5.8891e-40 0.20919207
0.30538973 -0.16036327 -0.018653503 0.104728885 0.21963696 0.255191 -0.1771874 -0.040802494
0.12686427 -0.2985294 0.35317364 0.09026159 0.088212475 0.17975795 0.014787143 0.30029592
-0.06987968 0.25483817 0.41018328 0.20622961 -0.08087379 0.06983901 0.206606 0.11902709
0.04672738 0.22500429 -0.3203596 -0.16234814 2.8344148e-38 0.19729006 -0.1753873 0.053909462
0.307392 -0.23296304 0.16289864 -0.34202734 -0.21082012 0.004528057 0.03100503 -0.12405128
-0.05143651 0.00150316 0.059816796 0.04363182 0.16077368 -0.056350674 -0.009982332 -0.28007922
0.3150741 0.07137039 0.107779756 -0.1854574 -0.07062334 0.09125389 0.044286866 0.31116268
-0.19339345 -0.15768588 0.2463759 0.08757783 -0.09502591 0.2031716 -0.121939346 0.20415573
0.17701443 0.076237924 0.097196914 0.06214698 -0.1366907 0.20646855 -0.59382063 0.171263
0.16954972 8.0274996e-09 0.04114169 0.014193159 -0.37952852 0.087958984 0.12600464 -0.025489615
-0.023471767 0.03288154 -0.21918115 0.11779673 0.0035044218 0.014753209 0.0593484 -0.045589603
0.8175649 -0.026418896 0.14278997 0.12658626 -0.36349785 -0.14731438 0.45530558 0.0048155882
0.4558659 0.02134495 0.017296856 -0.20725329 0.19853255 -1.1393393 -0.054286234 0.26293495
-0.24691424 0.0052367593 0.040629853 0.17754188 -0.21706513 0.17332746 0.09599657 0.16485925
0.06433769 -0.030059375 0.034233566 -0.13393408 0.2614344 -0.35662365 0.076829225 -0.46699342
0.12472242 0.83393055 -0.15070358 0.2627349 -0.014902482 0.066722184 -1.7348528e-38 -0.23394418
0.15075417 0.04835649 -0.02531871 0.1872333 -0.52908105 -0.3031291 0.19332308 0.18659195
0.065486684 -0.119909026 0.22556624 -0.065365 0.0037546898 0.072094776 -0.12173066 0.3224813
0.07285322 0.058430362 0.11696873 0.10999711 0.21364251 0.580226 0.22470346 0.044616655
-0.17835023 0.092353225 0.09882485 0.107074 -1.909604e-39 0.19046348 -0.25199214 0.13688736
0.0047152666 0.05698596 0.14334829 0.17754944 -0.09309758 0.0018519596 -0.49673295 -0.07930167
0.05672084 0.006704001 0.4312153 0.0013528571 0.30606893 -0.03850513 -0.040310793 0.1260972
0.30980325 0.045713514 0.18866318 -0.8612585 -0.0004886089 0.034602523 0.8538356 -0.050430298
0.24431843 0.14034641 0.17135692 0.041660953 -0.021820905 -0.02659996 -1.2102222 -0.09268847
00000000: c435 2ebe e0b1 c23c 89ad 8c3e ac69 f73d
00000010: 971e 8fbe 7b4a 193e cadb 61bd 4860 2c3d
00000020: c2bd a8bd 6dcd a2b5 79c9 b33d d92e e53d
00000030: 5303 31be 6e8e c7bc 9912 273f eceb 4abe
00000040: 9626 17be 251e 0b3e 0c47 8f3e d378 b03e
00000050: fda9 523e 2b50 903e a30b e03c 384e dd3e
00000060: ecca 923d ba95 aabd 51f8 a3bd abf6 e53e
00000070: 21f5 8bbd 85d8 773d e82e f83e 8edc f33a
00000080: 5897 293e d2fc dc3a 89ec 083f d707 2e3e
00000090: ee71 c2bd bfeb 0ebe afde 3bbc 79db 2a3e
000000a0: 9b77 d63d a7c1 433e 31c3 2bbe e634 2ebd
000000b0: 7b01 d6be 6893 593d 40ee 193e 394c 2c3d
000000c0: b7ed 9e3d d304 7f3d ac4b 05be fe49 54be
000000d0: a8ab b33c 6beb aa3e 7d51 0e3e 54c2 06bc
000000e0: 093f 7bbd a006 13be 5d41 963c 4fe4 67bd
000000f0: 0b82 173e d434 a5bd a469 0680 7236 563e
00000100: 0b5c 9c3e 4536 24be 3bcf 98bc 197c d63d
00000110: 83e8 603e 65a8 823e 9d70 35be 8420 27bd
00000120: b5e8 013e d8d8 98be 2dd3 b43e 12db b83d
00000130: bea8 b43d 7812 383e c645 723c 63c0 993e
00000140: 141d 8fbd 267a 823e 8b03 d23e db2d 533e
00000150: 28a1 a5bd c107 8f3d 8690 533e 7ac4 f33d
00000160: 3665 3f3d 8667 663e 2c06 a4be 973e 26be
00000170: fa51 1a01 6806 4a3e ba98 33be 2bd0 5c3d
00000180: 7c62 9d3e dd8d 6ebe e7ce 263e 351e afbe
00000190: 3be1 57be 1860 943b 43fe fd3c 990e febd
000001a0: 17af 52bd ae05 c53a 7502 753d 47b7 323d
000001b0: dba1 243e f7cf 66bd ef8c 23bc 8b66 8fbe
000001c0: 6451 a13e a42a 923d a2bb dc3d 8be8 3dbe
000001d0: f8a2 90bd 52e3 ba3d 2566 353d b750 9f3e
000001e0: ef08 46be 6878 21be f749 7c3e 015c b33d
000001f0: f29c c2bd 370c 503e 56bb f9bd 330e 513e
00000200: 4543 353e a122 9c3d 2d0f c73d d58d 7e3d
00000210: a6f8 0bbe 7e6c 533e a104 18bf 915f 2f3e
00000220: 719e 2d3e 51e9 0932 3084 283d 6c8a 683c
00000230: 9051 c2be d723 b43d 5c07 013e 99cf d0bc
00000240: dd47 c0bc cbae 063d 0671 60be 693f f13d
00000250: 71aa 653b 72b7 713c 4f17 733d 2abc 3abd
00000260: ef4b 513f 716c d8bc 8937 123e d49f 013e
00000270: 641c babe 95d9 16be d01d e93e 15cc 9d3b
00000280: 4167 e93e 9bdb ae3c 23b2 8d3c 353a 54be
00000290: 1e4c 4b3e dfd5 91bf 3e5b 5ebd 699f 863e
000002a0: 16d7 7cbe 1f99 ab3b 7d6b 263d 8acd 353e
000002b0: 5246 5ebe c17c 313e da99 c43d ddd0 283e
000002c0: 7bc3 833d 143f f6bc 7f38 0c3d 0426 09be
000002d0: bbda 853e 6097 b6be a458 9d3d c319 efbe
000002e0: 786e ff3d 797c 553f 0a52 1abe 3085 863e
000002f0: 8a29 74bc a4a5 883d a3e8 bc80 108f 6fbe
00000300: 4d5f 1a3e 7411 463d 2f69 cfbc 16ba 3f3e
00000310: db71 07bf bd33 9bbe 7cf6 453e f611 3f3e
00000320: e21d 863d dd92 f5bd d6fa 663e 16de 85bd
00000330: 3e11 763b 6da6 933d ed4d f9bd 451c a53e
00000340: 1234 953d ad54 6f3d 4d8d ef3d 2a46 e13d
00000350: 1ac5 5a3e b189 143f aa18 663e f4bf 363d
00000360: 71a1 36be b023 bd3d af64 ca3d 9d49 db3d
00000370: 33cb 1480 dc08 433e 1d05 81be 332c 0c3e
00000380: 8682 9a3b 1c6a 693d e5c9 123e 85cf 353e
00000390: f2a9 bebd 74bd f23a c853 febe ea68 a2bd
000003a0: 1d54 683d 3dad db3b 40c8 dc3e 5a52 b13a
000003b0: 11b5 9c3e 8eb7 1dbd ee1c 25bd a01f 013e
000003c0: 889e 9e3e 183e 3b3d ec30 413e 707b 5cbf
000003d0: fd15 00ba 60bb 0d3d f894 5a3f 0090 4ebd
000003e0: 9c2e 7a3e f8b6 0f3e 3078 2f3e ada4 2a3d
000003f0: c1c1 b2bc 29e8 d9bc 90e8 9abf 74d3 bdbd

feature.2.bias f4 [128]
-0.084216475 -0.3034663 -1.5687289e-07 -0.04617309 -0.023383746 -0.121537395 0.19369175 -0.0937855
0.23988913 0.23410593 -0.0009819221 -8.2252285e-07 -0.21160908 -0.017458323 -0.16646795 -0.27997595
0.85019064 -1.7532622e-05 -0.017758435 -0.002885218 -0.42724687 -0.048350528 -0.009507205 -0.29897177
-0.5130304 0.49181852 -0.044096783 -0.045447115 0.091356575 0.16926555 -0.178165 0.57437634
-0.17805122 -0.42025247 -0.1897225 -0.18573111 -0.215667 0.11846382 -0.2847851 -0.00417302
-0.10518272 -0.16276477 -0.015130589 -0.2424504 0.10231183 -2.250016e-05 -0.21592882 -0.036000594
0.6246824 -1.9331757e-05 0.059439212 -0.108882934 -7.673034e-08 -9.05563e-16 -0.3021716 -7.987843e-08
-0.03778792 0.05529007 0.094217435 0.04911107 -0.0015354085 -2.5403878e-08 0.04208676 -0.14323138
-0.037517983 -0.16393295 -0.15912294 -0.12091835 0.27992862 0.6863543 0.18037775 -0.00012515325
-0.30011442 0.02704603 -0.2224858 0.1978494 -0.13630961 -0.22018735 -0.052362144 -0.031706285
-0.03676232 -0.12057107 -0.3113566 -2.354734e-29 -0.21033931 -0.14333034 -0.06491606 0.094137035
-5.5336914e-06 -0.10930364 0.19881941 -0.41747004 0.18376823 -0.22738357 -0.01240969 -2.5359664e-06
0.005799019 -0.12923373 -0.10978117 0.11878934 -1.2541869e-20 0.1188598 -1.09877715e-14 -0.17920661
0.14376071 -0.083886676 -0.076910816 -0.18226783 -0.037799302 -0.032398224 0.17125642 -0.009623859
-0.0050042365 -0.14289065 0.05557167 -0.13942549 0.24018867 -0.061402183 -0.06976366 -0.37785232
0.2893779 -0.15957469 -0.022999253 0.44980016 -3.066526e-06 -2.2050994e-23 -0.39835352 0.0970312
00000000: b079 acbd ef5f 9bbe e470 28b4 fe1f 3dbd
00000010: 458f bfbc 99e8 f8bd 2157 463e 9d12 c0bd
00000020: 7fa5 753e 77b9 6f3e d7b3 80ba 57cb 5cb5
00000030: 0db0 58be c204 8fbc 9376 2abe 0259 8fbe
00000040: 18a6 593f 0513 93b7 237a 91bc ed15 3dbb
00000050: 1ac0 dabe 340b 46bd 1cc4 1bbc d412 99be
00000060: f655 03bf a3cf fb3e d49e 34bd c126 3abd
00000070: 2819 bb3d f353 2d3e e370 36be 540a 133f
00000080: 0f53 36be 552b d7be 9d46 42be 4c30 3ebe
00000090: cfd7 5cbe 299d f23d 5acf 91be d4bd 88bb
000000a0: 0a6a d7bd cfab 26be 4ae6 77bc eb44 78be
000000b0: dd88 d13d babe bcb7 721c 5dbe 5c75 13bd
000000c0: 30eb 1f3f a22a a2b7 8876 733d 04fe debd
000000d0: f3c6 a4b3 6181 82a6 3cb6 9abe a289 abb3
000000e0: 82c7 1abd d777 623d 12f5 c03d b028 493d
000000f0: c33f c9ba b837 dab2 2b63 2c3d 3fab 12be
00000100: 75ac 19bd 0ade 27be 20f1 22be 0aa4 f7bd
00000110: ce52 8f3e eab4 2f3f f2b4 383e 923b 03b9
00000120: 99a8 99be a38f dd3c 51d3 63be 0899 4a3e
00000130: bf94 0bbe cb78 61be b079 56bd 73de 01bd
00000140: 1694 16bd f7ed f6bd 226a 9fbe 64cc ee8f
00000150: 3063 57be 30c5 12be b6f2 84bd ebca c03d
00000160: 0cae b9b6 96da dfbd 5197 4b3e a2be d5be
00000170: bd2d 3c3e 3dd7 68be 0352 4bbc 922f 2ab6
00000180: b205 be3b d955 04be f3d4 e0bd d347 f33d
00000190: c2e8 6c9e c46c f33d 27f0 45a8 f081 37be
000001a0: 0236 133e c7cc abbd 6b83 9dbd 6ba4 3abe
000001b0: 71d3 1abd 00b4 04bd d85d 2f3e 64ad 1dbc
000001c0: 94fa a3bb ed51 12be 1f9f 633d 8ec5 0ebe
000001d0: 05f4 753e db80 7bbd 40e0 8ebd dc75 c1be
000001e0: 5729 943e 8c67 23be ee68 bcbc 354c e63e
000001f0: 84ca 4db6 9e43 d599 fef4 cbbe 4bb8 c63d

advantage.0.weight f4 [64, 128]
0.13299012 1.0442545 -9.839094e-19 0.24684837 0.5202905 0.43137717 0.20981479 0.15360223
0.4178766 -0.44110647 2.1421238e-07 -3.0633674e-17 0.18135476 -0.5610466 0.91710746 0.039798032
0.10377604 6.615948e-19 -0.004540993 2.5760954e-05 -0.24077134 -0.31773743 -0.0008088082 0.14141494
0.056316428 0.28329304 0.005207396 -0.020526884 -0.6335792 -0.435915 0.77962387 0.2049308
-0.18923625 0.24548195 0.3400252 -0.63962746 0.5952967 -0.42348978 0.47252336 0.36307526
0.6388377 0.10707304 -0.0062348037 0.103096716 0.46673414 -3.2150023e-05 0.090953775 -0.3859385
-0.28952798 -3.6900247e-09 0.44187883 -0.025320869 -7.2407643e-19 1.3001795e-10 1.0002582 6.02773e-07
-0.020910433 -0.33935004 -0.032345984 -0.28767273 5.8701993e-05 -9.157228e-23 -0.016827447 0.20002557
0.919437 -0.58389056 0.5711895 -0.29819906 0.48077852 -0.28054667 -0.75827867 0.0001332111
0.010736544 -0.14980097 0.13882601 0.0699829 -0.20961428 0.096829124 0.3652213 -0.0020653955
-0.01671993 -0.045919925 -0.15849216 -2.529773e-38 -0.38289532 -0.09249189 0.0034259935 -0.4821902
-3.875278e-11 0.07550644 0.080622606 0.13382085 0.022094259 -0.33299884 -0.186815 7.5625124e-16
-0.14299184 -0.35323185 -0.53061396 0.19145659 -2.1269282e-38 -0.4113398 3.73581e-33 -0.06983873
-0.3218242 0.16863221 -0.023673186 0.26118642 0.00045925516 -0.54081804 -0.15843943 0.0004210568
-0.09901392 -0.071188495 0.3050497 0.23563364 0.0024110072 -0.29084495 0.10943296 -0.90637165
0.004307382 -0.064853884 -0.024297347 0.1934834 9.296844e-10 -1.866235e-39 -0.17487173 -0.6550916
-0.042936973 -0.011152771 1.2223986e-38 -0.011440819 -0.008733864 -0.02550439 -0.027993228 -0.004761688
-0.014195126 -0.022389118 -2.395054e-38 -2.9783355e-38 -0.003403155 -0.0019411107 -0.01345326 -0.0034502414
-0.03504425 2.2102053e-38 1.5306787e-38 5.6674e-41 -0.011821531 -0.014231072 1.7128856e-38 -0.00086324837
-0.005839779 -0.017309386 -0.028654497 -0.015710106 -0.020799335 3.5653655e-05 -0.019831177 -0.043279156
-0.015024698 -0.0047822045 -0.016786113 -0.014217507 -0.025142701 -0.009907416 -0.011185516 -0.019807145
-0.036015026 -0.0028339818 4.676509e-39 -0.0025340808 -0.0056628888 -8.278462e-39 -0.009520291 -0.0054210164
-0.030979617 1.01586e-40 -0.008531771 -0.0042227046 2.3683867e-38 -7.454506e-38 -0.011351768 -1.3189565e-38
-2.157818e-38 -0.0053469758 -0.012481636 -0.00016272663 -7.892432e-39 -1.4816478e-38 -0.0013635156 -0.010193378
-0.007892958 -0.00021348323 -0.011403969 -0.023838667 2.9867746e-05 -0.014033136 -0.016296884 1.6711235e-38
-0.016440459 -0.009513177 -0.0013030892 -0.004961944 -0.048834 -0.017446265 -0.010771021 8.156451e-39
-3.939089e-39 -0.038960434 -0.00869976 2.014397e-39 -0.00012124999 -0.00090999954 6.329497e-39 -0.002714367
-3.2738e-39 -0.015052146 -0.013771469 -0.010208636 -0.027522648 -0.017731866 -0.008298213 -5.075196e-38
-0.004892389 -0.0057104467 -0.004012101 -0.014447383 1.22638e-38 -0.0062802956 2.2219555e-38 -0.013906909
-0.004973873 -0.012093477 5.0677735e-38 -0.022257173 -2.5476047e-23 -0.0006366192 -0.005033166 1.6983443e-38
-0.0021395134 -0.002820664 -0.024720749 -0.002191108 -0.021724463 -0.011028598 -0.0037343442 -0.018102543
-0.03143837 -0.0040665516 -0.030280666 -0.040274058 9.650582e-38 8.63326e-39 2.156994e-07 -0.0021504944
00000000: 902e 083e 22aa 853f 0c33 91a1 d2c5 7c3e
00000010: c231 053f 78dd dc3e b0d9 563e e749 1d3e
00000020: ecf3 d53e b5d8 e1be 4002 6634 dc45 0da4
00000030: 10b5 393e c0a0 0fbf 8ec7 6a3f 4303 233d
00000040: 8888 d43d b144 4321 9ccc 94bb 3a19 d837
00000050: c38c 76be 7bae a2be 3306 54ba 14cf 103e
00000060: 0eac 663d c90b 913e cea2 aa3b ff27 a8bc
00000070: 3f32 22bf 4030 dfbe 6e95 473f 61d9 513e
00000080: 26c7 41be 9f5f 7b3e c817 ae3e a0be 23bf
00000090: 5d65 183f a7d3 d8be 95ee f13e 00e5 b93e
000000a0: de8a 233f 1c49 db3d 534d ccbb 5f24 d33d
000000b0: c7f7 ee3e d3d8 06b8 f945 ba3d bb99 c5be
000000c0: 033d 94be 9a93 7db1 f13d e23e b66d cfbc
000000d0: abb5 55a1 cdf4 0e2f 7608 803f 3fce 2135
000000e0: 5b4c abbc 4abf adbe 397d 04bd d749 93be
000000f0: c936 7638 7f68 dd9a b7d9 89bc 81d3 4c3e
00000100: 3960 6b3f da79 15bf 7a39 123f 8cad 98be
00000110: 9a28 f63e d0a3 8fbe 8d1e 42bf 95ae 0b39
00000120: 54e8 2f3c 6d65 19be 6828 0e3e 3253 8f3d
00000130: 20a5 56be 594e c63d 49fe ba3e 965b 07bb
00000140: 3cf8 88bc 8816 3cbd c54b 22be e4bb 0981
00000150: db0a c4be 636c bdbd a286 603b a2e1 f6be
00000160: c06f 2aae 1fa3 9a3d 771d a53d 5508 093e
00000170: 05ff b43c d37e aabe 6e4c 3fbe 7ef9 5926
00000180: 746c 12be ceda b4be 51d6 07bf 320d 443e
00000190: 1b9a e780 219b d2be f22d 9b09 9c07 8fbd
000001a0: 24c6 a4be ecad 2c3e 45ee c1bc 3aba 853e
000001b0: 2fc8 f039 0d73 0abf f23d 22be 49c1 dc39
000001c0: cfc7 cabd 46cb 91bd 792f 9c3e f249 713e
000001d0: fd01 1e3b a1e9 94be 631e e03d f907 68bf
000001e0: f024 8d3b 1dd2 84bd 3b0b c7bc 8320 463e
000001f0: b98c 7f30 4e52 1480 9311 33be 15b4 27bf
00000200: aede 2fbd 1dba 36bc 801b 8500 4672 3bbc
00000210: 7b18 0fbc 95ee d0bc 0e52 e5bc ef07 9cbb
00000220: ac92 68bc 6269 b7bc 2e66 0281 f027 2281
00000230: 7707 5fbb de6c feba 106b 5cbc 721d 62bb
00000240: 8f8a 0fbd 88ab f000 18ad a600 fc9d 0000
00000250: 18af 41bc 7129 69bc 4884 ba00 9e4b 62ba
00000260: 9e5b bfbb 6acc 8dbc d6bc eabc 7bb2 80bc
00000270: 5e63 aabc d28a 1538 fe74 a2bc 7c45 31bd
00000280: 272a 76bc 0ab4 9cbb 0883 89bc 8cf0 68bc
00000290: 11f8 cdbc b752 22bc 7443 37bc 9842 a2bc
000002a0: 7e84 13bd 53ba 39bb 34ec 3200 d212 26bb
000002b0: c18f b9bb fc24 5a80 fffa 1bbc c8a2 b1bb
000002c0: f7c8 fdbc 2e1b 0100 d7c8 0bbc 9d5e 8abb
000002d0: 7ef2 0001 53ee ca81 c4fc 39bc 249f 8f80
000002e0: 30f7 ea80 af35 afbb c77f 4cbc 99a1 2ab9
000002f0: e4f0 5580 5056 a180 feb7 b2ba 2002 27bc
00000300: 7751 01bc 78da 5fb9 b6d7 3abc 4f49 c3bc
00000310: 7f8c fa37 3deb 65bc 0b81 85bc 20f8 b500
00000320: 24ae 86bc 28dd 1bbc 6bcc aaba ce97 a2bb
00000330: 2906 48bd 78eb 8ebc f078 30bc ded0 5800
00000340: 94e4 2a80 fa94 1fbd 7089 0ebc 52ef 1500
00000350: 9847 feb8 098d 6eba 10ec 4400 85e3 31bb
00000360: 06a6 2380 479d 76bc baa1 61bc 1f42 27bc
00000370: 2d77 e1bc 6b42 91bc 3af5 07bc f428 8a81
00000380: 5550 a0bb b31e bbbb f177 83bb b7b4 6cbc
00000390: 7c8a 8500 f0ca cdbb 14f3 f100 ced9 63bc
000003a0: dffb a2bb b823 46bc 3af5 8901 ad54 b6bc
000003b0: a363 f699 cbe2 26ba 42ed a4bb eeee b800
000003c0: 1437 0cbb e4da 38bb 2b83 cabc b198 0fbb
000003d0: 80f7 b1bc 4bb1 34bc e6bb 74bb c94b 94bc
000003e0: 85c5 00bd b540 85bb 290f f8bc 69f6 24bd
000003f0: 5f5b 0302 0402 5e00 009b 6734 4fef 0cbb

advantage.0.bias f4 [64]
0.21387362 -0.07062052 -0.011135892 -0.017333193 -0.0037445473 0.123907186 -0.08292399 -1.0413816e-12
-0.02464079 0.045121446 -0.04539134 -0.0015947678 0.083703905 -0.103895605 -8.723575e-11 -2.194385e-09
-4.9718415e-06 0.11567144 0.2699109 -0.0013682169 -0.15720356 0.10431716 -1.1032956e-09 0.14597468
-0.06852849 -0.102547795 -0.06998144 -5.5849217e-25 -0.005465391 -0.11174409 0.06361309 -2.9600875e-05
-0.012471213 -0.2016586 0.11841927 0.14739686 -0.043376822 -5.2059765e-09 -1.16393934e-07 1.4694815e-05
-1.0733497e-09 -0.001837098 -0.12953164 -0.10572666 -1.8024922e-10 0.3905823 -1.9021546e-14 -0.051313363
-0.027530732 -2.227911e-32 -0.089477204 -5.3147458e-05 0.25085965 0.23306668 -0.022112798 -0.035520986
0.30163258 0.052270886 -0.00034575578 -0.028376184 0.19069444 -0.15809351 0.2004077 -0.053637125
00000000: b001 5b3e 7ea1 90bd 5173 36bc 57fe 8dbc
00000010: 1467 75bb 0dc3 fd3d 0ed4 a9bd ba8f 92ab
00000020: 7bdb c9bc 44d1 383d 45ec 39bd 8707 d1ba
00000030: f46c ab3d 38c7 d4bd 5dd5 bfae 07cc 16b1
00000040: cbd3 a6b6 26e5 ec3d c331 8a3e be55 b3ba
00000050: f8f9 20be 3ca4 d53d c3a2 97b0 637a 153e
00000060: aa58 8cbd 9404 d2bd 6e52 8fbd 4fd8 2c97
00000070: 0617 b3bb 16da e4bd 9447 823d 654f f8b7
00000080: 0f54 4cbc 987f 4ebe cd85 f23d 34ef 163e
00000090: e5ab 31bd 41e0 b2b1 3ef4 f9b3 c089 7637
000000a0: 2385 93b0 c8ca f0ba f1a3 04be 3887 d8bd
000000b0: a52f 46af 67fa c73e b354 aba8 f62d 52bd
000000c0: 2188 e1bc 095c e78a d33f b7bd a6ea 5eb8
000000d0: ad70 803e 08a9 6e3e e625 b5bc 747e 11bd
000000e0: 966f 9a3e ff19 563d 8e46 b5b9 2c75 e8bc
000000f0: 6745 433e 44e3 21be ad37 4d3e 9ab2 5bbd

advantage.2.weight f4 [36, 64]
0.2764351 0.068617225 0.0033916475 0.25118688 0.00047020882 -0.30049396 0.28749815 6.0794775e-07
0.20969164 0.6767868 0.3435881 -0.000108178414 0.14720589 0.02255692 8.824991e-08 -3.0103249e-05
-0.00032728043 -0.1311258 0.029881902 -0.0018874914 0.13262868 -0.19423503 -1.1010415e-05 -0.08284509
-0.012567548 0.1529799 -0.010794032 1.26579615e-11 -0.0031644697 0.17048699 0.0023224202 0.0034038944
0.059860375 0.3059062 0.16968653 -0.22090161 0.2740172 -6.69091e-06 3.6957879e-06 0.17927042
-8.471052e-06 0.0052213804 0.26262352 0.2464992 -3.930038e-05 -1.4401244 -4.251276e-08 0.30711868
-0.038821373 -5.103096e-35 0.33318037 -0.00029401915 -0.28234893 -0.20313804 -0.005036335 0.0048589725
0.031570096 0.16630702 -0.0030249269 0.3209048 -1.5169768 0.25381526 -0.22428589 0.22882748
0.053831775 0.027234603 -0.006199148 -0.16634329 0.0016622595 -0.40894464 0.25321817 -1.88823e-30
0.30631584 0.45595798 0.682269 1.43067455e-05 0.23603818 -0.24403805 -5.7163797e-15 -8.70037e-05
-7.003054e-11 -0.42802456 0.24293722 0.00035679844 0.37745994 0.07142762 -1.1578931e-09 -0.37829354
0.00049100677 0.19881408 -0.10822697 3.253271e-39 -2.9891802e-05 -0.11950779 -0.39212134 -6.7429666e-11
-0.10063089 -0.53577507 -0.9972673 -0.03694408 -0.37027115 5.969924e-07 1.4800028e-10 -0.5340499
-4.5622704e-07 -4.6901655e-06 0.030914674 -0.11122032 5.1766556e-06 -0.6381994 1.1354638e-37 -0.10736093
0.1869494 9.610183e-39 1.334001 -1.3385214e-05 -0.23314878 -0.23385377 0.00010672656 -0.17867704
0.01612571 0.023417564 0.0013504173 0.905486 -0.7629751 -0.10368944 0.29144785 -1.6273732
-0.43661058 -0.0041942433 0.009088484 -0.67476225 -5.9277343e-05 -0.08388485 0.20781969 2.8332312e-20
-0.0143381385 0.28303397 0.49903116 0.0017135759 0.31537497 -0.17237227 7.0778645e-15 1.8525557e-06
5.183334e-08 -0.037245363 0.35624504 -2.6815012e-05 0.37775275 0.201138 8.844586e-07 -0.22028464
0.021698661 0.31706104 0.31262475 -7.91904e-39 0.001096098 -0.058361307 -0.07508319 -2.8409635e-05
-0.065947406 0.11748885 -0.23346965 -0.09404171 -0.86243784 -4.6311524e-09 -8.683211e-06 0.0432936
-3.087106e-07 -0.0010946158 0.31838816 0.31638083 9.4404946e-08 -0.460186 7.829576e-11 0.1860306
0.3011285 -2.2684301e-38 0.031804733 0.0020451972 -2.57611 0.18236089 0.028518286 -0.092959404
0.01107598 -0.3999963 0.0028381855 -0.32803333 0.037717555 0.1209273 0.38136327 -0.2292324
-0.23938733 0.026018068 0.013130374 -1.3751388 -0.00097069587 0.40193868 0.105999686 -3.6942362e-07
0.014099614 0.108321615 0.21534482 5.4500088e-05 0.40776464 -0.32421166 2.0881675e-12 9.538544e-07
1.0410869e-05 0.30069175 0.48171908 0.0007309227 0.55910426 0.116915055 -7.017164e-07 -0.45463037
-0.074481495 0.27886102 0.19880186 3.990091e-39 -0.0021504646 -0.14763963 -0.16452916 5.0861167e-06
0.28235877 0.49283555 -0.10655918 -0.18143019 -1.4182895 5.7325398e-08 -1.3589878e-06 -0.023843812
3.3372038e-10 -0.0006983591 -0.36922768 -0.14628787 3.5491285e-09 0.014998214 -7.230979e-15 -0.29445076
0.50765246 1.3407296e-38 0.24044056 -0.004609216 -0.22733803 0.2841903 -0.00059292914 -0.048843928
-0.2939167 -1.124222 0.0016085169 -1.8359476 0.37939668 0.060525905 0.6947743 -0.25479814
00000000: e788 8d3e 3087 8c3d 6746 5e3b 919b 803e
00000010: 5c86 f639 58da 99be f532 933e da31 2335
00000020: 68b9 563e e641 2d3f c8ea af3e d8dd e2b8
00000030: 24bd 163e 4ac9 b83c e783 bd33 3c86 fcb7
00000040: d696 abb9 d745 06be e4ca f43c b465 f7ba
00000050: d0cf 073e 8ce5 46be 5fb9 38b7 b0aa a9bd
00000060: 1ee8 4dbc c3a6 1c3e 74d9 30bc 64ae 5e2d
00000070: fe62 4fbb 2494 2e3e bf33 183b df13 5f3b
00000080: 2730 753d bd9f 9c3e 4ec2 2d3e 0834 62be
00000090: fc4b 8c3e 7b82 e0b6 2705 7836 aa92 373e
000000a0: e41e 0eb7 1d18 ab3b 9776 863e 496a 7c3e
000000b0: 76d6 24b8 ff55 b8bf 4697 36b3 a93e 9d3e
000000c0: 2903 1fbd dfa9 8786 9e96 aa3e 9526 9ab9
000000d0: 0a90 90be 6b03 50be d707 a5bb 0438 9f3b
000000e0: a54f 013d 634c 2a3e da3d 46bb a24d a43e
000000f0: 4c2c c2bf 13f4 813e 33ab 65be c051 6a3e
00000100: b57e 5c3d 1a1b df3c 3922 cbbb e555 2abe
00000110: 2ce0 d93a 3161 d1be d0a5 813e 0131 198e
00000120: 6ed5 9c3e 5373 e93e 2ea9 2e3f 0107 7037
00000130: feb3 713e 1ce5 79be 4cf4 cda7 c175 b6b8
00000140: b0ff 99ae 0926 dbbe 89c4 783e ad10 bb39
00000150: 6e42 c13e a548 923d be23 9fb0 b1af c1be
00000160: e8b6 003a eb95 4b3e 1aa6 ddbd cc6c 2300
00000170: 28c0 fab7 80c0 f4bd 21c4 c8be 8747 94ae
00000180: 9117 cebd 8e28 09bf e94c 7fbf ad52 17bd
00000190: 2e94 bdbe 0141 2035 60ba 222f 7fb7 08bf
000001a0: 5eef f4b4 3760 9db6 c540 fd3c 7bc7 e3bd
000001b0: 22b3 ad36 0961 23bf 248d 1a02 0ce0 dbbd
000001c0: aa6f 3f3e 48a5 6800 8bc0 aa3f 0e91 60b7
000001d0: 8ebe 6ebe 5d77 6fbe 63d2 df38 1df7 36be
000001e0: 111a 843c 31d6 bf3c 7c00 b13a eecd 673f
000001f0: 5652 43bf 215b d4bd a738 953e c44d d0bf
00000200: 6c8b dfbe dd6f 89bb dde7 143c 38bd 2cbf
00000210: 90a0 78b8 d2cb abbd afce 543e aacb 051f
00000220: 83ea 6abc d4e9 903e 0381 ff3e 119a e03a
00000230: d478 a13e 5b82 30be c701 ff27 54a5 f835
00000240: 5c9f 5e33 988e 18bd c065 b63e cdf0 e0b7
00000250: cf68 c13e 1ff7 4d3e 886b 6d35 4c92 61be
00000260: 64c1 b13c d355 a23e 5a10 a03e 103b 5680
00000270: f2aa 8f3a 440c 6fbd 37c5 99bd 3a51 eeb7
00000280: 6f0f 87bd ff9d f03d ab12 6fbe f198 c0bd
00000290: bac8 5cbf 0c20 9fb1 1bae 11b7 a154 313d
000002a0: ddbc a5b4 3679 8fba c603 a33e abfc a13e
000002b0: abbb ca33 809d ebbe 982c ac2e ce7e 3e3e
000002c0: 842d 9a3e 9a02 f780 ae45 023d b708 063b
000002d0: fcde 24c0 d0bc 3a3e 2e9f e93c 8061 bebd
000002e0: 0778 353c 51cc ccbe da00 3a3b fcf3 a7be
000002f0: b97d 1a3d bba8 f73d 0c42 c33e e6bb 6abe
00000300: f421 75be d823 d53c c820 573c 8c04 b0bf
00000310: 4c76 7eba e8ca cd3e 5d16 d93d 3255 c6b4
00000320: 1102 673c b9d7 dd3d 5a83 5c3e 0697 6438
00000330: 87c6 d03e 12ff a5be 15f1 122c 3006 8035
00000340: 58aa 2e37 45f4 993e e2a3 f63e 649b 3f3a
00000350: 7521 0f3f 2971 ef3d 955d 3cb5 50c5 e8be
00000360: c189 98bd dfc6 8e3e b792 4b3e c072 2b00
00000370: cfee 0cbb d82e 17be 557a 28be 69a9 aa36
00000380: 5491 903e f154 fc3e b33b dabd d6c8 39be
00000390: 838a b5bf f135 7633 7766 b6b5 1954 c3bc
000003a0: f876 b72f 1612 37ba 690b bdbe 7dcc 15be
000003b0: eee4 7331 12bb 753c 0143 02a8 40c2 96be
000003c0: 83f5 013f 16fe 9100 0d36 763e e808 97bb
000003d0: 4dcb 68be 6481 913e cd6e 1bba 9210 48bd
000003e0: 407c 96be 82e6 8fbf dfd4 d23a 5500 ebbf
000003f0: 4840 c23e 03ea 773d bbdc 313f e774 82be

advantage.2.bias f4 [36]
-0.33669162 0.046008978 -0.13165812 0.08215237 0.01760899 -0.32842034 0.18698755 0.07489986
0.18451889 0.08984664 0.25102893 -0.0054305466 -0.010069585 -0.1762483 0.06404528 0.10468607
0.09038426 -0.11039933 0.13553418 -0.056555334 0.2495031 0.22381873 0.15190881 -0.05255231
0.21499951 0.33097985 0.058123354 -0.1381233 0.21869402 0.07941166 -0.699175 0.099383816
0.27930492 -0.08903649 -0.08955146 0.4525402
00000000: d862 acbe e973 3c3d 63d1 06be 803f a83d
00000010: bb40 903c b626 a8be aa79 3f3e 1965 993d
00000020: 85f2 3c3e 8401 b83d dd86 803e baf2 b1bb
00000030: e7fa 24bc 6f7a 34be 2c2a 833d a665 d63d
00000040: 621b b93d 0b19 e2bd 79c9 0a3e 91a6 67bd
00000050: be7d 7f3e bd30 653e fc8d 1b3e 1741 57bd
00000060: d528 5c3e 3176 a93e c112 6e3d 3270 0dbe
00000070: 53f1 5f3e 95a2 a23d 22fd 32bf be89 cb3d
00000080: 0e01 8f3e c358 b6bd c266 b7bd 59b3 e73e

value.0.weight f4 [64, 128]
2.354876e-39 3.00798e-39 -1.4184316e-38 2.5779038e-38 -8.71889e-39 1.3371829e-38 1.5995177e-38 -1.2056629e-38
4.6478413e-38 -8.704532e-38 8.722564e-38 -1.4078319e-38 -1.3299948e-38 -2.0803114e-38 -5.971513e-39 -9.417964e-39
1.9557889e-38 -1.0779242e-37 1.911025e-38 -1.6981106e-38 -1.245862e-38 4.984475e-39 4.711771e-39 -7.709793e-39
-2.273988e-39 -5.165948e-39 -4.984211e-39 1.0397164e-37 8.273658e-39 -2.1860828e-38 -2.2086936e-38 8.374171e-39
9.302346e-39 -2.8408378e-38 -1.6228684e-38 1.8602271e-38 -6.114305e-39 -2.334153e-38 -4.33293e-39 -5.363425e-39
-1.276134e-39 -1.5421183e-38 -2.1612714e-38 -2.0514937e-38 -1.3032625e-38 -8.2859126e-38 -3.645088e-39 -2.0275034e-38
-6.475479e-39 1.7563404e-38 1.9759794e-38 8.966113e-39 -8.7901384e-38 -1.151758e-38 1.0773359e-38 2.2051634e-38
1.929591e-39 -1.2554435e-38 1.0528505e-38 -1.4713611e-38 -1.4859164e-38 -3.06918e-39 4.2430488e-38 -2.30816e-39
2.765706e-39 -5.23309e-39 1.3696487e-38 9.3822055e-38 1.588512e-38 -5.806378e-38 -3.891184e-38 1.6899617e-38
5.095739e-38 7.309149e-38 -6.839323e-39 2.2820546e-38 -1.3635514e-38 -8.171756e-38 6.1717186e-38 -2.2920476e-38
5.8279555e-38 8.0287407e-38 1.835889e-38 7.446438e-39 -6.390587e-38 -7.208775e-39 1.7585236e-38 -1.1864604e-38
-7.9119783e-38 -9.989551e-38 2.0647505e-38 5.153758e-38 1.607455e-38 4.6468128e-38 -5.734153e-39 -2.44137e-39
1.342495e-38 -3.624302e-39 1.5105818e-38 9.1915656e-38 -1.7528419e-38 -4.765009e-38 2.0122388e-38 -7.443143e-39
9.747071e-38 4.838703e-39 1.1976825e-38 1.1734272e-38 1.0018163e-38 -1.6962836e-38 -6.4523937e-38 -9.864917e-39
2.0965897e-38 -1.5844936e-38 -4.657249e-39 -5.746408e-39 2.866611e-39 1.9190567e-38 4.283388e-39 1.5005423e-38
-3.01943e-40 -2.0715597e-38 1.9770029e-38 2.1038854e-38 -7.162799e-39 1.8266901e-38 1.2894286e-38 -1.5597595e-38
-2.224952e-38 -1.2630424e-38 6.058026e-38 -5.280126e-39 9.33237e-39 -1.121064e-38 -3.130534e-39 -2.1334786e-38
4.226081e-39 1.8807275e-38 -5.5791745e-38 -1.5702816e-38 -1.202695e-39 8.951688e-39 -1.8253157e-38 -2.3827197e-38
1.824216e-38 -9.421117e-39 -1.2245914e-38 -5.168355e-38 -3.526777e-39 1.6537889e-38 -9.29168e-39 -8.169413e-39
6.504064e-38 7.16288e-39 1.2567786e-38 2.3524973e-38 -2.3910157e-38 -4.1782886e-38 1.4243022e-38 2.4063764e-38
2.4274424e-38 -4.606068e-39 3.761714e-38 1.4306117e-38 -1.436536e-39 5.8944084e-38 9.538381e-39 1.745e-39
1.408229e-39 1.3727781e-38 -1.8871393e-38 -3.6584248e-38 -7.036615e-39 1.4355042e-38 1.5510678e-38 1.348708e-39
7.371043e-39 3.5084982e-38 -5.6209175e-38 1.275989e-39 -1.4222339e-38 8.739607e-39 1.018402e-38 6.602178e-39
-9.475076e-39 -6.5674336e-38 -4.6054313e-38 5.4893e-40 3.175157e-39 -5.500836e-39 1.2172676e-38 7.611394e-39
2.214282e-38 -9.75014e-39 -6.67965e-40 1.735931e-39 -1.8287102e-38 -1.7075999e-38 -1.9174867e-38 1.848363e-39
1.00972e-37 -1.8501722e-38 -1.0114575e-37 3.399396e-39 8.87648e-39 -2.631201e-39 1.8106626e-38 2.0741179e-38
6.589023e-39 1.0698026e-37 3.012335e-39 -5.4818835e-38 -1.367449e-38 -4.3902827e-38 6.178619e-39 4.03097e-39
-1.5079504e-38 9.322525e-39 1.9915254e-38 -1.0910947e-38 -9.273161e-38 -1.1160075e-38 6.786072e-38 4.4876225e-38
-1.363149e-38 -6.863844e-38 -5.570178e-39 2.2888526e-38 1.8724125e-38 2.2647267e-38 1.2708152e-38 5.767952e-39
-1.83785e-38 3.900088e-39 -1.1116534e-38 7.277383e-39 -5.1086174e-38 -7.201292e-39 2.5561623e-38 1.327299e-39
7.0467925e-38 4.248684e-39 1.0465418e-38 -1.298724e-38 3.64496e-39 7.3854797e-38 2.068645e-38 -1.9676562e-38
-2.4398338e-38 1.726282e-39 -1.6618699e-38 -4.122071e-39 7.2206567e-38 -4.803023e-39 -1.2011303e-38 -9.606086e-39
00000000: 70a4 1900 06c1 2000 1a74 9a80 bc5a 0c01
00000010: b8f0 5e80 389b 9100 0c2c ae00 fa48 8380
00000020: 740d 7d01 bcf5 ec81 6673 ed01 a04c 9980
00000030: d8d2 9080 9e86 e280 2606 4180 748d 6680
00000040: 70f7 d400 2db8 1282 9a17 d000 6ae8 b880
00000050: 90a9 8780 b046 3600 804e 3300 c4f3 5380
00000060: f4c2 1880 9040 3880 f445 3680 d484 0d02
00000070: 9817 5a00 180b ee80 6481 f080 c82f 5b00
00000080: 284b 6500 80ab 1a81 f8b6 b080 908f ca00
00000090: 3294 4280 b02a fe80 722e 2f80 0c67 3a80
000000a0: 58e5 0d80 fceb a780 7457 eb80 4c63 df80
000000b0: a8e9 8d80 6290 e181 06b1 2780 8cc6 dc80
000000c0: 0083 4680 a03f bf00 442a d700 e0a1 6100
000000d0: 534a ef81 546a 7d80 be4f 7500 fc1e f000
000000e0: ea02 1500 a8b4 8880 30a5 7200 9037 a080
000000f0: 4ecd a180 a06b 2180 7803 6701 3622 1980
00000100: aa1d 1e00 bafb 3880 3c24 9500 6e68 ff01
00000110: 40f9 ac00 8d10 9e81 30db 5381 4205 b800
00000120: 1eb8 8a01 56f9 c601 4079 4a80 667e f800
00000130: 447a 9480 d474 de81 9a02 a801 f694 f980
00000140: eca6 9e01 2890 da01 1ee9 c700 a415 5100
00000150: e4f7 ad81 227f 4e80 7c7c bf00 b031 8180
00000160: 7162 d781 81f8 0782 d8d4 e000 744c 8c01
00000170: 4e09 af00 1eff 7c01 7c70 3e80 8c95 1a80
00000180: 4c2f 9200 1477 2780 e07c a400 dd37 fa01
00000190: 1ade be80 44b7 8181 081d db00 740c 5180
000001a0: 96ab 0402 56b0 3400 846a 8200 60c6 7f00
000001b0: 9016 6d00 7cb5 b880 9fa6 af81 606b 6b80
000001c0: 644c e400 3c89 ac80 84b6 3280 a692 3e80
000001d0: f236 1f00 7ef7 d000 58a4 2e00 0465 a300
000001e0: b249 0380 a892 e180 cc46 d700 c417 e500
000001f0: f8fe 4d80 b0e8 c600 0668 8c00 c0d7 a980
00000200: 9c46 f280 7c88 8980 48ea a401 d87e 3980
00000210: da9e 6500 b412 7a80 a816 2280 b450 e880
00000220: 9804 2e00 08cb cc00 2ce1 9781 10fd aa80
00000230: a018 0d80 aa79 6100 60c2 c680 44ba 0181
00000240: b8a3 c600 3e96 6680 a058 8580 2db2 8c81
00000250: 3867 2680 e814 b400 6c2d 6580 00f5 5880
00000260: b60e b101 32ff 4d00 e0d9 8800 0715 0001
00000270: e52d 0281 d87c 6381 c017 9b00 fe03 0301
00000280: 9c29 0401 d827 3280 a4ce 4c01 a2c7 9b00
00000290: 7aa4 0f80 0876 a001 20dd 6700 5a00 1300
000002a0: 9255 0f00 787b 9500 c47d cd80 002f 4781
000002b0: 389f 4c80 0450 9c00 76e5 a800 a6af 0e00
000002c0: 7843 5000 5405 3f01 1404 9981 f0e4 0d00
000002d0: 18de 9a80 782a 5f00 e8e4 6e00 30e4 4700
000002e0: a82c 6780 55c8 b281 58be 7a81 32fa 0500
000002f0: 0c93 2200 18e6 3b80 788c 8400 78e1 5200
00000300: 2c1d f100 6c2b 6a80 0446 0780 12e7 1200
00000310: 0021 c780 f0f0 b980 bacb d080 7c20 1400
00000320: 9b6f 0902 4677 c980 26ac 0982 2204 2500
00000330: 04a8 6000 b8a6 1c80 e829 c500 f8d9 e100
00000340: 84bf 4700 2e9d 1102 2acd 2000 273b 9581
00000350: eae6 9480 9c07 6f81 7a47 4300 b4e4 2b00
00000360: 8633 a480 6883 6500 a0db d800 48cf 7680
00000370: 8070 fc81 c085 7980 05bc b801 5454 7401
00000380: 0c6f 9480 03da ba81 64a7 3c80 e63b f900
00000390: 3ee3 cb00 5e9b f600 2861 8a00 b4ce 3e00
000003a0: c81f c880 dc77 2a00 600c 7980 623e 4f00
000003b0: de11 8b81 466a 4e80 b42b 0b01 f873 0e00
000003c0: fad4 bf01 9a43 2e00 54f5 7100 246b 8d80
000003d0: aab0 2700 480d c901 6841 e100 4042 d680
000003e0: 52d6 0481 2ccc 1200 2cf6 b480 a8e2 2c80
000003f0: a290 c401 e04c 3480 a0ca 8280 dc99 6880

value.0.bias f4 [64]
-1.0251662e-37 2.0504704e-38 -2.5357e-40 -4.385986e-39 -6.514939e-38 1.1628042e-38 -2.115187e-39 1.84051e-39
8.086027e-38 2.841603e-39 -2.9705084e-38 4.889343e-39 5.441046e-38 1.653218e-39 -1.2242483e-38 2.1176005e-38
5.856646e-39 1.5829205e-38 9.731565e-38 6.575719e-39 -6.968268e-39 1.170202e-39 -7.413274e-38 6.971519e-38
1.0391177e-38 7.204173e-38 4.997709e-39 5.889534e-39 2.138889e-39 -7.025668e-39 4.6285348e-38 -1.6345987e-38
2.3584638e-38 -1.5097898e-38 -7.537405e-39 8.8433626e-38 6.0903133e-38 -9.295858e-39 4.195947e-39 7.0323984e-38
-3.8007844e-38 7.02421e-39 1.3515597e-38 -8.9205e-40 -8.985378e-39 4.73145e-39 1.9317692e-38 -6.184734e-39
9.35123e-40 7.719781e-39 -2.1744632e-38 -1.4252209e-38 -1.785155e-38 -8.146076e-39 3.138115e-39 -1.521362e-39
-1.545444e-39 -2.022595e-39 1.7841298e-38 7.560061e-39 -2.2653587e-38 -3.6406e-41 -2.3092905e-38 2.811534e-39
00000000: d489 0b82 c646 df00 dac2 0280 58c2 2f80
00000010: 805a b181 409e 7e00 4808 1780 980a 1400
00000020: 621f dc01 3cf1 1e00 d8ba 2181 803d 3500
00000030: 8e1e 9401 8000 1200 104f 8580 1696 e600
00000040: f2c5 3f00 625d ac00 8e75 0402 6e9a 4700
00000050: b2e0 4b80 0cbe 0c00 fbce c981 66c8 bd01
00000060: 6026 7100 c21d c401 946b 3600 a021 4000
00000070: 5a4a 1700 b480 4c80 5c00 7c01 f6fd b180
00000080: 3068 0001 cc66 a480 3813 5280 3ebd f001
00000090: 4acb a501 1239 6580 98b0 2d00 aa70 bf01
000000a0: 34ef 4e81 a47c 4c00 fc2b 9300 acb6 0980
000000b0: 94d7 6180 5c85 3300 de59 d200 8658 4380
000000c0: be2e 0a00 9c0f 5400 30c7 ec80 5c31 9b80
000000d0: dc62 c280 f2b3 5880 ca2b 2200 f090 1080
000000e0: 12d4 1080 2c06 1680 4846 c200 6052 5200
000000f0: fcac f680 7c65 0080 a075 fb80 6a9d 1e00

value.2.weight f4 [1, 64]
-6.580938e-39 5.611043e-38 -1.071733e-37 3.357155e-39 1.744863e-39 -6.4591866e-38 -7.198985e-38 -1.4722943e-38
-9.43947e-40 -3.719632e-39 1.3773102e-38 -5.011183e-39 1.4407624e-38 -1.0040819e-38 4.047286e-39 5.236324e-39
2.4418937e-38 5.67309e-39 4.340965e-39 1.3846187e-38 1.9239099e-38 -4.70755e-40 1.8771665e-38 5.692355e-39
5.668436e-38 2.2290612e-38 -9.586336e-39 -8.315989e-39 1.9932383e-38 -5.08752e-39 -3.960411e-39 -2.269168e-38
1.4259979e-38 5.83958e-39 3.601823e-39 2.4378984e-38 6.337557e-39 -4.289799e-39 -4.89439e-39 1.4283315e-38
4.86092e-39 -1.6593148e-38 4.383985e-39 -1.0831432e-38 -1.0333681e-38 4.209543e-39 -1.2010664e-38 1.1459768e-38
-8.279825e-38 5.502483e-39 2.3825885e-38 -1.0083993e-38 4.269883e-39 6.647834e-38 -6.257839e-39 -1.036349e-38
3.267402e-39 2.12837e-38 1.6133724e-38 -1.5616014e-38 -1.8278111e-38 -1.5765132e-38 7.631684e-39 6.145909e-38
00000000: faa8 4780 43bf 9801 72e0 1182 628e 2400
00000010: f8ff 1200 f6d5 af81 9af9 c381 9351 a080
00000020: 5747 0a80 d280 2880 cef9 9500 2491 3680
00000030: 98e2 9c00 b855 6d80 3012 2c00 be04 3900
00000040: 08f3 0401 44c6 3d00 d844 2f00 89c5 9600
00000050: c87e d100 4620 0580 c467 cc00 f8fb 3d00
00000060: 3c4f 9a01 28b9 f200 ce62 6880 988d 5a80
00000070: 600b d900 f065 3780 0420 2b80 2c17 f780
00000080: 0547 9b00 6096 3f00 6b38 2700 58bb 0401
00000090: 8802 4500 37b6 2e80 914b 3580 1288 9b00
000000a0: 44ee 3400 f2ae b480 c4bc 2f00 a0f1 7580
000000b0: 1986 7080 7ed6 2d00 d8c8 8280 2cc9 7c00
000000c0: f565 e181 afea 3b00 70b8 0101 12ce 6d80
000000d0: b27e 2e00 a4f8 b401 4f24 4480 32d9 7080
000000e0: 3094 2300 4cc2 e700 42ae af00 180b aa80
000000f0: f007 c780 c6aa ab80 081a 5300 bc4e a701
