pre-trained/ddqn_dnn1000.pth (torch_old, 987944 bytes, 44 tensors)

feature.0.weight f4 [256, 36]
000000 48 4f 68 3d 17 44 24 3e 5b 54 1c 3e 1a 49 ae 3a
       0.056716233 0.16041599 0.15266554 0.0013296932
000010 db 04 f2 3c 2c 92 8c 3e b7 30 18 3e 70 e3 66 3e
       0.02954333 0.2745527 0.14862333 0.22547698
000020 f9 f5 e8 3d 6c 7b d8 bd 62 53 1e 3e ed 5b 05 bd
       0.113750406 -0.10570416 0.15461496 -0.03255837
000030 60 6c eb bd 6f a2 d6 bd 4d 99 ae bd 1a 44 ff 3c
       -0.1149528 -0.104802005 -0.085253336 0.031160403
000040 d9 48 49 3d 4d 37 a8 bb 75 aa 28 be 68 db 05 be
       0.04914174 -0.0051335455 -0.16471274 -0.13071978
000050 ba e7 7e 3e ea 23 25 3c 28 b4 ca bd 2b aa 94 bd
       0.24893084 0.010079363 -0.09897643 -0.072590195
000060 4c 08 18 be 47 48 1a bd 7f 03 c9 3e 1e d9 b5 3e
       -0.14846915 -0.037666585 0.3926048 0.3551721
000070 00 e6 5d be f1 d4 1d be 00 63 c2 bd cb 86 3b bd
       -0.2166977 -0.15413262 -0.09491539 -0.045782845
000080 14 de 20 3e 6a 16 7e 3e f6 08 f9 bd b7 a3 10 be
       0.15709716 0.24813238 -0.12159912 -0.14124952
000090 aa ba cd 3b af 1b 3e bc 86 f6 eb bc d1 26 83 3b
       0.0062783556 -0.01160328 -0.028804075 0.00400243
0000a0 7f ec 4e bc 80 4e 74 3d d0 18 24 bc df b9 68 3d
       -0.012629627 0.059645176 -0.010015681 0.056817885
0000b0 51 ad 8b be 4f 61 27 be c8 33 17 bd 8d 00 52 3b
       -0.27280667 -0.16345714 -0.036914617 0.0032043785
0000c0 3e f4 16 be 13 d4 82 3d 5d e9 56 3e f9 54 95 be
       -0.14741609 0.06388106 0.20987459 -0.29166391
0000d0 71 db bf 3c 0b bd 01 bd 05 9a 1a be ce a4 51 be
       0.023420068 -0.031674426 -0.15097816 -0.20473024
0000e0 34 7f 63 be 68 3e af bd e5 ed 0d 3e ba 20 8e bd
       -0.22216493 -0.08556825 0.13860281 -0.06939836
0000f0 03 88 00 be 9a 90 37 be 10 d1 fc bd 75 06 d0 bd
       -0.12551884 -0.17926255 -0.12344563 -0.101574816
000100 a4 d6 5f bd 10 df 91 3c b5 b2 c6 3d ab dc 19 be
       -0.054648057 0.01780656 0.097020544 -0.15025584
000110 c7 a2 d1 bd 43 cb e2 bd 06 3c a3 3d f5 14 91 3c
       -0.102361254 -0.11073925 0.07970433 0.017710188
000120 22 bf 20 bd 4a b1 60 bc 34 bd 15 bd 7f 29 98 3d
       -0.03924478 -0.013714144 -0.03655739 0.0742979
000130 2e d2 c0 bd f2 20 02 be 37 50 f3 3d 34 da 88 3d
       -0.094150886 -0.1270788 0.11880534 0.06682244
000140 3a 76 45 bd f1 d3 bf bd ef e9 15 be f8 36 1e be
       -0.048208453 -0.093665965 -0.1464002 -0.15450656
000150 58 b3 f7 3c cc 73 d6 ba 8c de 48 3c c9 61 80 3d
       0.030236885 -0.0016361414 0.012260091 0.06268651
000160 d4 1b 00 3e 89 cc 45 3e d6 1f 0a bc d7 95 d4 3c
       0.12510616 0.19316305 -0.008430442 0.025950355
000170 22 25 bd 3d 8d b8 93 3d 2d 50 15 bd c0 d3 b9 bb
       0.09235598 0.07212935 -0.036453415 -0.0056709945
000180 e3 2c 27 bc fb b0 e2 3d ec da 32 bd f5 1c 8b 3c
       -0.010203573 0.110689126 -0.04366581 0.016981581
000190 8e 4b 99 3d 11 57 83 3d 66 f7 13 3d 1a 4a 15 3d
       0.07485114 0.06413091 0.03612461 0.036447622
0001a0 08 a2 56 3d 51 08 b4 3c fd 9b 7f 3d 7c 96 0f 3e
       0.05240062 0.021976622 0.06240462 0.14022249
0001b0 8c a1 8a 9d e5 f4 89 9f 6e 87 70 1e 23 30 bd 1e
       -3.669533e-21 -5.84269e-20 1.27335004e-20 2.0031062e-20
0001c0 c1 49 37 1f 32 ad 16 20 80 00 db 1e c1 f1 9c 9e
       3.8812765e-20 1.27628e-19 2.3187734e-20 -1.661713e-20
0001d0 78 0a 9e 1f 71 af 98 9f 50 45 0d 1c c7 3b 16 1e
       6.693292e-20 -6.466475e-20 4.674257e-22 7.9532955e-21
0001e0 f3 26 ff 9f 35 ba d2 1d 23 ee af 1e af 39 9c 1f
       -1.0806114e-19 5.577907e-21 1.8627337e-20 6.6164e-20
0001f0 19 3a 41 9e eb 2f 7d 1f ca 10 6e 1f 8e ad 95 1d
       -1.0229349e-20 5.361447e-20 5.0412348e-20 3.9619423e-21
000200 b3 21 c3 1f d4 fb 1c 1e c6 cd 92 9e 99 46 f2 1e
       8.264146e-20 8.310648e-21 -1.5543457e-20 2.5651945e-20
000210 a6 d0 73 1f 4e 41 3e 9f 55 6c 08 1f 9e 64 07 1f
       5.162984e-20 -4.0288084e-20 2.888873e-20 2.867059e-20
000220 c4 40 82 1d eb 3a 77 1e 7c 0c 70 1d b1 69 15 9f
       3.447768e-21 1.3088255e-20 3.177019e-21 -3.1639403e-20
000230 be 95 70 1e 8a bb e8 9d 26 f2 d5 9e da 49 91 1e
       1.273646e-20 -6.16038e-21 -2.2652402e-20 1.5383016e-20
000240 ea 16 a6 3d f8 dc b0 3d e9 57 6c 3d 9a 99 08 3d
       0.08109839 0.086358964 0.057701025 0.03334961
000250 3b 19 bc 3d 94 20 9a bc 49 bf 51 3e d0 99 d4 3d
       0.091845 -0.018814363 0.20483126 0.103809
000260 23 61 9d 3c 37 3d e4 3c d9 a7 9f 3c 7f 3a b8 3d
       0.019211357 0.02786122 0.019489216 0.08995532
000270 4e 9a 89 3e e9 27 5a 3e 0d ae 90 3d 63 fd a2 3c
       0.26875538 0.21304287 0.070644476 0.019896215
000280 60 43 14 3d 08 b4 fb 3d 0f cc 88 3e 95 2f 38 3e
       0.036197066 0.122901976 0.26718184 0.17986901
000290 4c 97 ef 3d 5f a7 cf 3c 8e c2 f8 3a 2c 5b 4f 3e
       0.116987795 0.025348363 0.001897888 0.20249623
0002a0 6c d0 c6 3c d4 22 05 3e 18 85 19 3d 0a 0c 1d 3d
       0.024269305 0.13001567 0.037480444 0.03834156
0002b0 15 d6 ad bc 37 64 c8 3d 58 e7 6b 3d 3f 9d 80 bb
       -0.021220246 0.097847395 0.057593673 -0.003924995
0002c0 32 db 26 bd 18 57 1f 3d d8 67 d6 3c f0 fe 31 3c
       -0.040736385 0.03890142 0.026172563 0.0108640045
0002d0 44 bc 99 3d d0 19 8f 3d 7e 8b 28 be b0 51 8a bd
       0.07506612 0.06987345 -0.16459462 -0.06753862
0002e0 50 cc 53 bc 42 5d 6a 3c 87 53 76 bd 99 5f 46 be
       -0.01292713 0.014304461 -0.06013825 -0.19372405
0002f0 3d d1 03 be a3 82 8f be fc 74 35 be 27 0a ab bd
       -0.12872787 -0.28029355 -0.17720407 -0.08351546
000300 43 41 88 3e 6d ec 7e 3e 7e 5c 86 bd df c7 96 bd
       0.2661229 0.24894877 -0.0656061 -0.07362341
000310 91 7f 2b 3e 82 a5 03 3e fe 24 3a bd e8 ec 2f 3d
       0.16747881 0.12856105 -0.045445435 0.04295054
000320 7b fc 40 bd 9a 23 8b 3d 3b 10 18 3e 42 46 ad 3d
       -0.047115784 0.067939 0.14849941 0.08460666
000330 7c aa fc bd f5 e9 e3 bd 11 77 1a be c1 38 12 3e
       -0.12337205 -0.11128608 -0.15084483 0.14279462
000340 8c ac d2 3d 85 68 d2 bd 70 3f a5 3e 06 98 2f bd
       0.10286817 -0.10273842 0.3227496 -0.04286959
000350 5f 1e 17 bd 94 57 14 3e 1b d8 62 3d 42 61 e5 bd
       -0.0368942 0.14486533 0.055381875 -0.11200191
000360 c9 cf f1 3d 93 11 6c 3e 27 e8 83 3e 82 49 54 3d
       0.1180721 0.23053579 0.25763056 0.051827915
000370 f9 0e 7b bd aa 5d 7b bd 12 0f ca 3d 4c a5 aa 3d
       -0.061293576 -0.061368622 0.09866156 0.08332309
000380 b1 24 9a 3c b9 20 5b bd ae a3 7e 3d 7e 15 cb 3c
       0.018816324 -0.053498004 0.062167816 0.024790522
000390 30 87 87 bd 57 2e 2d be 3f ae 90 bc 31 9e 4b bd
       -0.06617582 -0.16912208 -0.017661212 -0.04971141
0003a0 94 28 b0 3d e3 89 88 3d 52 4f 9d bd 7c 02 02 be
       0.0860149 0.06666925 -0.07681145 -0.1269626
0003b0 db 3f f7 bd ea 19 c1 bb 1d f4 1f 3e 4c 09 36 3e
       -0.12072726 -0.005892982 0.15620466 0.17776984
0003c0 66 d5 11 be 8b 42 b2 bd e8 b3 96 3d 19 b4 e1 3d
       -0.14241561 -0.08704098 0.07358533 0.11020679
0003d0 fd ee a4 bd 23 c2 f3 bb 33 d3 3d 3d 94 f9 f3 3d
       -0.08053396 -0.0074389144 0.046343993 0.119128376
0003e0 c7 2f a0 3e d8 23 77 3e 5b 76 db bd 1e 97 7e bd
       0.3128645 0.24134767 -0.10715934 -0.062155835
0003f0 44 1a d3 bd 0c 5d 61 be fc 9a 8b 3e f1 e8 21 be
       -0.10307744 -0.22008151 0.2726668 -0.15811516

feature.0.bias f4 [256]
000000 6d 2a 4f bd c6 ae 14 bd d4 05 14 bd 9c b9 51 ac
       -0.05057757 -0.03629949 -0.03613837 -2.980372e-12
000010 45 7d 4e 3e fe 9a 66 bd 7e f1 a9 3d 12 ef 87 bd
       0.20164974 -0.056300156 0.08298014 -0.06637396
000020 a6 d8 12 3c 1e 84 99 bd 2d 01 6d bd ad 6c 16 be
       0.008962786 -0.074959025 -0.05786245 -0.14689894
000030 e6 bd 9d bd db 44 b8 3b 8d 45 39 bd 0e e5 95 bd
       -0.07702236 0.0056234426 -0.045232344 -0.07319079
000040 cc 2e 35 bb 95 35 b7 ba e7 93 a3 bd 22 a7 86 b7
       -0.0027646301 -0.0013977761 -0.079871945 -1.6051872e-05
000050 00 92 c9 bd 15 07 e6 bc ca e9 8a 3d 92 05 a5 bd
       -0.098423004 -0.028079549 0.06782873 -0.08057703
000060 49 c6 74 bb 48 62 8d bb e4 33 27 3e e3 19 9c 3c
       -0.0037349632 -0.0043146946 0.16328388 0.019055312
000070 cf 75 25 b9 50 63 a3 bc bb 1e 0f be be f9 e6 3c
       -0.00015779513 -0.019944817 -0.13976566 0.028195258
000080 ee 6e 5e bd 9d e3 cf bb d8 78 5a bd 8c 07 61 3c
       -0.05430501 -0.0063442723 -0.0533379 0.0137347095
000090 2f b4 94 3d ff ec ae bd 2d f3 24 ba 30 6c 27 3c
       0.0726093 -0.08541297 -0.00062923395 0.010218665
0000a0 00 f4 be bd 33 58 2c 3d c1 ed 3f bd f6 d8 0a 3d
       -0.09323883 0.0420763 -0.0468576 0.033898316
0000b0 61 cc 04 be f5 6f 95 bd 28 d0 e5 bc 51 f9 55 bb
       -0.1296859 -0.07296745 -0.028053358 -0.0032649825
0000c0 83 e1 c9 bc c1 6a ec bc 03 a3 0d 3c bc a5 27 bd
       -0.024643665 -0.028859498 0.008644822 -0.04092954
0000d0 c8 fc 44 bd a8 69 b2 bd e0 cb c9 3c 36 2e 23 3e
       -0.048092633 -0.087115586 0.024633348 0.15935597
0000e0 0c 8c c0 bd 52 18 e5 bc 7b 36 2b be 9d 98 5a 3d
       -0.09401712 -0.027965698 -0.16720001 0.0533682
0000f0 14 ee 53 bd ba ba e6 3c d7 63 b4 bc 88 d4 6a 3e
       -0.05174072 0.02816521 -0.022020264 0.22932637
000100 df 2e 61 bd 01 da 96 3e fe bf 3b bd c1 f0 2c 3d
       -0.05497634 0.294632 -0.045837395 0.04222179
000110 90 80 43 bc a6 73 e5 bd d8 b5 49 bd 3c 2b e1 bd
       -0.011932507 -0.11203699 -0.049245685 -0.109945744
000120 17 fd 8a bd 30 36 ae bd b0 9f b0 bd 29 80 9c 3c
       -0.06786554 -0.08506429 -0.08624208 0.01910408
000130 64 67 68 bc 9c 2c a2 3c ec 12 3a 3b bf cb ce bd
       -0.0141848065 0.019796662 0.0028392626 -0.10097455
000140 21 f2 8f 3a 48 47 55 bd 79 81 88 bc 45 73 e5 bc
       0.0010982194 -0.052069932 -0.0166633 -0.028009066
000150 b4 97 37 3d 9b 1f 2e bd f9 f5 76 bb 69 d7 1b bd
       0.04482241 -0.04251061 -0.0037683232 -0.038047228
000160 5e 19 8c bc e2 1e 87 3d 67 b3 56 bd ae ad ed bd
       -0.01710194 0.06597687 -0.052417185 -0.116053924
000170 85 4e 1b bd ff eb dc 3b 37 c3 5d bd 92 e3 f5 3c
       -0.03791668 0.006742 -0.05414125 0.03001574
000180 9d c9 c4 bd 9f 7e 80 bc c3 de 27 3d 7f 1b b4 bc
       -0.09608767 -0.015685378 0.040983927 -0.021985767
000190 a0 01 a0 bd d6 a1 0c bd 54 de 08 3d cf a4 4a bd
       -0.0781281 -0.034334026 0.033415154 -0.04947358
0001a0 7e 9f 70 bd d7 0a 8a bd 41 31 61 bd cc c0 9b bd
       -0.058745854 -0.06740349 -0.054978613 -0.076051325
0001b0 6a 0f 89 bc 34 06 3a bd b5 03 2a bd 89 3b 48 bd
       -0.016730983 -0.045416072 -0.04150744 -0.048884902
0001c0 a5 fc 11 3d e9 a5 e3 bd 96 f5 2b bd 33 a5 87 bd
       0.03564133 -0.11115629 -0.041982256 -0.06623306
0001d0 13 e6 49 3d 34 f1 af 3c d8 06 26 bd 10 7f 7d 3c
       0.04929168 0.02147732 -0.04053387 0.015472189
0001e0 a1 c7 8a 3c cc 88 13 3c 30 3a 4b bc c9 61 b9 bd
       0.016940894 0.009004783 -0.01240401 -0.09051854
0001f0 f6 19 11 ba 55 c7 6f 3d 55 3f 29 bd 56 e4 d3 bd
       -0.00055351795 0.058539707 -0.041320164 -0.10346286
000200 57 6e 4c bd 1c 14 59 b3 c1 7c 30 bc 6d 11 72 3d
       -0.049909916 -5.054254e-08 -0.010771931 0.05909865
000210 86 83 77 3d 93 d9 19 3e 26 db e5 ba bc e5 e4 bd
       0.060428165 0.15024404 -0.0017536625 -0.11176631
000220 8c 52 0a bc aa 67 83 bd ab 42 c4 ba ec d6 3c bc
       -0.008442532 -0.06416257 -0.0014973482 -0.011525851
000230 46 1c 15 3e 8a 75 8d 3c a1 ee 47 bd 65 8d 87 bc
       0.14561567 0.017267961 -0.04881156 -0.016546914
000240 2d be 24 bd 83 99 8c bd ce f0 f4 bd fe de 11 be
       -0.04022043 -0.068652175 -0.11959992 -0.14245221
000250 46 82 91 bc 6e d1 1f be 72 ea 8b bd 53 da c3 bd
       -0.017762315 -0.15607235 -0.06831826 -0.095631264
000260 fb ec 13 3e da c1 3c bd f1 54 9e 3d 80 50 cc ba
       0.1444587 -0.04608331 0.07731045 -0.0015587956
000270 25 05 0c 3d 92 1e 11 bd 8f ae 64 bd cb b2 93 bd
       0.034184594 -0.035429545 -0.055830535 -0.072118364
000280 c7 c6 c6 bd 92 be 74 bd d8 86 9f bd f5 41 b9 bc
       -0.097058825 -0.059752055 -0.07789391 -0.022614459
000290 6d 65 ac bc 5d 90 89 bc eb ed ed bc 8b 59 4a bd
       -0.021044457 -0.01679247 -0.029044112 -0.0494018
0002a0 dc c8 12 be ec c6 43 3b 00 ca e0 3c 9f 8c 84 3e
       -0.14334434 0.0029873205 0.027440071 0.25888535
0002b0 01 47 ec bd 38 ff db 37 62 e9 dd bb c1 9c 5e bc
       -0.115369804 2.622568e-05 -0.006772206 -0.013587178
0002c0 1f ba fd 3c ee 49 f4 bc 23 32 f5 bd 35 81 01 be
       0.030972539 -0.029820409 -0.119724534 -0.12646945
0002d0 5d b3 75 bd 8d bf 9d 3d a4 16 ee bc 43 5b 88 3c
       -0.059985507 0.07702551 -0.02906353 0.01664508
0002e0 f6 24 6f 3d 63 d9 d5 bc e6 37 bf 3c 3c 70 10 be
       0.058384858 -0.026104635 0.023342084 -0.14105314
0002f0 f6 57 b3 3c f8 e5 2e be e0 56 fb 3c 16 1f a1 bd
       0.021892529 -0.17079914 0.030681074 -0.07867257
000300 3b 53 f8 bd de df 5c 3d eb e3 67 3c de bb 38 3d
       -0.1212525 0.053924434 0.014153461 0.04510104
000310 86 28 54 bd 69 0e 89 bd 4d d7 e9 bc 10 e2 0e 3d
       -0.05179646 -0.06692202 -0.028545046 0.03488356
000320 4d 0d 8d bb 79 c9 24 3d aa c6 1a be ca 4b 3e bd
       -0.004304564 0.0402312 -0.15114847 -0.046458997
000330 f9 03 78 3d 5d ae 60 bd 4f a0 21 bd b0 47 d0 3d
       0.060550664 -0.054853786 -0.039459523 0.10169923
000340 e5 ae b1 bc d1 1c be bc ab 8a d4 bd 4b dd 23 bd
       -0.021689842 -0.0232071 -0.10378011 -0.040005963
000350 a6 d9 08 3e 72 8c ec 3c ea 32 31 b7 77 d9 68 3b
       0.13364276 0.028875563 -1.05618765e-05 0.003553001
000360 4e 17 1d bd a7 02 55 3d c1 4e 32 bb 96 47 76 3c
       -0.038352303 0.052004483 -0.0027207586 0.015031716
000370 1f 95 9e bd 22 df ea 3c 73 af 01 be 17 93 ed bd
       -0.07743286 0.028670851 -0.12664585 -0.11600321
000380 f1 c1 bf bd 22 02 d1 bc 72 fa 7f bd cf 00 17 3d
       -0.09363163 -0.025513712 -0.062494703 0.036866006
000390 91 48 ba bb 0d 98 6a bd f4 14 3e bd c7 ba f0 bc
       -0.00568492 -0.057273913 -0.0464067 -0.029385937
0003a0 8d 12 31 be 1f 23 99 bd ce b4 b3 bd 0f 90 8c bc
       -0.17292233 -0.07477402 -0.0877472 -0.017158536
0003b0 a8 b8 ec bc 1a 54 ae bc 4c 33 ec 39 65 d3 e5 bc
       -0.028896645 -0.021280337 0.00045051647 -0.028054902
0003c0 08 86 20 be 4c e1 14 bd df 88 2c 3d 21 55 5b bd
       -0.15676129 -0.036347672 0.042122718 -0.053547982
0003d0 b2 b6 53 3b 2a db 8e bd a4 92 0b 3d 88 de a4 bc
       0.003230494 -0.06975396 0.034075394 -0.020125642
0003e0 d9 67 fa 3b a4 53 1a bd 90 9c c9 3c 1b a0 7c bc
       0.007641774 -0.037677422 0.024610788 -0.0154190315
0003f0 f3 6e dc 3b 44 4e f5 bd ff c8 95 bd d0 5d 03 bd
       0.0067270934 -0.119778186 -0.073137276 -0.03207189

feature.2.weight f4 [128, 256]
000000 d3 d1 91 3c 39 9f a5 3d d2 18 7c 3c 32 bb ef 1d
       0.017800247 0.0808701 0.015386777 6.345633e-21
000010 5a 30 10 be 69 d0 36 3d 18 c0 6b 3d a7 dc 12 3d
       -0.14080945 0.04463235 0.05755624 0.03585496
000020 d7 0c eb 3c 3e 2a e3 3d b2 6a 3c 3e 50 80 01 bc
       0.028692646 0.110920414 0.18400076 -0.007904127
000030 90 93 ee 3c f3 79 b7 3d f2 90 08 3d 6a bc ac bc
       0.029123098 0.08958807 0.033341356 -0.021085937
000040 f4 2a d2 3b a9 dc 63 3d 3e 0a a7 bb b2 de f8 9d
       0.006413812 0.05563036 -0.0050976565 -6.5875315e-21
000050 0d 49 50 3d d8 ba bd bc af ec 54 bd be 57 04 3e
       0.050850917 -0.023160383 -0.05198353 0.12924096
000060 50 15 b7 3d 23 0e 6e 3d 5f 48 4a 3b fc 10 2d 3c
       0.08939612 0.05811895 0.003086589 0.010563131
000070 4d 60 43 98 95 8a 78 3d c3 2e 12 3d 30 24 57 3d
       -2.5251779e-24 0.060679037 0.035689127 0.052524745
000080 dd 40 3e 3d 81 75 01 1e 03 62 6f 3e c8 a2 0f 3e
       0.046448577 6.853502e-21 0.23377232 0.1402694
000090 0b 75 2d bb 92 e4 2e 3d 8e be 0d 18 0a 08 a6 3d
       -0.0026467468 0.04269845 1.8320028e-24 0.08107002
0000a0 75 8c fd 3c 01 8b c5 3c 24 32 c0 3d 00 fc 65 3d
       0.030950764 0.024114134 0.093845636 0.05614853
0000b0 b7 0b 33 3a ca 28 73 3d 85 a3 80 3d 78 c4 0b 3d
       0.0006830054 0.05936507 0.06281189 0.034122914
0000c0 ce 82 14 3d 43 59 8b 3c fc 7c 26 3d 76 1c dc 3b
       0.036257558 0.017010337 0.04064654 0.00671726
0000d0 82 3b 52 3d a7 11 c3 3d e2 f4 de 3b d9 52 47 3d
       0.051326282 0.09524851 0.0068040946 0.048662994
0000e0 f5 3e 32 3d cb 05 2c 3b 11 15 9b 3d a4 fb 2e 3c
       0.04351707 0.002624857 0.075723775 0.010680113
0000f0 b1 56 46 3e 5d 2f fe 3d bc 7f ac 3b cc 5e 52 bd
       0.19369008 0.124113776 0.0052642506 -0.051359937
000100 fc 52 00 3d 31 70 d4 bd e4 60 fa ba 7c e2 d0 3d
       0.03132914 -0.10372961 -0.0019102362 0.101994485
000110 4f de 23 3d 5b f8 d1 bc 45 48 26 3d ab 61 f4 3c
       0.040006932 -0.02563112 0.040596265 0.029831728
000120 cd 84 10 3e c2 5a 7e bd 7f 75 8c 3d c1 fa 96 3d
       0.1411316 -0.062098272 0.06858348 0.07372046
000130 0e b4 b1 3d 9d b6 95 3d 6e 6b 93 bb 0d 0a d7 b8
       0.08676921 0.07310221 -0.0044988906 -0.00010253871
000140 84 95 85 3d 13 c2 5b bc 9e 1d c9 bc 64 e0 71 3d
       0.065226585 -0.01341297 -0.024550255 0.059051886
000150 c1 17 d3 bd e2 41 91 3d 43 91 5b 3d 0a 53 d9 bb
       -0.10307265 0.07092644 0.05360533 -0.0066322135
000160 fb fb 8a bc 1d 37 b9 3b f8 61 44 bb c4 6a 75 bd
       -0.016965857 0.005652322 -0.002996562 -0.059916273
000170 f9 e9 67 3d 53 09 17 3d 4f e2 85 3d d3 96 b9 3d
       0.056619618 0.036874127 0.065373056 0.090619706
000180 cf 52 18 3d 2f c0 49 3d 49 30 18 3e 29 bc bc 3c
       0.037188347 0.049255546 0.1486217 0.02303894
000190 19 7d b0 bb 04 6d 36 39 f1 7c 2f 3e 8a d7 fc 3c
       -0.0053860066 0.00017397484 0.17137505 0.030864496
0001a0 b7 82 c4 bc bf 93 96 bd bb 9b 26 3e ed d0 4d 3e
       -0.023988111 -0.07352399 0.16270344 0.2009923
0001b0 8a c5 20 3e 7c d3 9d bc 6e 19 f5 3b 9b 7f 31 bd
       0.15700355 -0.019265883 0.007479838 -0.043334585
0001c0 8e d8 67 3c 4f 2e cf 3c 90 00 28 3d 73 d0 1e 3d
       0.014150752 0.025290636 0.04101616 0.03877301
0001d0 1c 55 5c bd b0 8f 4b 3d 9a 09 6a 3d 6b 72 d8 3d
       -0.053792104 0.049697578 0.057138063 0.105686985
0001e0 c0 b0 be 3c e6 9e be 3d f7 35 3f 3d ee ea 04 3d
       0.02327764 0.09307651 0.046682324 0.03245061
0001f0 48 38 0e 3d ca c4 9d 3d fe 71 38 3d 39 56 31 31
       0.034721643 0.0770355 0.045030586 2.5805902e-09
000200 02 2c 16 a2 80 aa 52 97 d0 52 93 3d 22 fd ed 3d
       -2.0352088e-18 -6.806986e-25 0.071935296 0.11620547
000210 94 d2 f7 3d d7 7a 21 3d e0 a6 17 3d eb 29 43 3c
       0.121007115 0.03942379 0.03702438 0.0119118495
000220 18 6a eb 3d 1e e7 d1 bc e2 12 8e 3d bc 72 7e 3d
       0.11494845 -0.0256229 0.06937195 0.062121138
000230 25 1f ca bd 81 0c 2e 3d 75 2b a6 bc 76 91 27 bc
       -0.098692216 0.042492393 -0.020284394 -0.010227552
000240 3c 5d 6b 3d 2b 63 29 3e cc 43 f2 bc 0d c8 45 3d
       0.057461962 0.16541736 -0.029573344 0.048286486
000250 c3 2f cf bb 5e 93 19 3e 6a 92 75 3d 0a 30 0f 3e
       -0.0063228323 0.14997622 0.059954084 0.13983169
000260 24 3a a8 3d bf 3f 02 b5 1a cd 2a 3e 30 a6 0e bc
       0.082142144 -4.8521537e-07 0.16679803 -0.008706614
000270 fd 99 2c 3d 37 a4 80 3d f4 9e 80 3d 90 db 5b bd
       0.042139042 0.062813215 0.06280318 -0.053676188
000280 01 d0 27 3e 8b da 2e bd e6 78 f0 3c 4b 3b 3e 3d
       0.16387941 -0.042688888 0.029354524 0.046443265
000290 73 72 ed 3c d6 2c f3 bc 46 e9 73 3d 77 a7 21 3d
       0.028985238 -0.029684465 0.05954864 0.039466348
0002a0 02 31 b0 3d 03 23 a0 3d a4 77 33 3a f2 12 57 bd
       0.086030975 0.07819178 0.0006846136 -0.052508302
0002b0 09 5e 92 3c fe 59 8c bc ce ae 3a 9a db 56 b9 3d
       0.017867105 -0.017132755 -3.8605105e-23 0.090497695
0002c0 ef 3a 53 3e b0 81 21 3c 69 cc 94 3d 8a af 59 3d
       0.2062795 0.00985758 0.07265551 0.053145923
0002d0 ba 26 f7 3d d9 c8 ef bd 30 b3 b3 ba 8d 74 9d bc
       0.120679334 -0.117082305 -0.0013710018 -0.019220615
0002e0 3e 43 1b 3d af ab 1c 3d 37 b7 81 3d 25 fc 70 3d
       0.037905924 0.038249668 0.063337736 0.058834214
0002f0 ad d8 aa 3d 54 69 07 3e 18 d7 fb 38 b5 d8 a8 bd
       0.08342109 0.13223773 0.00012008677 -0.082444586
000300 79 97 74 3d bb 95 55 bd 62 fd 57 3d ed 07 31 3e
       0.059714768 -0.052144747 0.05273188 0.1728818
000310 ae e1 4b 3d 79 0d f2 3b b7 0c 79 bd 69 93 80 3d
       0.04977577 0.00738686 -0.06080314 0.06278116
000320 2b 95 a0 3d 04 3e a2 3d 18 11 2b 3e a7 c7 d5 3d
       0.078409515 0.07921985 0.1670574 0.10438471
000330 bb 7a 87 3d 56 51 1b bc 9c 25 cb 3c 3d f0 1e 3d
       0.06615206 -0.009479841 0.024798207 0.038803328
000340 94 8a 02 bd 71 51 df 3c 08 0b de bb 7e b7 39 bb
       -0.03187044 0.027260514 -0.0067762174 -0.002833813
000350 51 cd ea bd b8 65 8b 3d 3e 34 0e 20 e1 ad fb 3d
       -0.11464942 0.06806511 1.2045153e-19 0.12289024
000360 90 54 ae 3b f3 2e c1 3d 8e 67 fc 3d 65 1a 24 3c
       0.005320139 0.09432783 0.12324439 0.010016059
000370 b9 7f e3 3c 1f 46 26 3d a4 39 d2 bb c1 5b a9 bc
       0.027770864 0.040594216 -0.0064155627 -0.020673634
000380 ef 58 25 3e 74 6c a9 bb b1 6c 3c ba ad 59 f3 3c
       0.16147207 -0.0051703993 -0.0007187827 0.029705847
000390 7f cb ae 29 ce a7 b4 3c b3 f4 5b 3d 27 31 fa 3d
       7.762453e-14 0.022052672 0.05370016 0.12216406
0003a0 00 0a 0c 3b 9b 92 23 be 48 79 5d bd a1 d7 a9 3c
       0.0021368265 -0.15973894 -0.05407074 0.020732703
0003b0 83 86 5b 3d 32 a3 86 bc dc 4d 53 3d e7 f8 00 3e
       0.053595077 -0.01643524 0.051587924 0.12594949
0003c0 66 b5 80 3d b6 5c b8 3d 6f b2 94 3d 9c 55 15 3d
       0.06284599 0.09002058 0.07260596 0.036458597
0003d0 19 20 6a 3d af 2f e7 3d d3 8a 6f 3e 54 7e 64 3d
       0.057159517 0.11288392 0.23392801 0.05578454
0003e0 78 9b 5c 3d 27 1a 35 3d 2f 51 f0 3d a1 85 53 3c
       0.053859204 0.044214394 0.117342345 0.012910278
0003f0 7b de 0d bc 88 01 69 3c ae bb e1 3c 8e 0c fa 3c
       -0.0086590005 0.0142215565 0.027555313 0.030523565

feature.2.bias f4 [128]
000000 5b f2 22 bc a5 9d 97 3e b8 97 61 bb de 13 ca b8
       -0.009945477 0.2961246 -0.0034422707 -9.635811e-05
000010 8e c6 b6 bc 55 6c bc ba 7c ed 98 b7 bb ef 09 bd
       -0.022311475 -0.0014375547 -1.82304e-05 -0.03367589
000020 97 1a d0 3b 28 bf 48 3c 85 cf c9 b6 5c 39 2d 3d
       0.006350826 0.012252606 -6.0144253e-06 0.04229103
000030 99 b2 37 ba 94 3b c9 3d 1e b2 6f 3d 1a bb 8c b9
       -0.0007007509 0.09825817 0.058519475 -0.00026842282
000040 ab a7 f3 af 7a bb d2 3c 7a 09 c9 bb e8 0d 89 3c
       -4.4320578e-10 0.025724161 -0.006135163 0.016730264
000050 68 88 da bc 12 44 87 3e 52 05 b8 3c 95 48 d3 b9
       -0.026676372 0.2641912 0.022463474 -0.00040299134
000060 0f ea 33 bd e5 4d a9 3d 20 d8 af bb ea f0 74 bc
       -0.043924388 0.0826681 -0.0053663403 -0.0149500165
000070 b2 fc 19 bd 08 00 7d bb d3 57 d3 3b 2c d8 b4 bc
       -0.037594505 -0.0038604755 0.0064496784 -0.022075735
000080 ad 08 84 bb 55 71 1b 3d c3 92 40 b8 c5 4c 77 3c
       -0.0040293545 0.03794988 -4.591305e-05 0.015093987
000090 cd 39 8c 3c 51 b4 ab 3c fd 3e ff b9 66 62 d5 bb
       0.017117405 0.020960005 -0.0004868432 -0.006511974
0000a0 1c 77 58 3d a7 84 93 bd 85 86 6c ba 67 91 f5 b4
       0.052847967 -0.07203036 -0.00090227305 -4.57406e-07
0000b0 04 a8 6f bd c2 a2 b6 3c 70 20 60 3c 04 f6 54 bd
       -0.05850984 0.022294406 0.013679609 -0.05199243
0000c0 bf 39 a4 bc 36 c5 4d af 1d e7 72 3d e6 93 b7 bc
       -0.020047067 -1.8714705e-10 0.059302438 -0.02240939
0000d0 ea 7d ae bd 86 9e 9e b3 79 93 7b bd 69 1a da bc
       -0.0852011 -7.3862836e-08 -0.061419938 -0.026623921
0000e0 46 ce 01 bb 9f 14 6b bc d8 22 03 b0 67 db e4 bc
       -0.0019806786 -0.014348178 -4.770704e-10 -0.02793665
0000f0 75 35 75 bc 1e d7 38 ac c4 77 15 bc d4 40 05 b7
       -0.014966358 -2.6267387e-12 -0.009122793 -7.942512e-06
000100 dc 2d db b4 0a 9e 69 bd 6c b4 20 bd 42 b4 dc bc
       -4.0825296e-07 -0.057035483 -0.039234564 -0.026941422
000110 01 ed 81 3d 91 7e df 3c 6e c0 d5 bd f3 a3 30 b2
       0.06344033 0.027282031 -0.10437094 -1.0281826e-08
000120 9d 0d dc b4 1e b1 30 3d 31 04 8a bb 82 eb 96 3d
       -4.0988098e-07 0.043137662 -0.0042119254 0.07369138
000130 2e 3d 3f 3d 0c 7d d2 3d 23 6a 0d b7 91 cc c5 bc
       0.046689205 0.10277757 -8.428967e-06 -0.024145396
000140 40 6e 64 3d 2e a7 85 bc 1c 38 00 b7 93 0e 08 bd
       0.055769205 -0.016315069 -7.6424585e-06 -0.033217024
000150 17 76 d9 3a f4 74 30 ac 24 a2 9b bb 0a ec c5 3b
       0.001659098 -2.5076026e-12 -0.0047495533 0.006040101
000160 b5 1e 9b 3d 5e 6a b6 3c da 50 28 b2 07 fa 8b bb
       0.07574216 0.022267517 -9.7972706e-09 -0.004271749
000170 2d e3 a4 3e ef 92 9c 3b 83 86 c4 bc 69 6b da bc
       0.3220457 0.004778258 -0.023989921 -0.026662545
000180 3f e0 72 bc 91 e0 98 3c e5 38 2a 3e 07 b2 17 b6
       -0.014823972 0.01866177 0.16623266 -2.260438e-06
000190 80 ea b4 3e 76 d4 ed bc ea 01 f1 3c 90 90 71 b3
       0.3533516 -0.029031973 0.029419858 -5.6243664e-08
0001a0 61 1a 1c bd 5d ae 3c bd 1f 80 c4 bc f3 2b 33 bd
       -0.038111094 -0.046064723 -0.023986874 -0.043743085
0001b0 d7 20 89 3d fa 2f 08 bc 7b 4b 32 3d f1 b7 bf bd
       0.06695717 -0.00831222 0.043529015 -0.09361256
0001c0 b1 b6 4e 3d 12 dd 94 b9 b9 e0 1e 3d 44 5e 95 bc
       0.050467197 -0.0002839347 0.03878853 -0.018233426
0001d0 ba cb f1 3c c0 b0 68 b9 72 b1 7b ae df 19 76 af
       0.02951609 -0.00022191089 -5.7228396e-11 -2.2382761e-10
0001e0 b6 44 ad 3c 90 8e 59 b6 52 25 09 bd 88 82 3d bd
       0.021150928 -3.2418502e-06 -0.033482857 -0.046267062
0001f0 69 94 a1 3c 91 36 ee bc 65 25 3c 3e af 3e e7 af
       0.019724088 -0.029078754 0.1837364 -4.2063195e-10

advantage.0.weight f4 [64, 128]
000000 d8 f2 80 be 0a c1 87 3e e8 ef 9f 3d 92 2a 96 34
       -0.25185275 0.26514465 0.0780943 2.797065e-07
000010 96 21 8f bd fd fb 1d be 80 de 1d a2 ad 1a 88 3d
       -0.06988828 -0.15428157 -2.1395258e-18 0.06645713
000020 e3 bc 25 be ab da 15 be b0 ce 3e 98 54 8b 82 be
       -0.16185336 -0.14634196 -2.4661275e-24 -0.25496924
000030 b3 66 fd b6 48 46 91 3d 05 30 be 3d af d7 ac 3e
       -7.5519433e-06 0.07093483 0.09286503 0.33758304
000040 90 f4 08 1a 20 32 8f 3d 7a e7 37 3c 49 cf 07 be
       2.8321697e-23 0.069919825 0.011224622 -0.13262667
000050 3a 01 19 3d 84 0d 01 3c 22 69 f6 bd c5 4d d7 2f
       0.037354685 0.0078767575 -0.12031771 3.916353e-10
000060 89 8f 4b 3e 52 9a a3 3d 0e 67 29 36 cf 57 07 3d
       0.19878973 0.07988419 2.5242948e-06 0.033042725
000070 bf 1c 46 be 7a 59 10 ba 2f 8f 56 be 44 45 18 3e
       -0.19346903 -0.0005506497 -0.20953058 0.14870173
000080 7f 60 89 3e 67 12 14 3e 2e 8d 83 a9 a3 c2 0d 3e
       0.26831433 0.14460145 -5.8420594e-14 0.1384378
000090 9e 51 b4 3d cc 7b c1 3d 26 e2 58 b6 2d 3e 2a 3e
       0.0880463 0.094474405 -3.2318144e-06 0.1662528
0000a0 b0 b6 31 3e 6d 56 18 bd 1b 0e 83 b7 1d 55 dc a1
       0.17354846 -0.037191797 -1.5622985e-05 -1.4930309e-18
0000b0 28 b5 26 3c 24 46 4d 3e 49 91 1d be 8c 22 15 be
       0.010175027 0.20046288 -0.15387453 -0.1456396
0000c0 f8 e8 ff bd d0 92 a8 94 f6 59 30 3d 1a 17 4e be
       -0.12495607 -1.7021572e-26 0.043054543 -0.20126
0000d0 12 66 55 bd a9 37 35 a2 10 bc 02 be 5c cb ae 38
       -0.052099295 -2.455954e-18 -0.12767053 8.334845e-05
0000e0 98 a9 14 3e da d6 6d 3e de 67 a3 ad fb 91 c6 3d
       0.1451782 0.2322649 -1.857708e-11 0.09695812
0000f0 d3 32 11 3e 6c 31 94 97 78 5b 5c bc 90 1b 00 b2
       0.14179544 -9.576752e-25 -0.013449542 -7.456848e-09
000100 ca a5 ed a2 e9 8e f9 3e dd af c2 be 01 b5 d4 3d
       -6.4414515e-18 0.48741844 -0.38024798 0.10386086
000110 d1 8d 29 3d 6f af 10 be 4b a9 73 bd c4 b5 e0 96
       0.041395012 -0.14129423 -0.059487622 -3.6303862e-25
000120 de 18 79 1e 36 6b 04 3e b3 76 6b 33 d3 90 fd 3d
       1.3187093e-20 0.12931523 5.4823158e-08 0.12381139
000130 39 2a 77 bd ab ce af 3d 07 3e 58 35 55 bb 6f bd
       -0.060343 0.08584341 8.055653e-07 -0.058528263
000140 56 57 80 be 4b 7d 5a be 12 a4 32 9b 07 14 06 3d
       -0.25066632 -0.21336858 -1.4776829e-22 0.032733943
000150 aa e0 f4 bc 88 6d 96 9a 39 4c 27 bc e9 e8 97 3c
       -0.029892284 -6.2215503e-23 -0.010211044 0.018543677
000160 4d d1 85 3e 56 cd cb 3b 4f ab 2c 17 8d b5 dd 3d
       0.26136246 0.0062195463 5.579242e-25 0.10825644
000170 02 e9 55 ba 75 cb 0c be 78 91 2d 3e b7 63 ad 3e
       -0.0008160026 -0.13749488 0.16950023 0.3386514
000180 07 64 1c 3d f2 22 0b 3f eb 75 d7 bc f0 19 12 a7
       0.03818133 0.543502 -0.026301345 -2.027563e-15
000190 2b 53 55 bd b3 df ca bb 1c 28 31 bd b9 d1 02 98
       -0.05208127 -0.006191218 -0.043251142 -1.690799e-24
0001a0 37 3f b8 3d b6 ec 0e bd a8 0b 0e 3d 0b 4b 1b be
       0.08996432 -0.034893714 0.034679085 -0.15165345
0001b0 f8 4b 65 3e e5 f4 fe 3c 63 7f 2d be cf 78 9f 3c
       0.22392261 0.031122634 -0.16943125 0.019466786
0001c0 b1 19 e4 3d f6 aa 66 a5 85 81 a2 3d 85 05 43 bc
       0.11137713 -2.0007244e-16 0.0793486 -0.011903171
0001d0 32 4b 0d be 39 2b 6e bd 77 3b d5 2e 17 26 3b 96
       -0.13798216 -0.05814669 9.6966817e-11 -1.5117759e-25
0001e0 0e ef 5f 3e 71 6b 4c 17 d7 f9 cf bd 22 28 a2 be
       0.21868536 6.6051565e-25 -0.10155075 -0.31671244
0001f0 6d a9 dd 3b d0 9d 15 b8 95 77 99 be d2 ad 05 97
       0.006764582 -3.5671343e-05 -0.29974046 -4.319401e-25
000200 85 6d 86 3d 54 a6 95 be 3a 5b 01 3e d7 1d e7 b4
       0.06563858 -0.2922846 0.12632456 -4.3048814e-07
000210 7f a7 52 bd 1d 8a 04 3e 3c 22 e4 b5 94 f8 0b 3e
       -0.051429268 0.12943311 -1.6997287e-06 0.13669044
000220 1c e9 3f 3d ed f7 31 3c 43 04 be 2a 7a 27 0b 3e
       0.04685317 0.010862333 3.3753737e-13 0.13589278
000230 d4 e5 34 3a 6d f4 1a 3e 95 f2 a9 3d d9 c8 9f bc
       0.0006900702 0.15132304 0.08298222 -0.019504951
000240 c9 71 76 99 3e 48 6f 3d 5e 72 12 3d c1 cb 46 bd
       -1.2740881e-23 0.058418505 0.0357536 -0.04853416
000250 72 a6 a0 3d 98 29 20 be 49 ee fe 3d f1 00 d9 37
       0.07844247 -0.15640867 0.12447793 2.5868854e-05
000260 41 06 6d 3b 12 b6 c4 bd 28 0b 41 38 e4 88 4a 3e
       0.0036167058 -0.0960504 4.6025176e-05 0.19778782
000270 45 db d0 3c 2d 90 ad af 3e b3 14 3e 87 5b 4e 3d
       0.02549518 -3.157096e-10 0.145215 0.050380256
000280 60 e2 29 3e e6 c8 05 3e 38 26 fe b5 f9 b8 28 3e
       0.16590261 0.13064918 -1.8935598e-06 0.16476811
000290 b4 ec 69 3d 4e 7a 73 bc 40 5e 7c b7 41 63 f8 3d
       0.057110503 -0.014860703 -1.5042315e-05 0.12128306
0002a0 f8 ef c0 bd 7b 34 a2 3d 1d 2e 98 b7 22 c8 66 b0
       -0.094207704 0.07920166 -1.8141285e-05 -8.395792e-10
0002b0 86 33 e1 3b 92 01 62 3e cb ca 13 3e 36 35 fb 3d
       0.006872597 0.22070912 0.14432828 0.122660086
0002c0 0f 85 82 3e e4 0c 10 18 ee a9 f3 bb b5 6c dd 3d
       0.2549214 1.8618072e-24 -0.0074360287 0.1081175
0002d0 84 a3 eb bd 75 ad bf 2d b8 93 a9 3d 3a 07 d4 3c
       -0.115057975 2.1791216e-11 0.08280128 0.025882352
0002e0 a5 cd 2c 3e b0 f7 ea bd 07 a3 b0 ae 43 df 65 3c
       0.16875322 -0.11473024 -8.032513e-11 0.0140302805
0002f0 c6 19 b0 3d 14 1f c6 9b 30 06 16 bc c0 ad 8b b9
       0.08598666 -3.2776436e-22 -0.009156749 -0.000266416
000300 9c 7e bd b7 4a d2 a4 bc f2 78 de bc a8 90 32 3d
       -2.2589513e-05 -0.020119805 -0.02715728 0.043594986
000310 9d ed 9d bd 5b d1 97 3c 4f c8 9f 3c 44 a3 62 1b
       -0.07711337 0.018532446 0.019504694 1.8747036e-22
000320 e5 71 be b0 be 69 c8 bd 51 f2 14 ba 00 46 09 bd
       -1.385669e-09 -0.09785794 -0.000568186 -0.033514023
000330 7a a3 8c 3d 2d 23 97 bd c4 93 9c 33 4a d6 be 3d
       0.06867118 -0.07379756 7.2911945e-08 0.09318216
000340 40 1f 91 3c 22 d3 19 3d e9 f8 60 a7 14 2d 70 3d
       0.017715096 0.037554868 -3.122118e-15 0.05863674
000350 4f be ba bd 57 83 82 28 d3 d9 c8 ba 16 a0 68 3d
       -0.0911833 1.4489859e-14 -0.0015323706 0.056793295
000360 58 e7 3b 3e 4d 47 91 bd cf 18 5d 18 80 16 2a 3e
       0.1834997 -0.07093678 2.8576106e-24 0.16610146
000370 f8 d2 8f be 2c b2 23 bd 89 b0 bf 3d 26 ac c3 3d
       -0.28090644 -0.03996484 0.09359843 0.09554319
000380 18 d5 fa 3d 36 93 55 3e 54 d6 34 3e 6c 87 00 34
       0.12247676 0.20856938 0.17659885 1.1970195e-07
000390 7b 33 c7 be 06 5c 3a 3d fc 9e 06 3e 42 b2 3d 97
       -0.38906464 0.045497917 0.13146585 -6.1294187e-25
0003a0 30 e6 39 bd 67 d2 d6 ba 56 21 b8 3d b5 f7 03 3d
       -0.04538554 -0.0016389609 0.08990733 0.032218654
0003b0 78 82 a6 bd 47 dc 24 3d b2 d6 67 3c 6b 43 01 3e
       -0.08130354 0.040249135 0.014150308 0.12623374
0003c0 c7 0c 9f 3d 53 1b 51 36 5d 91 37 bd 35 53 d4 3d
       0.07766109 3.1159332e-06 -0.044816364 0.10367433
0003d0 44 2d 87 3d ca f3 73 3d e0 34 75 2e 1b ba 0b 9d
       0.066004306 0.059558667 5.5753513e-11 -1.8492711e-21
0003e0 82 34 09 be 7a 91 44 24 43 0c a6 3d 74 ff ed 3d
       -0.13398936 4.262395e-17 0.081078075 0.116209894
0003f0 7d 84 3c 3d e4 4f f2 3b a8 d5 e3 bd 0c c5 1c 98
       0.04602479 0.0073947776 -0.11124736 -2.026201e-24

advantage.0.bias f4 [64]
000000 7e 03 0f 3d 8a 0a f0 3a 52 52 c6 ba 22 f2 87 3d
       0.03491544 0.0018313688 -0.0015130735 0.0663798
000010 2b 38 d8 b7 eb 5b 03 b4 eb 4d 26 bc 8f d5 44 3d
       -2.5775362e-05 -1.2233765e-07 -0.010150413 0.048055228
000020 d9 37 b3 bd b1 b1 3e 3c 25 c0 3f 3d 4c 0d 43 af
       -0.087508865 0.011639045 0.046814103 -1.773987e-10
000030 af 84 a3 b8 41 ec 90 3d 23 0e 2a 3d 06 a2 d5 3d
       -7.79716e-05 0.07076312 0.041517388 0.10431294
000040 14 fc 4a 3d 7f 00 a2 b3 c1 5b 66 bc 23 6e 38 ad
       0.049556807 -7.543803e-08 -0.014059962 -1.0483644e-11
000050 d6 1c 49 be cd 43 3c bd 63 75 f9 bd 36 39 f6 b8
       -0.19639906 -0.045963097 -0.12180593 -0.000117408505
000060 d1 33 2e bd 98 0a 53 bd 6a f3 35 ae 75 04 8d b8
       -0.042529885 -0.051523775 -4.137083e-11 -6.724234e-05
000070 0a 50 e7 b4 6d 15 69 b9 6d 23 67 3d f9 af 4c bd
       -4.308534e-07 -0.00022228593 0.05643027 -0.049972508
000080 ba 9d ff 3d 9f 7c 4b 35 3b 45 59 ac b9 e2 ff bd
       0.12481256 7.580474e-07 -3.0875985e-12 -0.12494416
000090 d8 d7 2a bd 8d 43 35 bd 6e 02 63 bc ff f2 b0 b4
       -0.04170975 -0.044253875 -0.01385556 -3.2959358e-07
0000a0 4c b1 8f bc a2 5d 03 ad 05 26 81 3d 26 3c 34 3e
       -0.017540596 -7.4672785e-12 0.0630608 0.1760107
0000b0 87 cf 1f bd 38 46 13 b9 e2 7e 89 b9 1a e6 dd 3d
       -0.039016273 -0.00014045171 -0.0002622521 0.10834904
0000c0 18 2e 45 3d 2b f2 8c 3d 30 31 0b bb 7f 16 83 b5
       0.04813966 0.068821274 -0.0021239035 -9.766808e-07
0000d0 3b 60 53 bd 03 4d 20 be 40 24 11 bc 99 72 63 b1
       -0.051605444 -0.15654378 -0.00885874 -3.3097989e-09
0000e0 70 62 04 3e d6 7d c7 b9 e9 c2 3f ba e2 4c e3 bb
       0.12928176 -0.00038049993 -0.00073151157 -0.0069366554
0000f0 0f 44 07 b3 7e a3 27 3b 89 1c 41 3c 72 0d a3 3c
       -3.1494036e-08 0.0025579627 0.0117865885 0.019903872

advantage.2.weight f4 [36, 64]
000000 5a 97 73 bd 2f 7e 3b 3e d8 af b8 3c ad 7c e1 3d
       -0.059470512 0.18309854 0.022544786 0.11010108
000010 0c cd e6 17 a3 7b af 97 34 f0 f9 3c ee a5 34 3e
       1.4915163e-24 -1.134032e-24 0.030510046 0.17641422
000020 b9 a8 3c 3e 9c 24 20 bb cf 23 b4 bd 3e b8 cb 96
       0.18423738 -0.0024435883 -0.087958924 -3.2912692e-25
000030 62 88 a7 ad e7 d8 54 bd 75 9b 86 bd f4 1b 93 3d
       -1.9046268e-11 -0.051964667 -0.0657262 0.07183066
000040 d0 eb 3a 3e 35 3a 4b 18 f6 04 94 1b 7b 48 e9 3a
       0.18254018 2.6266522e-24 2.4487752e-22 0.001779809
000050 24 9f 18 3e 67 0a a3 3d c4 38 09 3e c7 14 b2 39
       0.14904457 0.079609685 0.1340056 0.00033966286
000060 11 73 8c 3d cf f3 6b bc 5a 80 0e 1b a0 54 b9 96
       0.06857885 -0.01440139 1.1787437e-22 -2.9941768e-25
000070 8c e4 c0 14 e4 94 d1 bd cc 68 d0 bd d8 0b 72 3d
       1.9477191e-26 -0.10233477 -0.101762384 0.059093326
000080 95 62 0c bf 3d be 5f 3c 34 e6 34 18 c3 6d 1a 3e
       -0.54837924 0.013656196 2.3380678e-24 0.15080933
000090 33 bd 2e 3d 82 3d ff 3d 2d 58 7f 3d 8b c9 88 37
       0.042660903 0.124629036 0.06233995 1.6306314e-05
0000a0 5b 26 0a 3e 4c 67 1a 18 6c 91 da 3d 50 1f de 3c
       0.13491194 1.9956185e-24 0.10672268 0.02711454
0000b0 7d 93 00 3e 1a ed 1b 98 52 59 19 3e 22 b9 26 bc
       0.12556262 -2.0152986e-24 0.14975479 -0.010175975
0000c0 c1 89 31 bb 6f 8d ae bd 9d 2a de 3c 67 9d 96 33
       -0.0027090164 -0.0852307 0.027119929 7.0135506e-08
0000d0 f5 e4 71 3d db 08 5e 3d 78 58 21 bc ff 0e 7b bb
       0.05905624 0.054207664 -0.009847753 -0.00383085
0000e0 9b 26 2e 3e 82 23 7c 17 4c d4 16 3d ba 2f 65 bd
       0.17006914 8.147041e-25 0.036823556 -0.05595372
0000f0 65 da 0c 18 4c 9f 01 3e f3 49 1c 3e 54 5e 36 3c
       1.8204837e-24 0.12658423 0.15262584 0.011130888
000100 3d 83 c0 bc f8 9f 70 3d 89 6d 83 bb 25 00 26 3d
       -0.02350008 0.058746308 -0.0040108603 0.04052748
000110 c8 c8 ca 96 2c 1a ab 16 a2 2a 67 be 6d 5a 24 3e
       -3.276157e-25 2.7643057e-25 -0.22574857 0.1605012
000120 b4 06 f9 bd a2 05 9e be b8 8c cd be 48 de 0b 98
       -0.12159482 -0.30863672 -0.40146422 -1.8077552e-24
000130 bb b8 2b 1b 56 67 2c be 6e 27 0a bd 61 5c 72 3d
       1.4204478e-22 -0.16836295 -0.03372901 0.05917013
000140 f4 9d 0e 3d c8 f7 11 98 32 21 1c 17 47 66 2c a3
       0.034818605 -1.8865908e-24 5.0448217e-25 -9.345797e-18
000150 00 5d 8b bd 6c d6 8a 3e 38 ac 1e 3e a0 28 8f 20
       -0.06804848 0.27116716 0.15495384 2.4252026e-19
000160 e3 85 f2 be 04 51 c6 bd b9 39 93 98 74 60 fb 95
       -0.47367772 -0.09683421 -3.8056894e-24 -1.0153027e-25
000170 f4 b9 48 97 25 7d cb be ed d2 5a be 6a 1e 82 3d
       -6.485819e-25 -0.39743915 -0.21369524 0.06353457
000180 27 3d 1e be f4 3d f5 b3 80 bc f5 97 47 73 2f bc
       -0.15453015 -1.1419971e-07 -1.5880338e-24 -0.010708637
000190 09 c4 eb bd 6f b5 9b be ea 12 2d bd ca 40 11 24
       -0.11512 -0.3041186 -0.042254366 3.149674e-17
0001a0 54 fa 03 3e 56 b1 16 17 35 89 de bd 89 0f 95 3c
       0.12888461 4.8691443e-25 -0.10866014 0.018195884
0001b0 3c 1e 8e bb 99 ae 3f 9b 8a 9b 24 3e 93 c9 ae 3d
       -0.0043371003 -1.5855565e-22 0.16074958 0.08534541
0001c0 dd 47 5d bc 2e 5a 70 be 95 82 35 3d f1 bc 71 21
       -0.013505903 -0.23471901 0.044313986 8.190404e-19
0001d0 fe d0 25 3c 57 e8 82 bd 79 29 27 3d e5 c9 5c b2
       0.010120628 -0.063919716 0.040811036 -1.2851591e-08
0001e0 d6 44 86 3e 0a 86 a1 98 1c 9c 88 bc 9a 5f 16 3c
       0.26224393 -4.175287e-24 -0.016676001 0.009178067
0001f0 94 e2 6d 97 32 ed 25 3e 6b ba 28 3e 7c f5 b0 bb
       -7.686481e-25 0.16203764 0.16477363 -0.005400358
000200 27 14 bf be 75 1c 31 bd e7 5d b1 3a 44 0e 4c bd
       -0.37320063 -0.04324003 0.0013532013 -0.049818292
000210 58 2b 0a 15 03 d9 21 98 89 c4 48 3b 69 35 32 bd
       2.790307e-26 -2.0918325e-24 0.0030634722 -0.043507967
000220 25 26 98 bd 73 a9 5d bc 22 be a5 be f0 2e 88 95
       -0.074291505 -0.013529169 -0.32371622 -5.5004017e-26
000230 92 8d 89 a9 00 4d cf bc b6 2c ff bd a4 25 57 3d
       -6.108581e-14 -0.025305271 -0.124597 0.05252613
000240 45 b6 09 3e e3 9b 32 97 a4 6a 34 9a 2d 91 5e 31
       0.13448437 -5.771166e-25 -3.730927e-23 3.2387775e-09
000250 b4 2b 0b 3e 3f 7e 8e 3e 07 32 19 3e ca 8e 2e 29
       0.1359089 0.27830693 0.1496049 3.875961e-14
000260 a4 fe ac 3d 33 e1 e6 bc 58 dc 96 97 21 81 0a 18
       0.08447006 -0.028183555 -9.749145e-25 1.7901275e-24
000270 06 d7 96 17 21 c4 34 be 19 4e 22 3d 91 23 bb bc
       9.747802e-25 -0.17652942 0.03962526 -0.022844108
000280 c8 69 63 be bb 65 83 37 0a f9 b5 17 77 ee e9 3d
       -0.22208321 1.5663789e-05 1.1759717e-24 0.11422437
000290 c9 72 e6 3d f7 18 71 be 21 a9 8a bc 69 de a1 ae
       0.11252362 -0.2354468 -0.01692635 -7.36094e-11
0002a0 61 1a 0f 3d f0 72 47 94 ef 14 02 be c6 8c f7 3d
       0.034937266 -1.00696e-26 -0.12703298 0.12087397
0002b0 34 ca 06 3e 7f 0b 36 99 ee 3c 18 3e df 36 1a be
       0.13163072 -9.411501e-24 0.14866993 -0.15059994
0002c0 8e f3 e9 3d 05 24 dc bd bc d8 d9 bc 46 c0 85 a9
       0.114234075 -0.10749058 -0.026592605 -5.9397406e-14
0002d0 be a5 8d 3d aa 42 96 3d df d2 35 3b 85 1e 8f 33
       0.069163784 0.07336934 0.0027744097 6.664508e-08
0002e0 97 8b 93 3e a9 61 4c 18 ef aa aa 3a 52 57 a4 ba
       0.28817436 2.6415688e-24 0.0013020913 -0.001253823
0002f0 52 3d d2 17 ce 53 49 3d 64 7f 09 3e 30 5b 70 3d
       1.3586411e-24 0.049152188 0.13427502 0.058680713
000300 89 17 94 be 42 2c 02 3e 6d 96 f0 bb 99 ce 1f be
       -0.28924206 0.12712196 -0.007342151 -0.15606155
000310 4c 23 f5 97 d2 02 12 96 ee ec 09 3d 97 93 6e be
       -1.5841664e-24 -1.1794676e-25 0.03367322 -0.23298489
000320 b7 ad 87 3a 92 6a a5 3d e3 03 58 be 4c 49 07 17
       0.0010351454 0.08076967 -0.21095233 4.3713366e-25
000330 07 b8 c4 1e b5 b8 af bd fe 48 47 3d c6 c3 99 be
       2.0828419e-20 -0.08580152 0.048653595 -0.30032176
000340 fc cc 9c 3d 46 b8 0f 97 ee 96 0c 17 fd a5 ce 26
       0.07656285 -4.643838e-25 4.542694e-25 1.4339113e-15
000350 92 06 29 3e bc 47 08 3e 2a 49 00 3e 1a e0 3e a7
       0.16506413 0.13308614 0.1252791 -2.6489283e-15
000360 ee c2 a0 bd 08 59 0b 3e 43 93 bf 97 9c 89 d2 97
       -0.0784968 0.13608181 -1.238026e-24 -1.3605669e-24
000370 84 d1 d3 17 d4 12 c7 3d c1 97 41 3e d0 3e a7 bd
       1.3688445e-24 0.09720388 0.18905546 -0.081662774
000380 bd c5 21 3e eb 92 f6 39 d5 3f 18 18 f6 48 93 3d
       0.15798087 0.0004703024 1.9677766e-24 0.071916506
000390 8b fd 76 3c 29 cf a7 3d ea 82 12 be c5 47 3a 27
       0.015075098 0.081938095 -0.14307752 2.5851592e-15
0003a0 8f bd 2a bd cd dc b5 16 57 93 a9 bd 72 cb 0c be
       -0.041684683 2.9381472e-25 -0.08280056 -0.13749483
0003b0 1f 7d be 3d a8 f9 6a 98 7c 95 8c 3e 40 f5 48 be
       0.09301209 -3.0369835e-24 0.27457798 -0.19624805
0003c0 4d 2c a7 3d b5 43 d4 bb c7 72 14 3d cf ba 43 9b
       0.081627466 -0.006477798 0.036242273 -1.6190383e-22
0003d0 eb 7d d2 bd 15 b9 70 3d 9e 29 85 bc 7a 57 53 b6
       -0.10277923 0.058770258 -0.016255196 -3.1492368e-06
0003e0 0b cc 88 3d 3c 83 61 17 92 fc db bd fe 33 33 bd
       0.06679543 7.286706e-25 -0.10741533 -0.043750755
0003f0 87 2b 4d 98 20 33 12 3e 49 2e 45 bd 4a 81 70 3e
       -2.6517605e-24 0.14277315 -0.048139844 0.2348682

advantage.2.bias f4 [36]
000000 cd fc c1 bd 7f b2 a4 3d 94 c8 d5 3d 52 a6 de 39
       -0.09472046 0.08041858 0.10438648 0.00042467058
000010 4f 82 98 bc 09 f3 8a bd 18 20 72 3d 66 3d c0 3d
       -0.018616823 -0.067846365 0.05911264 0.09386711
000020 b1 fe 45 3d 46 54 aa 3b 00 0a 68 bd 5d f5 02 3e
       0.048338596 0.0051980345 -0.05665016 0.12788911
000030 e5 43 33 bd 27 e8 e1 3d c3 dc c1 3d e1 df aa 3d
       -0.04376592 0.11030608 0.09465935 0.08343483
000040 ac 9d aa 3d 2d f7 6a bd fd 01 38 3d b0 73 9d bd
       0.08330855 -0.05736463 0.04492377 -0.07688081
000050 d1 ca 06 3c 27 ec 1c 3e 59 bf 0e bd b8 e7 ba bd
       0.008227066 0.1532446 -0.034850452 -0.09126228
000060 d1 55 6e 3d 12 cf 91 bd f1 fd 94 bd 7b d3 b4 3b
       0.05818731 -0.07119574 -0.07274998 0.0055183745
000070 20 50 4f 3c 73 bc 8b bc a7 17 43 3e 6e f1 0e 3e
       0.012653381 -0.017057633 0.19051991 0.13959286
000080 30 be 63 3b 3b 9d d3 3d da b8 d1 3d 12 6c 07 be
       0.0034750812 0.10332724 0.10240336 -0.1322482

value.0.weight f4 [64, 128]
000000 ae 1f 01 97 4a 6f 22 16 5a cf 31 16 13 a2 b2 15
       -4.1722133e-25 1.3121372e-25 1.4363375e-25 7.2149335e-26
000010 3c 75 ba 15 44 65 69 17 a2 97 aa 17 e5 b6 93 16
       7.5309765e-26 7.5414176e-25 1.102427e-24 2.3864554e-25
000020 e2 00 87 96 4f a8 4f 17 88 ca cd 16 ea 33 a5 16
       -2.1810983e-25 6.7097743e-25 3.3247351e-25 2.668995e-25
000030 2d d1 0f 98 d0 55 30 15 c8 24 a3 17 24 33 99 17
       -1.8587924e-24 3.561061e-26 1.0542913e-24 9.900303e-25
000040 41 b1 98 97 95 b0 04 98 1e 28 05 16 63 64 81 17
       -9.867515e-25 -1.7149751e-24 1.0756313e-25 8.361771e-25
000050 64 3a bc 17 50 28 f9 95 fe 6d 89 17 14 11 cf 17
       1.2163955e-24 -1.006339e-25 8.881183e-25 1.3381373e-24
000060 82 fb 0c 97 8e 15 e1 12 ce 4b 49 15 27 34 ef 17
       -4.5553887e-25 1.420481e-27 4.0651426e-26 1.5458178e-24
000070 4c 5c 24 95 49 e2 c3 96 64 bd 86 15 19 1e 84 16
       -3.3192346e-26 -3.1646755e-25 5.4420975e-26 2.1344744e-25
000080 06 8b 3c 96 30 15 2d 97 db ac 6d 97 ee c7 24 15
       -1.5230387e-25 -5.5926057e-25 -7.6797004e-25 3.3277253e-26
000090 0e 81 7a 96 28 84 5c 17 05 5e df 17 9a 91 76 97
       -2.0235562e-25 7.125264e-25 1.4434771e-24 -7.967066e-25
0000a0 28 1b 9e 97 13 aa f3 16 68 74 01 16 fe 9f 6a 95
       -1.0217366e-24 3.93661e-25 1.0457268e-25 -4.7382135e-26
0000b0 c0 37 2b 15 3b 8e ab 96 dc 15 10 17 d0 29 a7 95
       3.4577154e-26 -2.77163e-25 4.65565e-25 -6.751673e-26
0000c0 4c 91 69 16 d0 c7 1c 13 fc f9 55 97 98 19 0d 96
       1.8867438e-25 1.9788483e-27 -6.9139537e-25 -1.1397965e-25
0000d0 47 29 f0 96 82 a0 4b 97 9a 85 6d 17 80 c4 a3 16
       -3.880014e-25 -6.5795427e-25 7.674746e-25 2.645808e-25
0000e0 76 de 43 14 21 f9 9a 97 d8 83 91 96 61 3d 58 17
       9.888857e-27 -1.0014906e-24 -2.3509219e-25 6.9870835e-25
0000f0 79 62 53 96 5b d1 8a 97 d5 81 8a 97 7a 96 7e 97
       -1.7075517e-25 -8.97089e-25 -8.950815e-25 -8.2261755e-25
000100 6e a7 87 17 d4 a1 91 16 de 71 b1 13 33 b0 ca 97
       8.766436e-25 2.3528141e-25 4.4793363e-27 -1.3098423e-24
000110 d0 c5 46 95 11 e4 47 97 6e e8 8d 16 6b 57 03 98
       -4.0141828e-26 -6.458823e-25 2.2926462e-25 -1.6975488e-24
000120 9b 28 18 17 c2 a3 a3 15 46 83 54 97 3e cd fd 17
       4.91651e-25 6.609354e-26 -6.8666585e-25 1.6401552e-24
000130 00 e8 19 97 c8 1e f2 15 c3 3a e3 16 9a 49 a5 97
       -4.972979e-25 9.7791586e-26 3.6710912e-25 -1.0681455e-24
000140 82 04 32 95 14 cf dc 15 be d2 ca 96 f9 d9 ab 16
       -3.595037e-26 8.9184004e-26 -3.2767857e-25 2.77641e-25
000150 3d 49 58 97 9e d9 c7 16 d8 90 1d 17 8e 75 1b 17
       -6.9885804e-25 3.228752e-25 5.0912255e-25 5.0231576e-25
000160 64 8f 61 17 26 d5 05 17 4f 5c a7 16 8f 03 55 97
       7.2882405e-25 4.324365e-25 2.703856e-25 -6.8828503e-25
000170 40 08 43 97 28 20 3a 93 99 66 90 17 05 96 b5 96
       -6.301831e-25 -2.3492355e-27 9.331681e-25 -2.9336803e-25
000180 24 90 8c 97 14 1c 9c 16 6a 3f f2 16 f1 9e 9d 17
       -9.083674e-25 2.522088e-25 3.9137229e-25 1.018601e-24
000190 40 f9 6a 94 63 b5 38 17 de e4 90 17 e3 73 8c 96
       -1.1863137e-26 5.968255e-25 9.363556e-25 -2.2691355e-25
0001a0 9d 98 00 17 c4 ed 2c 16 98 17 c8 17 48 cf 5d 95
       4.1551656e-25 1.3969075e-25 1.2930653e-24 -4.479411e-26
0001b0 e4 74 07 18 d2 0f c6 96 cc 47 89 15 6e b7 b3 96
       1.7507356e-24 -3.199861e-25 5.5447135e-26 -2.903477e-25
0001c0 25 d4 ba 96 db 8c 42 17 8f 12 93 17 09 cf 9b 97
       -3.0183803e-25 6.2862565e-25 9.504337e-25 -1.0068903e-24
0001d0 78 6e 8e 97 3e d3 6f 16 0e 24 68 16 56 dd c0 16
       -9.204421e-25 1.9372923e-25 1.8752188e-25 3.1158956e-25
0001e0 2f b4 79 17 23 e7 af 96 c3 2a e0 95 4b 3a ba 97
       8.0683663e-25 -2.8418643e-25 -9.0540346e-26 -1.2034683e-24
0001f0 10 49 b2 14 1e 83 8d 16 86 23 b9 17 a0 d9 2a 13
       1.8002225e-26 2.2862525e-25 1.1964312e-24 2.1564314e-27
000200 a2 69 d1 96 9c c8 cf 97 c8 74 74 15 7a 05 49 97
       -3.3832435e-25 -1.3427702e-24 4.9367532e-26 -6.4953515e-25
000210 f0 60 90 97 ed 06 e3 17 08 0f 42 95 11 8d a5 97
       -9.330252e-25 1.4671279e-24 -3.9189846e-26 -1.0698485e-24
000220 e1 01 9b 94 36 e7 5c 17 23 b8 91 97 75 a2 64 97
       -1.5651741e-26 7.1377663e-25 -9.416888e-25 -7.3875823e-25
000230 0e 59 82 97 a8 3e c4 17 f8 b8 3c 97 e1 bc b0 96
       -8.423534e-25 1.268202e-24 -6.097954e-25 -2.8553533e-25
000240 70 fe 1b 94 40 c0 93 95 8c 50 6d 17 46 a9 46 97
       -7.875679e-27 -5.9676144e-26 7.6680495e-25 -6.4190904e-25
000250 8e f6 13 16 6e 59 e8 17 bb 80 c8 97 50 b4 88 15
       1.1952364e-25 1.5015224e-24 -1.2957193e-24 5.5214446e-26
000260 53 73 bf 97 f8 75 a0 14 12 e6 01 97 c0 64 ed 14
       -1.2372198e-24 1.6202402e-26 -4.197254e-25 2.3970623e-26
000270 4e e8 b7 16 1e 0a 92 17 d6 9d d9 17 8f ee d3 96
       2.971185e-25 9.437583e-25 1.406314e-24 -3.423944e-25
000280 2e 94 3a 17 1c 31 45 16 29 a6 be 16 20 f3 f9 14
       6.028687e-25 1.592903e-25 3.0801017e-25 2.523847e-26
000290 94 ba 39 15 88 c6 89 13 7d 4f 04 96 24 c9 a2 16
       3.7507637e-26 3.477943e-27 -1.0687957e-25 2.629945e-25
0002a0 f6 fc cc 16 d6 96 1b 16 b8 7e a5 97 b4 f6 74 16
       3.3117618e-25 1.2568396e-25 -1.0694863e-24 1.9788009e-25
0002b0 c8 91 fa 93 30 32 08 97 2c 06 93 17 a3 13 0c 18
       -6.3252624e-27 -4.4007316e-25 9.50121e-25 1.810449e-24
0002c0 fa 5e 91 17 d2 4b 8a 97 00 c4 bf 95 04 de 6f 16
       9.394381e-25 -8.937181e-25 -7.745352e-26 1.9376322e-25
0002d0 f8 40 bf 15 1f 1c 73 97 35 3e 7d 17 d8 2b c3 96
       7.724679e-26 -7.855303e-25 8.1827225e-25 -3.1531618e-25
0002e0 de e6 88 17 12 39 89 16 61 2e b4 97 d1 2a 46 17
       8.847073e-25 2.216956e-25 -1.1643935e-24 6.403129e-25
0002f0 2e 0d 98 14 f2 fe 7b 94 16 ff 16 17 ba 33 3f 96
       1.5353276e-26 -1.2722541e-26 4.878958e-25 -1.5445179e-25
000300 cd 54 de 15 f4 8c 16 97 4a 1d e7 97 0f 96 12 16
       8.979888e-26 -4.864552e-25 -1.4935419e-24 1.1841136e-25
000310 08 66 ad 14 1e f7 2d 96 d8 d9 d1 16 f2 01 e0 95
       1.750878e-26 -1.4052805e-25 3.390325e-25 -9.047595e-26
000320 c2 04 41 15 25 2b 30 17 1f 87 f3 96 90 29 18 97
       3.8979793e-26 5.6923123e-25 -3.934404e-25 -4.916631e-25
000330 2c 72 51 97 6a 65 fb 96 83 bf 79 95 40 29 96 16
       -6.7675647e-25 -4.0615238e-25 -5.0436226e-26 2.425984e-25
000340 a4 ac 10 16 eb 93 2b 17 37 97 8b 96 1a cd da 16
       1.1686703e-25 5.543978e-25 -2.255209e-25 3.5349237e-25
000350 35 a0 8e 16 bb 83 9c 97 22 5a 87 17 f7 7c b7 97
       2.3042442e-25 -1.0114517e-24 8.746923e-25 -1.1857643e-24
000360 8e a0 03 96 fd cf 9f 16 11 f9 02 98 cd 8b 6b 17
       -1.0632758e-25 2.5819094e-25 -1.6927853e-24 7.610905e-25
000370 e5 77 5a 96 b5 2d 2b 16 ee de a1 17 37 3c d0 96
       -1.7647732e-25 1.3827693e-25 1.0460657e-24 -3.3642213e-25
000380 ad e2 5a 97 6e 9a 4c 97 50 3b 6d 97 7e 81 a2 17
       -7.0725704e-25 -6.6110873e-25 -7.6653693e-25 1.0501693e-24
000390 73 a3 b6 94 90 a6 ab 97 0d 07 b0 17 25 ba 83 97
       -1.8441773e-26 -1.1092662e-24 1.1375513e-24 -8.512666e-25
0003a0 fb ac 07 96 ee 2e 8d 17 c4 c5 2d 97 3e a2 80 94
       -1.0959796e-25 9.123758e-25 -5.614893e-25 -1.298869e-26
0003b0 9d df c9 96 ae 5d 9c 95 2c f0 2d 17 de 9c fc 15
       -3.261442e-25 -6.31557e-26 5.6202454e-25 1.0202948e-25
0003c0 2c 37 e2 97 a8 18 29 97 97 57 29 97 0b 6b 90 96
       -1.4618835e-24 -5.4637966e-25 -5.47174e-25 -2.3332008e-25
0003d0 73 d4 d9 96 60 cf 22 96 ca 72 37 17 68 77 e5 15
       -3.5192315e-25 -1.3151692e-25 5.9275373e-25 9.2680753e-26
0003e0 98 97 28 94 9d ca 6b 97 b0 5b 59 17 c3 77 28 97
       -8.511729e-27 -7.618833e-25 7.0232208e-25 -5.443489e-25
0003f0 04 88 6f 97 46 4c 7d 96 52 48 b5 13 24 1b 0c 95
       -7.739674e-25 -2.0461245e-25 4.5762137e-27 -2.8294185e-26
