pre-trained/ddqn_dnn16000.pth (torch_old, 650004 bytes, 44 tensors)

feature.0.weight f4 [128, 36]
00000000: 5cf6 0fbd 0c6d a43c c130 9bbc deff 163c
00000010: 6245 8abb 7477 8ebd 4f83 f13b 11d6 8dbd
00000020: 6948 293d fb04 973c b562 7d3d 3949 b93d
00000030: a802 fcbd c99c 79bb 993b f73d 7afc 673e
00000040: 48e2 ac3d 5519 ca3c 6336 cfbc 55ce 6cbb
00000050: 7974 603e 3d89 2dc0 2e9a 9a3d 3de2 f53c
00000060: b2d3 263c 2788 ee3c 6b24 6d3d 6778 f0bc
00000070: 0970 44bd 952c 823d 05c4 9cbb db52 823d
00000080: f1e9 a039 f2a4 07be 1e83 87bc bd28 d73d
00000090: e5ba 1dbc 69ad c23d ad34 70bd ef16 06bd
000000a0: 3768 343d 0ad2 133d aac6 793e ae6a fc3d
000000b0: df1d f4bd 5ea8 54bc 739d a1bc 5b29 c3bc
000000c0: 0a95 903d 07ab c43c d943 08bd d570 513c
000000d0: e49f 2b3d 4ee3 c03d 4f29 0dbe 64af a7bd
000000e0: 7b96 443c f7ae dc3d 23bd dc3d 8d74 ff3d
000000f0: 1696 d6bf b673 27be 12cb 4c3e a4de 013e
00000100: baef 123e 8d6d 45bd 57a0 aabf 37a2 d3bd
00000110: 3eef b13d dc44 883c 9bbf e7bd a72d 243e
00000120: 8222 47bd c514 903c 0993 5c3d 94f2 f2bc
00000130: dea7 1f3d fe2b da3a a7c9 37be 09cf 0a3d
00000140: 69f0 6f3d ddc7 0ebb d207 123d cc53 1e3c
00000150: 6a45 4fbf 0273 e9bf 715b 073e 3d79 e0bb
00000160: e31b 5f3d aa40 c0bb f8d0 e13e 948b cf3e
00000170: 576a 213c c8a5 14bd d10f c9bd 340b 7bbd
00000180: 6185 4a3e 57e0 3f3e 6189 153e 2786 c3bc
00000190: dd7b 1bbc d821 9abd 9a84 273c 8c4f 753d
000001a0: f827 1e3d 6a61 2d3d 35af acbd 85ff 613e
000001b0: a09d c7bd 6845 933d 5bbe a73b e139 92bd
000001c0: f72a 01bd 23e3 8b3a 9929 abbd fc83 0cbe
000001d0: b89a 013c 2f5b 9d3d ca6c 1dbb 324c 8d3d
000001e0: 7f07 7d3c 8916 e5bd 9c85 f83d 38f2 173e
000001f0: 2b23 55bd 1d66 813c d98d e83c 3e53 2e3e
00000200: b92f c93f d730 a9be 2d30 f1bd 1969 bbbc
00000210: 6be0 1dbc 9d08 283d fbac 2bbd f674 2c3e
00000220: 455c 84bd 3567 5b3c 9782 1dbd 04ca 01be
00000230: 474e 2dbe 4887 17be f034 acbb b506 513e
00000240: f027 95be 32c1 cabe f0a7 06bf c05c 1abe
00000250: 4178 83be 9ed6 7c3d 1d40 86be a685 20be
00000260: ea2f 96be 0537 a3be 228d 293e ab63 95be
00000270: 37f8 51be 886b eabe a6c1 85bf df35 34bf
00000280: b62c 2f3e 708a a3be 9c0a 95be 58d3 bdbe
00000290: 5894 cebe f062 25bf 975f 92be 0d04 d4be
000002a0: 656f 6c3d ca6b d03d e552 183d a0d5 2ebd
000002b0: fe6c 5bbe 51db b93e e78f 96be 8441 d0bd
000002c0: f79a bdbc fdc2 9fbe 515f 133f f92a 9cbd
000002d0: b3b1 dc3c 9672 ad3c 0556 993d 6a90 073d
000002e0: 6300 103c ed83 98bd 0331 87bd ac11 4fbd
000002f0: 2790 db3c 4b58 1e3d dd99 d03c 1361 eebd
00000300: eccc 833b 9679 d13d e891 5f3c 5816 20bc
00000310: 2caf b83c 1b03 9dbd 6abe d7bd b90c 3abd
00000320: 56d1 4a3e 390f d83d 0444 b4bb 68c9 a3bd
00000330: 89c4 cabd b4e8 03be a666 fcbd ee5b edbc
00000340: 481e 0b3c 45a6 0ebe 72b8 ce3f de59 2ebf
00000350: 39d1 c7bb 8795 963d 4d95 c4bd 2385 fc3d
00000360: 26c4 4cbd a574 813b a52d 703d 2fa1 b33d
00000370: b913 003e ddc2 9bbe eb80 53ba 5d97 1dbd
00000380: 8f0a d93c e686 073b e3f5 0f3d b3a2 f53d
00000390: df62 c83b 8327 513d 305e 883c 2a65 a23d
000003a0: ec6d ccbf 5e1c c7bf 20fd 1f3c 9a78 39bd
000003b0: f4d9 e73c f664 4a3e 189a 1b3e 9de8 833d
000003c0: cdf4 b53c 5c60 06bd a7b7 253c b756 9d3c
000003d0: 24fc 233d a7da d0bd 191c 5ebd e646 3e3c
000003e0: fe89 2fbd 816d 8dbd eae2 44be 7c01 3dbd
000003f0: e9ea a2be d448 69bd 45d4 af3d 1997 e03d
-0.035147056 0.020071529 -0.018944146 0.009216277 -0.004219697 -0.069563776 0.0073703895 -0.069255956
0.04132882 0.018434992 0.061861712 0.09047169 -0.12305194 -0.0038087836 0.12071914 0.22654906
0.08441597 0.024670282 -0.025294488 -0.0036133726 0.21919431 -2.7115014 0.07548939 0.030015105
0.010182308 0.029117657 0.05789606 -0.029354287 -0.047958408 0.063561596 -0.0047841095 0.0636346
0.00030691878 -0.13246515 -0.016542014 0.10505817 -0.009627079 0.095057316 -0.058643986 -0.032736715
0.0440447 0.03608898 0.2439219 0.12325035 -0.1191976 -0.012979595 -0.019728398 -0.02382343
0.07059677 0.024007333 -0.03326783 0.012783249 0.04190053 0.09418355 -0.13785289 -0.0818775
0.011998768 0.107755594 0.107782625 0.12473402 -1.6764553 -0.16352734 0.1999934 0.12682587
0.14349261 -0.04820018 -1.3330182 -0.103336744 0.0868821 0.016634397 -0.11315843 0.1603304
-0.048616894 0.017588029 0.05385116 -0.029656686 0.03897845 0.0016645191 -0.17948018 0.03388885
0.058578882 -0.0021786608 0.03565199 0.009663533 -0.8096529 -1.8238223 0.13218476 -0.00685039
0.054469954 -0.0058670836 0.44104743 0.40536177 0.009852014 -0.036290914 -0.0981747 -0.06128998
0.19777443 0.18737923 0.14603187 -0.02386768 -0.0094899805 -0.075259864 0.010224486 0.059890315
0.038612336 0.04232923 -0.084318556 0.22070129 -0.097468615 0.071909726 0.0051191277 -0.07139946
-0.031535115 0.001067255 -0.083575435 -0.13722223 0.007910423 0.076834075 -0.0024021142 0.06899299
0.015443682 -0.11185939 0.12134859 0.14838493 -0.052035492 0.015795762 0.02838795 0.17023942
1.5717689 -0.33045074 -0.11776767 -0.022877263 -0.009636025 0.04102384 -0.041913014 0.16841492
-0.064629115 0.013391306 -0.03845462 -0.12674719 -0.16924392 -0.147977 -0.005255334 0.20412715
-0.29132032 -0.3960052 -0.526 -0.15074444 -0.25677684 0.061728112 -0.2622079 -0.15675983
-0.2933343 -0.31877914 0.16557744 -0.29177603 -0.20504843 -0.45785165 -1.0449722 -0.703947
0.171069 -0.31941557 -0.29109657 -0.37075305 -0.40347552 -0.6460409 -0.28588554 -0.4140934
0.05772342 0.10176809 0.03718843 -0.042684197 -0.21428296 0.36300138 -0.29406664 -0.10168746
-0.023145182 -0.31203452 0.57567316 -0.07625384 0.026940202 0.021172803 0.0748711 0.03309671
0.008789155 -0.07447038 -0.06601145 -0.050553963 0.026802136 0.03865842 0.025463993 -0.11639609
0.0040222313 0.10228269 0.013645627 -0.009770952 0.022544466 -0.07666608 -0.105343655 -0.04542229
0.19806418 0.105497785 -0.005501272 -0.079973996 -0.09900767 -0.12881738 -0.12324266 -0.0289745
0.008491106 -0.13930614 1.6150038 -0.68105876 -0.0060979393 0.07352739 -0.09598789 0.12330081
-0.04999175 0.0039506727 0.05863728 0.08770978 0.12507524 -0.30422106 -0.00080682215 -0.03847443
0.026494293 0.002067977 0.035146605 0.11993923 0.006115302 0.051063072 0.016646475 0.07929452
-1.5971045 -1.5555532 0.00976494 -0.04528103 0.02830217 0.19765076 0.15195501 0.06440852
0.022211457 -0.03280674 0.010114587 0.019206388 0.040035382 -0.101979546 -0.054226015 0.011613583
-0.04285621 -0.06905652 -0.19227186 -0.046143994 -0.31819847 -0.05695422 0.08585409 0.109663196

feature.0.bias f4 [128]
00000000: 367f 92bd b228 39bd 27f0 0cbe fa17 d0bc
00000010: e474 78be dd9b 3abc 677e bebd a77b 27bd
00000020: fd93 2abd c20a efb8 bdeb d5bd f1d3 f5bc
00000030: 428c 84bd 2ef9 96bd d673 0a3c f511 96bd
00000040: c17e 9a3d e1a7 ccbd 41c6 f0bd 3a02 c3bd
00000050: 6f8b 35bd 661f 99be a722 05bd 4adf 40be
00000060: 5d52 c9bc 2b8f 4bbe b07a cabd 4a49 63bd
00000070: f226 7abd 09fe a93a e47a 24be 39bb fbbb
00000080: fc83 f5bd ccdb 233d aff0 3fbe 4f37 0abe
00000090: d809 fbbd 5ca9 3abe db50 37be 4f6c b53a
000000a0: 1d7f c83c f146 e73c 2f85 81bd 3f5a b6bd
000000b0: 3be5 24bd 2ef0 05bd b4bd 22bd 6452 ecbc
000000c0: 657a b1bd f749 a93d 2f04 a7bc 01c8 f1bd
000000d0: b4ed 08be 7a69 42bc 4a42 62bd 53ca 9dbd
000000e0: 8b81 1dbe 31bf 8a3b 36b8 e63c 8b14 debc
000000f0: a0de ddbd 27cd f2bd 4c91 07bd 8f55 32be
00000100: cff1 9fbc a6e7 8ebd d9ce 88bb 65b5 d1bd
00000110: 6324 adbc 11b1 d4bd d5f7 033d 4fa3 a3bd
00000120: 316b 3c3d a024 c53e c93c 943d d3e5 85bd
00000130: ca4f fbbd 587f abbd c99f 2d3d c185 96bd
00000140: 0a2b 0c3e 83db a3bd 7959 1b3e a0cd 51be
00000150: 8008 85bc eed8 df3d 401d 95bc 4b92 cbbc
00000160: 8097 483d d838 8abd 693b 5c3c c46d f8bd
00000170: 674b 24be 2b94 5cbc d225 d7bd 2702 7dbe
00000180: e83e 5abe 454e b43e a5b9 a5bd 6f51 f1bc
00000190: cfe9 793d b187 dcbc 3de9 ae3d c2bf 503e
000001a0: 8e79 d0bc 90c0 353c 34c8 d3bd 8e0a 853c
000001b0: 5cb9 9cbd b105 7c3d e2c7 63bd 875e 93be
000001c0: bb0f 84bd 4b4b 253d 597b 483d 8e8f 783c
000001d0: 331e 08be d69b 37bd 70b2 32be f239 8abc
000001e0: 2aeb 03be 4757 bcbc 6bba 41bd 644f 14bd
000001f0: 04a1 d33d 943e 77bd a68b 35bc 1b54 69be
-0.0715317 -0.045204826 -0.13763486 -0.025402058 -0.2426334 -0.0113897 -0.09301453 -0.04088941
-0.04164504 -0.00011398412 -0.10445354 -0.030008288 -0.064720646 -0.07371746 0.008450469 -0.07327644
0.07543708 -0.09992958 -0.11756564 -0.09521909 -0.044322427 -0.29906768 -0.03250375 -0.18835178
-0.024575407 -0.19878833 -0.09886682 -0.055489816 -0.061072297 0.0012969385 -0.16062504 -0.007682231
-0.11988065 0.040004537 -0.18744157 -0.13497661 -0.12257737 -0.18228668 -0.17901938 0.0013841483
0.024474675 0.02823207 -0.06324231 -0.08903932 -0.040257674 -0.032699756 -0.039731696 -0.02884788
-0.08665923 0.08266061 -0.020387737 -0.11805726 -0.13371927 -0.011865968 -0.055239 -0.07704606
-0.15381448 0.0042342176 0.02816401 -0.027109405 -0.10833478 -0.11855536 -0.03309755 -0.1741545
-0.019524483 -0.06977777 -0.004175049 -0.102396764 -0.021135515 -0.10385335 0.032218773 -0.07990133
0.046000663 0.38504505 0.07238156 -0.06537976 -0.12271078 -0.08373898 0.04238871 -0.0734973
0.13688293 -0.08000853 0.1517085 -0.20488596 -0.016239405 0.10930048 -0.018202424 -0.024850031
0.048972607 -0.06749123 0.013441899 -0.12130311 -0.16044389 -0.01346306 -0.105052605 -0.24707852
-0.2131306 0.35215965 -0.080920495 -0.029457776 0.061013993 -0.026920171 0.085405804 0.2038565
-0.025448587 0.011093274 -0.1034092 0.016240384 -0.07652542 0.061528865 -0.055610545 -0.28783056
-0.06448313 0.040355008 0.04894576 0.015170945 -0.1329277 -0.04482635 -0.17450881 -0.016873334
-0.12882677 -0.022990836 -0.047296923 -0.036208525 0.10333446 -0.060362414 -0.011080658 -0.2278599

feature.2.weight f4 [128, 128]
00000000: e6ea f9bd 0b01 653d fa94 4e3e bc9f 9a3d
00000010: 36f4 7abe de6f 003e b23d d3bd fd20 5d3d
00000020: 22a6 4fbc de7f 7180 bfb9 f53d 4c79 f63d
00000030: 98a4 f7bd 3e8c c93c a830 313f aba1 88bd
00000040: c636 20be bc61 103e 8c0d 8c3e e6b3 943e
00000050: 0046 423e d4f5 663e 01a4 c93d 74a5 c03e
00000060: 7b00 3c3d 240e 84bc a937 8cbd c301 083f
00000070: 2530 3fbe c618 383d 30c0 ea3e 94d5 3321
00000080: be13 653d e862 383d 2b52 0a3f 840c 113e
00000090: 8f76 15bd 86cc f53d d095 c53a d53d 943d
000000a0: c194 e63d 3d43 3e3e 146f 1cbe ab31 a43d
000000b0: 18ce cfbe 3cff 073d 5538 0b3e e52c 40bd
000000c0: 0707 4bbd 0ab7 873d 91f9 c1bd 1381 4ebe
000000d0: 2d02 1c3e fd0d a13e a7d2 1f3e 5614 8b3d
000000e0: 7826 4cbd d34d 08be d7e8 df3c 550a 2dbd
000000f0: d932 1c3e 1cf5 9fbd f85b 6423 9b15 653e
00000100: 9b0a 873e cff8 01be 430b 2fbd 8581 c53d
00000110: c8fc 343e a5b3 963e 20ef 14be 7b02 2fbd
00000120: 3c2f e33d b031 92be 8f9b a63e d2fc c3bd
00000130: fa83 8b3d 3f1f 083e a448 5b3d 8dfd a93e
00000140: 9020 cfbd fd27 783e 0abc d03e c79a 273e
00000150: b848 b7bd e9d4 f63d 9d2c 853e 8937 083e
00000160: fa32 cd3d bf0b 6d3e 2801 99be 14c9 12be
00000170: 6706 9abb fe4d 273e 884e 0ebe 0075 303c
00000180: 61fc b03e 31c4 50be 6ead 093e 2e14 72be
00000190: a199 7ebe b09c 32bc 3d58 253c 8616 cabd
000001a0: 8262 8fbd 9e87 e1bc 2b83 9eba 7b03 c2bd
000001b0: 789d 593d c345 10bd ca18 233d 88a7 a8be
000001c0: ef75 f93e b4ca 34ba 279b e83d 7c09 bbbd
000001d0: 236c 8dbd 677c d33d 41b1 bb3c 1962 a83e
000001e0: e437 7ebe c1c4 3fbe 0781 743e 01b6 5a3d
000001f0: 3466 8bbd e041 e43d ae3a f7bd 638d 7c3e
00000200: b55f 483e 51a5 ab3d 8dff 893d 62a9 513d
00000210: d5b6 cbbd fd1a 1d3e 981e 1abf 8356 863d
00000220: a842 633e fb43 4e00 a795 9ebd b18e 223d
00000230: a7c1 c1be f186 043e d551 2f3e 124a cc3b
00000240: c666 e83c ead5 953c 71c6 1dbe b33e ac3d
00000250: 73f7 123d 372c d6bc a23c 883d 5199 a5bd
00000260: 5112 553f 4be4 dabc af3c 183e 35ce 223e
00000270: c76b 02bf 3bac 23be 2e97 013f cd16 b22a
00000280: dd35 6c3e 468d d93c f5ac 253d 96a5 3abe
00000290: 49e1 6d3e e881 7dbf 4e94 a4bd a952 813e
000002a0: b7a7 b4be 399c 8a3c 60de b93c 0c9f 923d
000002b0: 50e1 62be 3959 1d3e 5e55 273d 65b6 053e
000002c0: 9304 9c3d 0160 e03c 1e19 af3d e96a 81bd
000002d0: 0e81 893e 5b4d d3be c594 ed3d 16dc e9be
000002e0: fd9e 073e 2864 693f b06d 15be 9223 ef3e
000002f0: c1df a43c ceff 2c3e e753 b2aa af7d 64be
00000300: d621 0f3e 0ea3 b53d c24a 6e3b 5f50 543e
00000310: bba2 f2be 2d79 9ebe b165 4c3e aa6f 183e
00000320: 5917 013d 31d9 e0bd b997 403e ad67 71bd
00000330: 25d0 89bd 3f78 c53c c2ad b9bd 0069 893e
00000340: a98c 443d ccb2 e33c 23ba 003e 71db b43d
00000350: ca26 743e b0d0 253f 95fc 4c3e af0d 763d
00000360: a312 09be d529 a73d 2d18 40ba 5bfc 233e
00000370: dd5f 73bd cc89 073e 3420 74be 69c2 df3c
00000380: ecb6 bc3a 6e44 883d f54a a33e 92e8 423e
00000390: 5398 a1bd 8fe6 16bd 315d f6be 5fab 75bd
000003a0: c235 0e3e db8b c6bc 9832 fe3e 4321 9c3c
000003b0: 6c28 943e be09 77bc 83c9 42bd 56e2 603e
000003c0: fc23 c33e b518 ca3d b848 003e 2f6e 73bf
000003d0: 4527 a3bd 4fe1 8ebc 7b08 653f 4495 b2bd
000003e0: 21ab 6f3e b90f 113e b73c 303e 826c 863d
000003f0: b593 b2bc 9ce9 d7bd fe45 9cbf 44a0 d7bd
-0.122030064 0.055909198 0.20174018 0.07549998 -0.24507222 0.12542674 -0.10314502 0.05398654
-0.0126738865 -1.0423281e-38 0.11998319 0.12034854 -0.12091941 0.024603005 0.6921487 -0.06671461
-0.15645894 0.14099783 0.27354085 0.29043502 0.18972015 0.22554713 0.098457344 0.3762623
0.045898896 -0.016120024 -0.06846554 0.5312769 -0.1867071 0.0449455 0.45849752 6.0930227e-19
0.05592703 0.0450162 0.5403163 0.1416493 -0.03649002 0.120019004 0.0015074555 0.07238356
0.11258841 0.18580337 -0.15276748 0.08017286 -0.40586925 0.033202395 0.13595708 -0.046917815
-0.04956725 0.06626709 -0.09471429 -0.20166425 0.15235205 0.31455985 0.15607701 0.06790988
-0.049841374 -0.13310938 0.027332706 -0.04224618 0.15253772 -0.07810423 1.237938e-17 0.22371523
0.2637528 -0.12692569 -0.04273535 0.096438445 0.17674553 0.29433933 -0.14544344 -0.042726975
0.110929936 -0.28553534 0.32540557 -0.09569706 0.06812282 0.1329317 0.053536072 0.33201256
-0.10113633 0.24234004 0.40768462 0.16367637 -0.08949417 0.12052328 0.260106 0.13302435
0.10019489 0.23149012 -0.29883695 -0.14334518 -0.0047004703 0.16338345 -0.13897145 0.0107700825
0.3456755 -0.20387341 0.13445064 -0.2364051 -0.24863292 -0.010901615 0.010091838 -0.09867577
-0.07001211 -0.027530488 -0.0012093534 -0.0947332 0.05312869 -0.03522278 0.039818563 -0.32940316
0.4872279 -0.000689666 0.11357718 -0.091326684 -0.06905391 0.10326462 0.02291167 0.32887343
-0.24826008 -0.187274 0.23877345 0.05339623 -0.06806603 0.11145377 -0.12071739 0.2466331
0.1956776 0.08381141 0.067381956 0.051186927 -0.09946982 0.15342326 -0.6020293 0.065594696
0.22193396 7.187555e-39 -0.07743388 0.039686862 -0.37843058 0.12942101 0.1712106 0.006234416
0.028369319 0.018290479 -0.1540773 0.084103964 0.035880517 -0.02614413 0.0665219 -0.080858834
0.83231074 -0.026720187 0.14866899 0.15898974 -0.50945705 -0.1598367 0.50621307 3.1634973e-13
0.23067422 0.026556622 0.040448148 -0.18227229 0.2323047 -0.99026346 -0.080360994 0.25258377
-0.35284206 0.016920196 0.022689044 0.07159242 -0.22156262 0.15366067 0.040852897 0.13057859
0.0761806 0.027389528 0.085497126 -0.063192196 0.26856273 -0.41269955 0.11600641 -0.45675725
0.13244243 0.9116845 -0.14592624 0.46706825 0.020126225 0.16894457 -3.167737e-13 -0.2231357
0.13977751 0.08868991 0.0036360477 0.20733784 -0.47389778 -0.30951825 0.19960667 0.14886346
0.031516407 -0.10978926 0.18807878 -0.058936764 -0.067291535 0.02410519 -0.09066345 0.2683792
0.047985706 0.027795218 0.12571006 0.088309176 0.23842922 0.64771557 0.20018227 0.060071643
-0.13386016 0.08162276 -0.0007327821 0.16014235 -0.059417594 0.13236159 -0.2384041 0.027314382
0.0014397777 0.06653677 0.31893125 0.19034031 -0.07890382 -0.03684097 -0.48117974 -0.059977885
0.13887694 -0.02423661 0.49647975 0.01905883 0.2893709 -0.015078006 -0.047555458 0.2196134
0.3811339 0.09867994 0.1252774 -0.9509 -0.079664744 -0.01744142 0.89466065 -0.087198764
0.23405124 0.14166154 0.17210661 0.06563665 -0.021798948 -0.10542604 -1.220886 -0.10528615

feature.2.bias f4 [128]
00000000: 2563 bdbd 66da 9fbe 4012 33bd 401f 5ebd
00000010: 96ab dcbc bea3 08be c0b2 623e 0fb1 c9bd
00000020: 4f3d 7e3e 42de 813e 3b80 d69c 62f9 8bbd
00000030: 9132 85be 9d45 4bbc 1056 48be b4b8 9abe
00000040: 46ae 663f 8e84 31b5 6448 56ad 4e3b 0aa5
00000050: 4244 f4be d5a5 22bd 75d8 86a9 0948 adbe
00000060: 0b72 0abf 1f54 073f ee2b c3bc 9678 35bd
00000070: ef7e 043e 626a 5a3e c6b6 36be edad 1b3f
00000080: fca8 2ebe 02dc f0be 5e4f 60be f3d4 44be
00000090: 2f1f 6abe 4672 123e e21f 9ebe fcc2 023d
000000a0: b97a bbbd 91f0 13be 2dee 2caf 40ca 7cbe
000000b0: cf2e 0b3e 7b61 69bd 26c2 71be dba8 2fbd
000000c0: e0dc 2d3f b013 99b1 a7d3 0f3d a5f0 04be
000000d0: e02d abbb 10d8 dfba 84a3 9cbe 5e16 00bd
000000e0: 2e55 bfb1 31ac b83c 25e3 f23d 03ef af3d
000000f0: 6973 b5a1 07b9 94bc 56c9 2f3c ed1b 08be
00000100: 520a 3cbd e9a6 1dbe 669c 15be c90e 14be
00000110: c7e9 843e 2813 2a3f 8461 4e3e 41a9 2f92
00000120: 52d0 9dbe d503 c83c eea9 81be 0581 4d3e
00000130: d710 ffbd f55f 4abe c2b1 a8bd d410 49b2
00000140: ec7c 25b1 f20c cbbd dde7 bbbe e1eb a5ba
00000150: 5119 6abe 0527 1fbe 60d0 a4b2 d651 ad3d
00000160: 78c4 6ebd ad57 02be ade6 603e 8f7b dcbe
00000170: 4e6c 703e 16a6 90be 4c6c 66bb 4a38 c7bc
00000180: d0e5 963c 6e0b d1bd b1eb 0dbe d60d da3d
00000190: 0a34 ceba 5afa 293e 533e 17bb 3f78 53be
000001a0: caf9 243e b560 0bbe d277 bab6 a621 48be
000001b0: eca9 ac91 0864 533c 41a3 bd3d 0735 89a8
000001c0: 1dd0 a53c c047 09be 34d9 cb3c 6ccc 29be
000001d0: ec08 733e 5063 6cbd dc29 80bd b32c ddbe
000001e0: 47ba 8d3e 85c9 40be 4842 5fba e8ae fe3e
000001f0: 4c69 5cbd 6d3d 40b6 904f cdbe a4e7 eb3d
-0.09247426 -0.31221312 -0.043718576 -0.05422902 -0.026937287 -0.13343713 0.221385 -0.09848224
0.24828075 0.25364882 -1.4194479e-21 -0.06834675 -0.26015142 -0.012406734 -0.1956408 -0.30219042
0.9010967 -6.613053e-07 -1.2180566e-11 -1.1989685e-16 -0.47708327 -0.03970893 -5.988345e-14 -0.3384402
-0.54080266 0.52862734 -0.023824658 -0.044304453 0.12939046 0.21329644 -0.1784316 0.60812265
-0.1705665 -0.47042853 -0.21905276 -0.19221859 -0.22863458 0.14301404 -0.308837 0.031924233
-0.09154267 -0.14447238 -1.5727926e-10 -0.24686527 0.13592075 -0.05697773 -0.23609218 -0.042885642
0.67915154 -4.4551243e-09 0.035113957 -0.12982424 -0.0052239746 -0.0017077941 -0.30593503 -0.03127133
-5.5685154e-09 0.022543045 0.11859731 0.0859051 -1.2295586e-18 -0.018154634 0.010729155 -0.13291903
-0.04590828 -0.15395702 -0.14610443 -0.14458765 0.25959608 0.6643548 0.20154387 -5.5428885e-28
-0.30822998 0.02441589 -0.2532496 0.20068748 -0.12454384 -0.19763167 -0.082370296 -1.1703566e-08
-2.408167e-09 -0.099145785 -0.36700335 -0.0012658798 -0.2286122 -0.15542229 -1.918687e-08 0.084628746
-0.058292836 -0.12728758 0.21962996 -0.43063018 0.23478815 -0.28251714 -0.0035159765 -0.024318833
0.01842013 -0.10207258 -0.1385944 0.1064717 -0.0015732062 0.16599408 -0.002307792 -0.20651339
0.16110912 -0.1361111 -5.557181e-06 -0.19544086 -2.7241538e-28 0.012902267 0.09259654 -1.5233052e-14
0.020240838 -0.13406277 0.024883844 -0.16581887 0.23733872 -0.0577119 -0.06257984 -0.43198165
0.2768118 -0.18826874 -0.00085166516 0.49742818 -0.053811356 -2.8645984e-06 -0.40099764 0.11518791

advantage.0.weight f4 [64, 128]
00000000: a3d5 ca3d c892 8a3f 3bd0 5dbc 4904 b73e
00000010: 60ea 173f aa47 ca3e da2e 293e 3ff5 4d3d
00000020: 5818 c83e 5c4c d8be 10ff 5200 4204 c7bc
00000030: 0c4f 053e 0d9c 30bf 8432 783f 4833 9c3d
00000040: 77a4 aa3d 8633 2f03 ba76 c1a3 f778 3901
00000050: 74c3 0abe 6eb9 b2be 8b86 0395 e2bc c63d
00000060: b7bb 03bd ca79 893e 5a9a 653c e5f6 013d
00000070: e0bb 15bf 0226 d2be 65ce 2b3f 5387 613e
00000080: f13a 64be 16cd 643e cfca 833e ed17 0bbf
00000090: e63d 163f bcfc d6be 83ac e63e 5575 923e
000000a0: bd33 1f3f 1c8c 023e 59c6 bbaa cbca 2a3d
000000b0: 18be 1c3f 995b 71bc b71e 0a3e 2b3b b1be
000000c0: b238 8ebe e230 7ab0 f835 c83e 7a10 c7bd
000000d0: 0acb 1bb3 02b0 8b2f e9e5 703f d157 2d3c
000000e0: 6488 93ae 04e3 b6be 3164 983a 6a60 adbe
000000f0: fe15 cf1a 64f4 d639 37ab 8c3d 0b7c ff3d
00000100: 8544 5d3f 132c cfbe 5e7f 093f c5a8 7bbe
00000110: 9d21 033f 1537 b0be 3c41 43bf cb11 6511
00000120: 5a89 3dbc 1675 0dbe cd1e 1e3e d742 ef3d
00000130: b53b 6fbe 4325 993d 17af 833e 2ba6 4698
00000140: 8a1b d2ad b9a5 33bd ad64 14be 104c 71b3
00000150: 6b56 d2be 1973 c5bd 1c0b 221e 448a a7be
00000160: e839 a03c 981b ef3d 8ee7 903d 7ad4 c43c
00000170: d69f 403c 2d0a a8be 87de 9abe df42 183b
00000180: a9fa 07be cdda b6be 6751 e0be 14fe 583d
00000190: f220 6aba 8760 cdbe db1a 2738 b562 ffbd
000001a0: b197 bfbe 0e4d 903e 48f7 84b1 0207 863e
000001b0: 26e0 6880 a6c5 0bbf 7ddc efbd 4c7f 2702
000001c0: e656 b2bd 8501 a6bd 3d35 af3e 6204 9b3e
000001d0: 3364 c7bc a292 80be e39d 783d 1b1a 63bf
000001e0: 3843 cfbc 9fd1 71bd 11ed 1f3d 928d 483e
000001f0: 4e4a 8abb 843c 3fa3 ff24 37be 9522 47bf
00000200: cb0f 7d00 e9e1 f600 801b 8500 33a5 fa00
00000210: bdc4 de80 862e 9300 e432 0881 d99b 7d80
00000220: fb00 6700 d433 df80 2e66 0281 f027 2281
00000230: 10e6 0900 3ee2 4e80 3719 6800 2dcd 3880
00000240: 217f 7800 88ab f000 18ad a600 fc9d 0000
00000250: 1394 3580 7020 e500 4884 ba00 5ca3 3980
00000260: 28a9 4800 3a40 5e00 77c3 aa00 a012 1380
00000270: 73d3 2f80 c79e 0201 7888 2e00 80cf 6200
00000280: 2706 0280 14a6 4080 4331 2f80 b91a dd80
00000290: e06b 1181 ccc8 ee80 9daf 9d00 5be0 6600
000002a0: 3d29 0b80 79a3 6880 34ec 3200 e60c 9c00
000002b0: 0817 2780 fc24 5a80 dcaf 3201 ad6a 4380
000002c0: b74b 2680 2e1b 0100 e1f9 0d00 1dc0 3780
000002d0: 7ef2 0001 19b8 cb81 f365 9380 249f 8f80
000002e0: 30f7 ea80 6581 2780 0335 3980 1398 dd00
000002f0: e4f0 5580 5056 a180 d095 4080 2791 9600
00000300: 9cbe 0c80 672a f680 dd45 3a80 6ee2 5380
00000310: 763a 1681 f530 0781 4058 3d80 20f8 b500
00000320: f9f0 3080 9c68 0400 c7c8 7f80 896b 0f00
00000330: 1af7 009b 78c3 3081 2852 7200 ded0 5800
00000340: 94e4 2a80 5d30 e600 e604 3180 52ef 1500
00000350: f0c6 9000 a299 7280 10ec 4400 7897 0401
00000360: 06a6 2380 6c31 3800 0221 7880 c33f 2c80
00000370: d3c9 4800 8407 1a00 b578 1801 2467 8a81
00000380: 5248 0400 dc2c 5c80 a013 7d00 6b47 0100
00000390: 7c8a 8500 13a4 1e00 14f3 f100 c35a 0f80
000003a0: cd42 2480 f623 6380 c243 8a01 8ee0 3f80
000003b0: d0ce 9780 4414 9e00 d7f4 5a00 eeee b800
000003c0: 5609 4780 db1b c880 adc8 7280 a0b3 0781
000003d0: aeae 2a00 dbc9 a180 5524 2900 c56d a880
000003e0: cbc3 7800 7da6 6380 fc21 0981 e7e1 e093
000003f0: 8bb7 0302 0402 5e00 1492 9e00 9be7 1100
0.09904029 1.0826044 -0.013538416 0.35745457 0.59342 0.395078 0.16521779 0.050282713
0.39081073 -0.42245758 7.62201e-39 -0.024294022 0.13018435 -0.68988115 0.9695208 0.076269686
0.083321504 5.1487024e-37 -2.0975385e-17 3.4065922e-38 -0.13551122 -0.34907097 -2.6561375e-26 0.09703995
-0.03216144 0.2685073 0.014013851 0.031729598 -0.584898 -0.41044623 0.6711181 0.22024278
-0.2228811 0.22343859 0.25740668 -0.5433338 0.586882 -0.41989696 0.4505349 0.28605142
0.6218832 0.1274876 -3.3355504e-13 0.041697305 0.6122756 -0.014731311 0.1348828 -0.34615454
-0.2777763 -9.1018937e-10 0.39103675 -0.097199395 -3.6273413e-08 2.5409014e-10 0.94100815 0.010580019
-6.709014e-11 -0.35720074 0.0011626539 -0.3386262 8.5648724e-23 0.00040999346 0.06868594 0.12474831
0.8643268 -0.40463313 0.5370997 -0.24576099 0.51223165 -0.34417024 -0.76271415 1.8070398e-28
-0.011568392 -0.13814196 0.15441437 0.116826706 -0.2336262 0.0747781 0.2571952 -2.5674794e-24
-2.3886466e-11 -0.043859217 -0.1449153 -5.6181364e-08 -0.41081557 -0.09641094 8.578506e-21 -0.32722676
0.019558862 0.11675185 0.070754156 0.024027098 0.011756858 -0.32820264 -0.302479 0.0023233218
-0.13279213 -0.35713807 -0.43812105 0.052976683 -0.0008931301 -0.40112707 3.9840914e-05 -0.12469999
-0.3742042 0.28183788 -3.8698182e-09 0.26177222 -9.631301e-39 -0.5459846 -0.11711977 1.2305755e-37
-0.08707981 -0.081057586 0.34220305 0.3027678 -0.02433977 -0.25111872 0.060697448 -0.8871171
-0.025300607 -0.0590378 0.039044444 0.19585255 -0.0042202836 -1.03669454e-17 -0.17885207 -0.77787143
1.1485102e-38 2.2672573e-38 1.2223986e-38 2.3018136e-38 -2.0458057e-38 1.3516507e-38 -2.5015767e-38 -1.1535345e-38
9.459408e-39 -2.0497908e-38 -2.395054e-38 -2.9783355e-38 9.0905e-40 -7.244329e-39 9.559937e-39 -5.216391e-39
1.1065865e-38 2.2102053e-38 1.5306787e-38 5.6674e-41 -4.9204e-39 2.1041965e-38 1.7128856e-38 -5.293226e-39
6.672838e-39 8.655577e-39 1.5682154e-38 -1.751556e-39 -4.392122e-39 2.3991146e-38 4.273389e-39 9.074316e-39
-1.85878e-40 -5.93705e-39 -4.33394e-39 -2.0305231e-38 -2.670969e-38 -2.192888e-38 1.4481171e-38 9.447704e-39
-1.024984e-39 -9.609535e-39 4.676509e-39 1.4330964e-38 -3.589846e-39 -8.278462e-39 3.281961e-38 -6.191246e-39
-3.51691e-39 1.01586e-40 1.283501e-39 -5.11987e-39 2.3683867e-38 -7.483459e-38 -1.353639e-38 -1.3189565e-38
-2.157818e-38 -3.628002e-39 -5.25364e-39 2.0350199e-38 -7.892432e-39 -1.4816478e-38 -5.931214e-39 1.3827395e-38
-1.170404e-39 -2.2606743e-38 -5.351521e-39 -7.703574e-39 -2.7592593e-38 -2.483071e-38 -5.633623e-39 1.6711235e-38
-4.494549e-39 4.04869e-40 -1.1735133e-38 1.416109e-39 -1.0667755e-22 -3.2466337e-38 1.0498719e-38 8.156451e-39
-3.939089e-39 2.1139514e-38 -4.501697e-39 2.014397e-39 1.3295677e-38 -1.052436e-38 6.329497e-39 2.4353244e-38
-3.2738e-39 5.160517e-39 -1.10321e-38 -4.063635e-39 6.684557e-39 2.390419e-39 2.8004594e-38 -5.0841193e-38
3.93286e-40 -8.464958e-39 1.1486477e-38 1.17455e-40 1.22638e-38 2.813924e-39 2.2219555e-38 -1.410092e-39
-3.330041e-39 -9.104614e-39 5.079042e-38 -5.866191e-39 -1.394135e-38 1.4517278e-38 8.353027e-39 1.6983443e-38
-6.52367e-39 -1.8377092e-38 -1.0541235e-38 -2.4924459e-38 3.919754e-39 -1.4857927e-38 3.778289e-39 -1.5467741e-38
1.1090497e-38 -9.151439e-39 -2.5187309e-38 -5.6768307e-27 9.677034e-38 8.63326e-39 1.4562411e-38 1.644288e-39

advantage.0.bias f4 [64]
00000000: 33a8 413e 8662 c5a6 8352 cc9e 4646 20bc
00000010: d360 68aa 8741 013e 382b f1bd 7c73 c0b7
00000020: add3 86bd 66eb ab3d 597b 6abd 1c30 7cb5
00000030: 1257 f53d 681c e6bd 0b26 acac 6726 cfb8
00000040: 2633 1dbd b8b5 f53d c6f2 8e3e 35ef 229a
00000050: 7128 12be 4fa2 fd3d b0ab 3abd e06e 273e
00000060: 73e2 c8a3 2371 bebd 53de 32bd 4a4c efab
00000070: a11f f8a0 9cc7 21be 49de 0c3d 1619 73bc
00000080: 0b7c 69bd a31b 6dbe 9956 e43d a506 413e
00000090: c402 a9bd 17ef 34bd 4e35 dfb7 2e77 133c
000000a0: d344 bab3 8d9c 9094 43a7 05be e2f7 05be
000000b0: 5fd3 649b b33b e23e 85fe 93b7 e750 8dbc
000000c0: 845a 703a 7e59 bfab c3a5 adbd afc8 0ebb
000000d0: 754e 813e cb5a 833e 5c5d 2f9d 4776 3dbd
000000e0: f280 ac3e ce1b 133d 6c09 2aba 3fc3 20bc
000000f0: e9ca 653e 37c4 3fbe f30d 583e 6616 93bd
0.18911819 -1.3696326e-15 -2.1633466e-20 -0.0097823795 -2.0639332e-13 0.12622653 -0.117758214 -2.294196e-05
-0.06583343 0.08394508 -0.05724654 -9.3947324e-07 0.11979498 -0.11235887 -4.8927576e-12 -9.877682e-05
-0.038378857 0.11997551 0.27919596 -3.3694045e-23 -0.1427324 0.123844735 -0.04557389 0.16350889
-2.1779948e-17 -0.09298923 -0.043669056 -1.7003146e-12 -4.2033764e-19 -0.15798801 0.034391675 -0.014837524
-0.057003062 -0.23155074 0.1114933 0.18850191 -0.082524806 -0.044173326 -2.6608493e-05 0.009000583
-8.673819e-08 -1.4602033e-26 -0.13052087 -0.13082841 -1.8928016e-22 0.44186172 -1.7642285e-05 -0.017250491
0.00091687613 -1.3596205e-12 -0.08478882 -0.0021787097 0.2525517 0.25655207 -2.3209323e-21 -0.046255376
0.33692127 0.03591519 -0.00064863893 -0.009812175 0.22440685 -0.18727194 0.21099071 -0.071820065

advantage.2.weight f4 [36, 64]
00000000: 15e8 b83e 95c7 8030 db66 3b30 8b0c 833e
00000010: bf90 0f29 756d 92be 3edb ba3e a7d4 fc38
00000020: 580d 4e3e b014 2c3f ba0b b43e c19b ff38
00000030: e903 243e a0c4 843b 8d5f 13b7 8060 ea3a
00000040: a5a6 1bbb c407 03be e5e1 233d fbef 5ba3
00000050: 4422 e63d 0ef7 32be 1c6f 2d3c bb5f 09be
00000060: 009b 55b4 7668 323e 1123 2cbd bee7 c92b
00000070: 7134 98b3 3c68 4e3e 9169 8f3d fef3 3bbd
00000080: c8ec 083d d131 b73e 9289 283e 85cd 95be
00000090: 188f 973e a64e 4cbc e6f7 1fb8 e5b1 0b3e
000000a0: a15b bf34 40a9 9c31 d443 793e b949 6f3e
000000b0: dcc7 8813 ae79 c2bf 6d12 bebb ca02 b53e
000000c0: 3947 81bd b0f0 91b7 41df c63e 6b3d 08bd
000000d0: 65b0 41be b9f8 49be bd7a 01b3 607f 813b
000000e0: 12b8 893d 68a6 173e df8e d739 ec2e c43e
000000f0: fe79 c5bf a48e 803e 13e8 15be 36a8 703e
00000100: 541a aa3d c89c 6a1b 53e2 63a7 4faa 95bd
00000110: 8f37 7e29 b675 d0be 50e9 863e 55c5 60b1
00000120: 0339 4f3e 6eba d93e 4a7b 253f 642c 2a20
00000130: 806f 4e3e 7a59 66be 2af7 1b28 acb2 3c2f
00000140: c9be f839 5068 d3be dc36 943e bede 921d
00000150: 0782 c53e 4dfb a63d b715 3d39 decd b4be
00000160: e69f 1020 4135 833e 2f7f 10be 77cc f728
00000170: 71d8 3880 1b0b e5bd c4b7 b4be 4085 893c
00000180: aefe f7bd f292 13bf 3038 91bf 73cc 80bd
00000190: d696 c2be dd73 bebb 00d3 c791 6ff2 fcbe
000001a0: 25a5 ad80 5b08 8f80 03dc 333d 2c09 06be
000001b0: 4082 1500 909f 29bf 6402 f836 1b4d 95bd
000001c0: 5942 3e3e 9158 0933 24fc b63f d1b1 aa37
000001d0: cf97 38be a04c 8dbe d903 6e00 4670 96be
000001e0: 52a2 a5bd 671e e33d 5e29 f6b8 fc06 733f
000001f0: cb68 36bf ecd6 67bd 4072 c93e c007 dbbf
00000200: 00f6 c6be 3b76 d708 25da f124 7834 51bf
00000210: e0d6 8629 10a7 83bd 48c8 4d3e 2f94 12b7
00000220: 42aa 7bbb c319 9e3e 3d99 043f b204 3db8
00000230: 69e7 9b3e 2570 10be c43a 1430 af6c 1837
00000240: 00d2 4a3c c3b3 99bb 8d1a ad3e b83b bb80
00000250: 7b45 d73e 9e73 0b3e 45ed 40ba decd 3cbe
00000260: 51f9 162f 66b7 9c3e b3cd 8e3e abb4 8fa6
00000270: 7ae3 6825 0d7e 39bd dbf3 d3bd 777e 99ba
00000280: 39c2 bbbc 86f8 023e 5418 1fbe d66d 75bd
00000290: 9843 70bf a26e 943c 4c64 079a 0a9e 4d3d
000002a0: 4dd1 0e2a 4fae 8208 9440 8d3e cd8a a03e
000002b0: d0e6 7600 3520 e2be 1d3e d631 9c1c 593e
000002c0: c912 973e 525b d7b4 0f7c 0f3c dd4e 1438
000002d0: 916a 40c0 c15c 123e d760 f023 ebed 89bd
000002e0: 3f42 8b3d 68b3 a2be 0c68 00ba 329c 64be
000002f0: 9375 68bc 43b4 9e3e f0ea d13e 756a cebd
00000300: a540 97be d1b8 6d23 2780 b127 cb29 c8bf
00000310: 1567 9e29 8303 db3e ae04 173e c6cd 8bb9
00000320: e33e edbb bb15 b83d 082e 433e fcb3 a634
00000330: 2dd2 dd3e 8d1d a3be d9d9 10b1 d633 0737
00000340: 794f 71bb ba83 933e 3899 083f ab8f be16
00000350: b18f 1d3f 6d06 113e f85f 8f3b 97d5 05bf
00000360: 9723 2aab 4a06 a03e 2421 813e 42a8 9d9d
00000370: 0efb 3b9a 9095 29be 61ee ebbd e825 8bbb
00000380: ea5e 793e 323d 1c3f 3811 8dbc 4d37 37be
00000390: 4c57 c8bf ab07 cf3c 9085 7f29 4354 0bbd
000003a0: 84a5 7624 ebb4 3490 67d2 c6be 4956 16be
000003b0: 5940 2500 3bc9 38bd 58ae fd24 1b56 bbbe
000003c0: cff3 f73e a4a7 8f36 7832 523e 47a2 c934
000003d0: addb 69be 82cc 9f3e b607 a280 6e1e b13c
000003e0: c697 9cbe 883a 9bbf 4118 dc39 bbab e2bf
000003f0: d966 f03e ae88 e93d 8f87 473f b7a5 2cbe
0.36114565 9.36995e-10 6.817637e-10 0.25595507 3.1877926e-14 -0.28599134 0.36495394 0.00012055906
0.20122278 0.67219067 0.35165197 0.00012188359 0.16017117 0.00405176 -8.78413e-06 0.0017881542
-0.002375045 -0.12795931 0.04001035 -1.1922832e-17 0.112370044 -0.17477056 0.010585573 -0.13415425
-1.989356e-07 0.17422661 -0.04202563 1.434623e-12 -7.0875906e-08 0.2015695 0.07002557 -0.045886986
0.033428937 0.35780194 0.16458729 -0.2925836 0.2960136 -0.012469923 -3.8139427e-05 0.1364208
3.564319e-07 4.559439e-09 0.2434228 0.23367967 3.4528303e-27 -1.5193384 -0.0058005364 0.3535369
-0.06312413 -1.7397426e-05 0.38842204 -0.033261698 -0.18914945 -0.19723786 -3.0146783e-08 0.003951952
0.06724562 0.14809573 0.00041114443 0.3831705 -1.5427854 0.25108826 -0.1463931 0.23501667
0.08305803 1.9406685e-22 -3.1625269e-15 -0.073078744 5.644752e-14 -0.40714806 0.26349878 -3.270846e-09
0.20236592 0.42525047 0.6464125 1.4414248e-19 0.20159721 -0.2249507 8.657824e-15 1.7161977e-10
0.00047444392 -0.41290522 0.28948104 3.887619e-21 0.38575765 0.081534006 0.00018032534 -0.35313314
1.225018e-19 0.25626567 -0.14111017 2.7511181e-14 -5.220432e-39 -0.11183759 -0.35296452 0.016787171
-0.12109123 -0.57646096 -1.1345272 -0.062889956 -0.38005704 -0.005812152 -3.1526703e-28 -0.49403712
-1.5946784e-38 -1.3135473e-38 0.04391099 -0.13089436 1.97527e-39 -0.662591 7.3912543e-06 -0.07290097
0.18579997 3.197835e-08 1.4295697 2.0348381e-05 -0.1802666 -0.27597523 1.0103285e-38 -0.29382533
-0.08087601 0.11089783 -0.00011737899 0.9493253 -0.7125365 -0.05660145 0.39344978 -1.711174
-0.38859558 1.2967638e-33 1.0488664e-16 -0.81720686 5.98807e-14 -0.06428349 0.20095932 -8.73678e-06
-0.0038401042 0.3087903 0.51796323 -4.5065484e-05 0.3044999 -0.1410528 5.39256e-10 9.085211e-06
0.012379169 -0.0046906187 0.3380932 -1.7194661e-38 0.42045197 0.13618323 -0.00073595747 -0.18437907
1.3730996e-10 0.30608672 0.2789131 -9.971588e-16 2.0199864e-16 -0.045286227 -0.10349246 -0.0011710663
-0.022919761 0.12790117 -0.15536624 -0.0599192 -0.9385314 0.01811916 -2.7998365e-23 0.050199546
1.268475e-13 7.86507e-34 0.27588332 0.31355897 1.0919388e-38 -0.44165197 6.235281e-09 0.2120232
0.2950652 -4.0113315e-07 0.008757605 3.5359397e-05 -3.0065043 0.14293195 2.6061865e-17 -0.067348324
0.06799745 -0.317775 -0.00048983167 -0.22325209 -0.014188188 0.30996904 0.40999556 -0.10078899
-0.29541507 1.2886932e-17 4.926631e-15 -1.5637754 7.0344914e-14 0.42776117 0.14747879 -0.0002666546
-0.0072401627 0.0898852 0.19060528 3.1050865e-07 0.43324414 -0.31858483 -2.107859e-09 8.058696e-06
-0.003682105 0.28811437 0.53358793 3.0786823e-25 0.6154738 0.14162607 0.004375454 -0.5227904
-6.0445523e-13 0.31254798 0.25220597 -4.173153e-21 -3.8873494e-23 -0.1656096 -0.115200765 -0.004246462
0.24352613 0.61030877 -0.017220125 -0.1789219 -1.5651641 0.025272211 5.673722e-14 -0.034015905
5.3482944e-17 -3.5638115e-29 -0.388324 -0.14681353 3.420997e-39 -0.045113783 1.1001661e-16 -0.3658913
0.484282 4.281248e-06 0.20527065 3.755724e-07 -0.22837706 0.31210715 -1.4880117e-38 0.021620955
-0.30584544 -1.2127237 0.0004197974 -1.7708658 0.46953467 0.11403023 0.7794122 -0.1686009

advantage.2.bias f4 [36]
00000000: a9cf bbbe 8a91 ae3d a35a d2bd eb26 9f3d
00000010: 54ea c0bb 2534 bbbe c7e1 563e ce77 113b
00000020: cff6 2b3e e063 013d 37db 873e 872a 02bc
00000030: 4b93 e5bb 450d 22be 13c0 c93d 21a2 973d
00000040: 6f24 ed3d ccc7 ddbd d6c2 533d 1bfb cbbd
00000050: fb40 4a3e f9b8 253e 2426 563e 72a7 8bbd
00000060: c228 6b3e f7d1 923e 601d 5b3d 62fa 08be
00000070: 5dcf 3f3e a086 9f3d a8ff 2abf 3959 dd3d
00000080: ea1e 903e 72a2 b0bd 9262 e7bd 5845 fc3e
-0.3668187 0.08523853 -0.10271194 0.07771095 -0.005887309 -0.3656322 0.20984565 0.0022196653
0.16793369 0.03158939 0.26534435 -0.00794471 -0.007006084 -0.15825374 0.098510884 0.074039705
0.11579215 -0.10829124 0.051699482 -0.09960004 0.1975135 0.16183843 0.20912987 -0.06819047
0.22964767 0.28675815 0.05349481 -0.13376763 0.18731447 0.077893496 -0.6679635 0.108080335
0.28148586 -0.08624734 -0.11298098 0.49271655

value.0.weight f4 [64, 128]
00000000: 70a4 1900 06c1 2000 1a74 9a80 bc5a 0c01
00000010: b8f0 5e80 389b 9100 0c2c ae00 fa48 8380
00000020: f68b fe81 b821 8f01 86b2 ed01 a04c 9980
00000030: d8d2 9080 9e86 e280 2606 4180 748d 6680
00000040: 70f7 d400 a438 2f01 9a17 d000 6ae8 b880
00000050: 90a9 8780 b046 3600 804e 3300 c4f3 5380
00000060: f4c2 1880 9040 3880 f445 3680 b032 4481
00000070: 9817 5a00 180b ee80 6481 f080 c82f 5b00
00000080: 284b 6500 80ab 1a81 f8b6 b080 908f ca00
00000090: 3294 4280 b02a fe80 722e 2f80 0c67 3a80
000000a0: 58e5 0d80 fceb a780 7457 eb80 4c63 df80
000000b0: a8e9 8d80 8e69 9b01 06b1 2780 8cc6 dc80
000000c0: 0083 4680 a03f bf00 442a d700 e0a1 6100
000000d0: afea 8c01 546a 7d80 be4f 7500 fc1e f000
000000e0: ea02 1500 a8b4 8880 30a5 7200 9037 a080
000000f0: 4ecd a180 a06b 2180 9c6f 6701 3622 1980
00000100: aa1d 1e00 bafb 3880 3c24 9500 44b5 7b81
00000110: 40f9 ac00 cba3 9e81 3452 5481 4205 b800
00000120: 46f3 8a01 c42f b681 4079 4a80 667e f800
00000130: 447a 9480 a2be de81 6a5b d581 f694 f980
00000140: 8a94 dd81 fa88 a281 1ee9 c700 a415 5100
00000150: 3a44 ae81 227f 4e80 7c7c bf00 b031 8180
00000160: 0d4f d881 fd49 0882 d8d4 e000 72b1 f081
00000170: 4e09 af00 4561 fe81 7c70 3e80 8c95 1a80
00000180: 4c2f 9200 1477 2780 e07c a400 3770 fb01
00000190: 1ade be80 ceec 8181 081d db00 740c 5180
000001a0: ace0 6581 56b0 3400 846a 8200 60c6 7f00
000001b0: 9016 6d00 7cb5 b880 fb86 cc01 606b 6b80
000001c0: 644c e400 3c89 ac80 84b6 3280 a692 3e80
000001d0: f236 1f00 7ef7 d000 58a4 2e00 0465 a300
000001e0: b249 0380 a892 e180 cc46 d700 c417 e500
000001f0: f8fe 4d80 b0e8 c600 0668 8c00 c0d7 a980
00000200: 9c46 f280 7c88 8980 5471 a501 d87e 3980
00000210: da9e 6500 b412 7a80 a816 2280 b450 e880
00000220: 9804 2e00 08cb cc00 80ed 9781 10fd aa80
00000230: a018 0d80 aa79 6100 60c2 c680 44ba 0181
00000240: b8a3 c600 3e96 6680 a058 8580 f318 8d81
00000250: 3867 2680 e814 b400 6c2d 6580 00f5 5880
00000260: 6235 b101 32ff 4d00 e0d9 8800 0715 0001
00000270: e52d 0281 c0f1 6381 c017 9b00 fe03 0301
00000280: 9c29 0401 d827 3280 1cec 4c01 a2c7 9b00
00000290: 7aa4 0f80 2c9f a001 20dd 6700 5a00 1300
000002a0: 9255 0f00 787b 9500 c47d cd80 b495 4781
000002b0: 389f 4c80 0450 9c00 76e5 a800 a6af 0e00
000002c0: 7843 5000 e448 3f01 f23f 9981 f0e4 0d00
000002d0: 18de 9a80 782a 5f00 e8e4 6e00 30e4 4700
000002e0: a82c 6780 cb36 ca01 f8cc 7a81 32fa 0500
000002f0: 0c93 2200 18e6 3b80 788c 8400 78e1 5200
00000300: 2c1d f100 6c2b 6a80 0446 0780 12e7 1200
00000310: 0021 c780 f0f0 b980 bacb d080 7c20 1400
00000320: 52d9 0902 4677 c980 140e 5301 2204 2500
00000330: 04a8 6000 b8a6 1c80 e829 c500 f8d9 e100
00000340: 84bf 4700 1478 3481 2acd 2000 e9d2 e701
00000350: eae6 9480 0013 6f81 7a47 4300 b4e4 2b00
00000360: 8633 a480 6883 6500 a0db d800 48cf 7680
00000370: 366d fd81 c085 7980 75ba b901 f87c 7401
00000380: 0c6f 9480 5ba0 c101 64a7 3c80 e63b f900
00000390: 3ee3 cb00 5e9b f600 2861 8a00 b4ce 3e00
000003a0: c81f c880 dc77 2a00 600c 7980 623e 4f00
000003b0: 6419 8b81 466a 4e80 b42b 0b01 f873 0e00
000003c0: d42e c001 9a43 2e00 54f5 7100 246b 8d80
000003d0: aab0 2700 5692 ca01 6841 e100 4042 d680
000003e0: 52d6 0481 2ccc 1200 2cf6 b480 a8e2 2c80
000003f0: d649 b781 e04c 3480 a0ca 8280 dc99 6880
2.354876e-39 3.00798e-39 -1.4184316e-38 2.5779038e-38 -8.71889e-39 1.3371829e-38 1.5995177e-38 -1.2056629e-38
-9.35057e-38 5.257829e-38 8.731622e-38 -1.4078319e-38 -1.3299948e-38 -2.0803114e-38 -5.971513e-39 -9.417964e-39
1.9557889e-38 3.218306e-38 1.911025e-38 -1.6981106e-38 -1.245862e-38 4.984475e-39 4.711771e-39 -7.709793e-39
-2.273988e-39 -5.165948e-39 -4.984211e-39 -3.603588e-38 8.273658e-39 -2.1860828e-38 -2.2086936e-38 8.374171e-39
9.302346e-39 -2.8408378e-38 -1.6228684e-38 1.8602271e-38 -6.114305e-39 -2.334153e-38 -4.33293e-39 -5.363425e-39
-1.276134e-39 -1.5421183e-38 -2.1612714e-38 -2.0514937e-38 -1.3032625e-38 5.708947e-38 -3.645088e-39 -2.0275034e-38
-6.475479e-39 1.7563404e-38 1.9759794e-38 8.966113e-39 5.176463e-38 -1.151758e-38 1.0773359e-38 2.2051634e-38
1.929591e-39 -1.2554435e-38 1.0528505e-38 -1.4713611e-38 -1.4859164e-38 -3.06918e-39 4.2508075e-38 -2.30816e-39
2.765706e-39 -5.23309e-39 1.3696487e-38 -4.623147e-38 1.588512e-38 -5.8275065e-38 -3.8997228e-38 1.6899617e-38
5.1042274e-38 -6.692478e-38 -6.839323e-39 2.2820546e-38 -1.3635514e-38 -8.1823465e-38 -7.8375015e-38 -2.2920476e-38
-8.139572e-38 -5.9705953e-38 1.835889e-38 7.446438e-39 -6.4015406e-38 -7.208775e-39 1.7585236e-38 -1.1864604e-38
-7.94593e-38 -1.0012936e-37 2.0647505e-38 -8.84167e-38 1.607455e-38 -9.344444e-38 -5.734153e-39 -2.44137e-39
1.342495e-38 -3.624302e-39 1.5105818e-38 9.236386e-38 -1.7528419e-38 -4.7726914e-38 2.0122388e-38 -7.443143e-39
-4.2221851e-38 4.838703e-39 1.1976825e-38 1.1734272e-38 1.0018163e-38 -1.6962836e-38 7.513145e-38 -9.864917e-39
2.0965897e-38 -1.5844936e-38 -4.657249e-39 -5.746408e-39 2.866611e-39 1.9190567e-38 4.283388e-39 1.5005423e-38
-3.01943e-40 -2.0715597e-38 1.9770029e-38 2.1038854e-38 -7.162799e-39 1.8266901e-38 1.2894286e-38 -1.5597595e-38
-2.224952e-38 -1.2630424e-38 6.0774045e-38 -5.280126e-39 9.33237e-39 -1.121064e-38 -3.130534e-39 -2.1334786e-38
4.226081e-39 1.8807275e-38 -5.5809435e-38 -1.5702816e-38 -1.202695e-39 8.951688e-39 -1.8253157e-38 -2.3827197e-38
1.824216e-38 -9.421117e-39 -1.2245914e-38 -5.183102e-38 -3.526777e-39 1.6537889e-38 -9.29168e-39 -8.169413e-39
6.509613e-38 7.16288e-39 1.2567786e-38 2.3524973e-38 -2.3910157e-38 -4.1866762e-38 1.4243022e-38 2.4063764e-38
2.4274424e-38 -4.606068e-39 3.7638283e-38 1.4306117e-38 -1.436536e-39 5.900312e-38 9.538381e-39 1.745e-39
1.408229e-39 1.3727781e-38 -1.8871393e-38 -3.6657934e-38 -7.036615e-39 1.4355042e-38 1.5510678e-38 1.348708e-39
7.371043e-39 3.5133456e-38 -5.629508e-38 1.275989e-39 -1.4222339e-38 8.739607e-39 1.018402e-38 6.602178e-39
-9.475076e-39 7.4281705e-38 -4.6064806e-38 5.4893e-40 3.175157e-39 -5.500836e-39 1.2172676e-38 7.611394e-39
2.214282e-38 -9.75014e-39 -6.67965e-40 1.735931e-39 -1.8287102e-38 -1.7075999e-38 -1.9174867e-38 1.848363e-39
1.0127538e-37 -1.8501722e-38 3.876468e-38 3.399396e-39 8.87648e-39 -2.631201e-39 1.8106626e-38 2.0741179e-38
6.589023e-39 -3.314693e-38 3.012335e-39 8.515864e-38 -1.367449e-38 -4.3911e-38 6.178619e-39 4.03097e-39
-1.5079504e-38 9.322525e-39 1.9915254e-38 -1.0910947e-38 -9.309423e-38 -1.1160075e-38 6.822582e-38 4.4905383e-38
-1.363149e-38 7.11271e-38 -5.570178e-39 2.2888526e-38 1.8724125e-38 2.2647267e-38 1.2708152e-38 5.767952e-39
-1.83785e-38 3.900088e-39 -1.1116534e-38 7.277383e-39 -5.109697e-38 -7.201292e-39 2.5561623e-38 1.327299e-39
7.0596856e-38 4.248684e-39 1.0465418e-38 -1.298724e-38 3.64496e-39 7.441306e-38 2.068645e-38 -1.9676562e-38
-2.4398338e-38 1.726282e-39 -1.6618699e-38 -4.122071e-39 -6.732953e-38 -4.803023e-39 -1.2011303e-38 -9.606086e-39

value.0.bias f4 [64]
00000000: e022 4c01 c646 df00 dac2 0280 58c2 2f80
00000010: ec60 ca01 409e 7e00 4808 1780 980a 1400
00000020: 2831 dc01 3cf1 1e00 d8ba 2181 803d 3500
00000030: b077 9401 8000 1200 104f 8580 1696 e600
00000040: f2c5 3f00 625d ac00 1d79 0402 6e9a 4700
00000050: b2e0 4b80 0cbe 0c00 9740 ca81 d225 bf01
00000060: 6026 7100 62d0 b781 946b 3600 a021 4000
00000070: 5a4a 1700 b480 4c80 c824 7c01 f6fd b180
00000080: 3068 0001 cc66 a480 3813 5280 64ed f001
00000090: 1cc4 d681 1239 6580 98b0 2d00 a2d3 bf01
000000a0: d809 4f81 a47c 4c00 fc2b 9300 acb6 0980
000000b0: 94d7 6180 5c85 3300 de59 d200 8658 4380
000000c0: be2e 0a00 9c0f 5400 30c7 ec80 5c31 9b80
000000d0: dc62 c280 f2b3 5880 ca2b 2200 f090 1080
000000e0: 12d4 1080 2c06 1680 4846 c200 6052 5200
000000f0: fcac f680 7c65 0080 a075 fb80 6a9d 1e00
3.7493904e-38 2.0504704e-38 -2.5357e-40 -4.385986e-39 7.4342157e-38 1.1628042e-38 -2.115187e-39 1.84051e-39
8.088577e-38 2.841603e-39 -2.9705084e-38 4.889343e-39 5.4538357e-38 1.653218e-39 -1.2242483e-38 2.1176005e-38
5.856646e-39 1.5829205e-38 9.732586e-38 6.575719e-39 -6.968268e-39 1.170202e-39 -7.429576e-38 7.021659e-38
1.0391177e-38 -6.75226e-38 4.997709e-39 5.889534e-39 2.138889e-39 -7.025668e-39 4.631148e-38 -1.6345987e-38
2.3584638e-38 -1.5097898e-38 -7.537405e-39 8.8502715e-38 -7.889259e-38 -9.295858e-39 4.195947e-39 7.0466e-38
-3.8026958e-38 7.02421e-39 1.3515597e-38 -8.9205e-40 -8.985378e-39 4.73145e-39 1.9317692e-38 -6.184734e-39
9.35123e-40 7.719781e-39 -2.1744632e-38 -1.4252209e-38 -1.785155e-38 -8.146076e-39 3.138115e-39 -1.521362e-39
-1.545444e-39 -2.022595e-39 1.7841298e-38 7.560061e-39 -2.2653587e-38 -3.6406e-41 -2.3092905e-38 2.811534e-39

value.2.weight f4 [1, 64]
00000000: faa8 4780 6d16 9901 0ce8 3101 628e 2400
00000010: f8ff 1200 24ea af81 6839 c481 9351 a080
00000020: 5747 0a80 d280 2880 cef9 9500 2491 3680
00000030: 98e2 9c00 b855 6d80 3012 2c00 be04 3900
00000040: 08f3 0401 44c6 3d00 d844 2f00 89c5 9600
00000050: c87e d100 4620 0580 c467 cc00 f8fb 3d00
00000060: 4c18 e381 28b9 f200 ce62 6880 988d 5a80
00000070: 600b d900 f065 3780 0420 2b80 2c17 f780
00000080: 0547 9b00 6096 3f00 6b38 2700 58bb 0401
00000090: 8802 4500 37b6 2e80 914b 3580 1288 9b00
000000a0: 44ee 3400 f2ae b480 c4bc 2f00 a0f1 7580
000000b0: 1986 7080 7ed6 2d00 d8c8 8280 2cc9 7c00
000000c0: 11e3 9a01 afea 3b00 70b8 0101 12ce 6d80
000000d0: b27e 2e00 e034 b501 4f24 4480 32d9 7080
000000e0: 3094 2300 4cc2 e700 42ae af00 180b aa80
000000f0: f007 c780 c6aa ab80 081a 5300 bcc2 d581
-6.580938e-39 5.6235503e-38 3.267625e-38 3.357155e-39 1.744863e-39 -6.462082e-38 -7.2081403e-38 -1.4722943e-38
-9.43947e-40 -3.719632e-39 1.3773102e-38 -5.011183e-39 1.4407624e-38 -1.0040819e-38 4.047286e-39 5.236324e-39
2.4418937e-38 5.67309e-39 4.340965e-39 1.3846187e-38 1.9239099e-38 -4.70755e-40 1.8771665e-38 5.692355e-39
-8.3421495e-38 2.2290612e-38 -9.586336e-39 -8.315989e-39 1.9932383e-38 -5.08752e-39 -3.960411e-39 -2.269168e-38
1.4259979e-38 5.83958e-39 3.601823e-39 2.4378984e-38 6.337557e-39 -4.289799e-39 -4.89439e-39 1.4283315e-38
4.86092e-39 -1.6593148e-38 4.383985e-39 -1.0831432e-38 -1.0333681e-38 4.209543e-39 -1.2010664e-38 1.1459768e-38
5.689649e-38 5.502483e-39 2.3825885e-38 -1.0083993e-38 4.269883e-39 6.656477e-38 -6.257839e-39 -1.036349e-38
3.267402e-39 2.12837e-38 1.6133724e-38 -1.5616014e-38 -1.8278111e-38 -1.5765132e-38 7.631684e-39 -7.8523273e-38
