pre-trained/ddqn_dnn2000.pth (torch_old, 650004 bytes, 44 tensors)

feature.0.weight f4 [128, 36]
0.071925096 -0.056039404 0.09572259 0.21203904 -0.0025783638 0.15272635 -0.182519 0.11726279
0.057958417 0.10106434 0.2626097 0.12659955 -0.10175309 0.04976473 0.06253752 -0.0071656024
-0.04240455 -0.16729462 -0.04012481 -0.08318714 -0.014040189 -0.114693694 0.012274882 -0.057896666
0.11002615 0.042509906 -0.1957186 -0.2243754 -0.28403133 -0.42079446 -0.0031702884 0.17279458
-0.26831454 0.008955649 -0.34437126 -0.15397754 -0.09337128 0.18789074 0.1343641 0.093680725
0.087545075 0.081688374 0.18626226 0.20839836 0.008346189 0.04642273 -0.015864931 0.04179426
0.101571664 -0.03542926 -0.00677035 -0.014214013 0.043817207 0.13240741 -0.0492674 -0.10684456
-0.18991908 -0.07613633 0.12269601 0.04524733 -0.48936877 -0.44982862 0.14271346 -0.067236245
0.071625754 0.0289429 -0.74919355 -0.4627517 0.18762155 0.16358975 0.058150902 0.14740743
0.10813311 -0.23462322 0.046698414 -0.027841339 0.39028165 -0.09656919 0.07174558 -0.108644165
-0.12683804 -0.17860623 -0.10486196 0.46641818 0.017582914 -0.7688588 0.09374473 -0.11701916
-0.011437888 0.008605818 0.20235614 0.46753556 -0.27632496 -0.17599271 -0.039773744 -0.008750817
0.11621986 0.20351802 -0.017744927 -0.06835555 0.18244453 0.12254115 -0.08995114 0.039117068
0.1165166 -0.13583608 0.09702811 -0.21031669 0.3788442 0.38422036 -0.013842609 -0.04077324
0.16191655 -0.16143098 -0.17691644 -0.5623789 -0.026774244 -0.20527437 -0.23967469 0.21563548
-0.108508855 -0.08317403 0.017593384 0.1055336 -0.08414263 -0.044809654 -0.12372706 0.2271575
0.7801806 0.03312112 -0.20011328 0.10445031 -0.113166474 -0.008168155 0.006234254 -0.0753219
-0.11829327 -0.07265176 -0.18816127 -0.17524025 0.008294754 -0.0048400653 -0.05452078 0.007933508
0.047741693 0.03881784 -0.047792893 -0.09623656 -0.06144396 -0.06341752 0.081231765 0.019043216
-0.122468434 -0.08762296 -0.05435167 -0.07186427 0.041663073 0.095525496 -0.062138673 -0.0036685101
-0.0734008 -0.004760928 0.025447264 0.032442782 -0.11336134 -0.12774518 -0.076649025 -0.042660072
-0.05351846 0.07242205 -0.011847866 0.10535956 0.00063798635 -0.021141287 -0.009338623 -0.00465505
-0.015353081 0.04988546 -0.09197893 -0.073658094 0.1103455 0.044653203 -0.05392252 -0.04143921
-0.015038885 -0.47425878 0.11586121 0.06421582 0.033765063 0.06106381 0.32641283 0.08763689
-0.09509863 0.4310788 0.3938328 -0.03975879 0.025442775 -0.048474845 -0.022226699 0.228349
0.22388762 -0.117880814 -0.25516427 0.061928734 -0.14007258 -0.048120465 -0.061673142 -0.0934786
0.101421036 0.20528476 0.40036646 -0.31761155 -0.22406714 -0.3070485 -0.069616735 0.5160431
-0.24878374 0.08360772 -0.04746485 0.20543006 -0.014172348 0.12342566 -0.055920146 0.089304835
-0.1917669 -0.14156494 0.011795685 0.28282374 -0.09388705 -0.08035967 -0.020816678 -0.03909889
-0.27232784 -0.24527304 0.0032183223 0.04142693 0.15996478 0.34922954 -0.21643154 0.030655945
-0.0068443744 0.011429997 -0.1695102 -0.31241992 -0.16312705 -0.48201847 0.11630094 -0.096743405
-0.12804972 -0.019297855 -0.2666475 -0.34453768 -0.43652686 -0.150954 0.102672085 -0.09401572
00000000: 774d 933d 9389 65bd 350a c43d c320 593e
00000010: c4f9 28bb 4c64 1c3e 43e6 3abe 7927 f03d
00000020: ce65 6d3d d2fa ce3d c774 863e 50a3 013e
00000030: ed63 d0bd 1ad6 4b3d ac13 803d 6ecd eabb
00000040: 65b0 2dbd 484f 2bbe ea59 24bd 055e aabd
00000050: d208 66bc 87e4 eabd 961c 493c 0e25 6dbd
00000060: 6455 e13d de1e 2e3d 756a 48be aac2 65be
00000070: 8e6c 91be 5f72 d7be 9dc4 4fbb 10f1 303e
00000080: 8660 89be b7ba 123c 6e51 b0be 4aac 1dbe
00000090: 7139 bfbd 6e66 403e be96 093e aedb bf3d
000000a0: d54a b33d 3c4c a73d 89bb 3e3e 6166 553e
000000b0: 74be 083c c325 3e3d 2cf7 81bc 7530 2b3d
000000c0: ce04 d03d 461e 11bd d0d9 ddbb e4e1 68bc
000000d0: ac79 333d cf95 073e 9dcc 49bd 52d1 dabd
000000e0: 267a 42be 5ded 9bbd 0c48 fb3d 4455 393d
000000f0: 8b8e fabe f04f e6be 7a23 123e 28b3 89bd
00000100: 86b0 923d a919 ed3c 26cb 3fbf caed ecbe
00000110: dd1f 403e 1284 273e a42f 6e3d f9f1 163e
00000120: e474 dd3d 1241 70be d646 3f3d 8513 e4bc
00000130: ffd2 c73e 11c6 c5bd 59ef 923d d580 debd
00000140: d5e1 01be 8de4 36be dec1 d6bd 5dce ee3e
00000150: 0b0a 903c eed3 44bf 3dfd bf3d bea7 efbd
00000160: fb65 3bbc 6bff 0c3c 7336 4f3e d260 ef3e
00000170: 777a 8dbe 6f37 34be cbe9 22bd 965f 0fbc
00000180: ae04 ee3d 0767 503e cf5d 91bc fffd 8bbd
00000190: bdd2 3a3e dbf6 fa3d 4e38 b8bd 3839 203d
000001a0: 41a0 ee3d 9d18 0bbe acb6 c63d 425d 57be
000001b0: def7 c13e 88b8 c43e 1ccc 62bc d701 27bd
000001c0: 74cd 253e 2a4e 25be 9529 35be 10f8 0fbf
000001d0: a955 dbbc 7233 52be 486d 75be 8ccf 5c3e
000001e0: e439 debd 2557 aabd 0020 903c 0022 d83d
000001f0: f952 acbd 548a 37bd 9d64 fdbd fa9b 683e
00000200: eab9 473f 03aa 073d 7fea 4cbe 0bea d53d
00000210: d3c3 e7bd bad3 05bc b748 cc3b 5e42 9abd
00000220: be43 f2bd 72ca 94bd 59ad 40be 2e72 33be
00000230: b8e6 073c 6999 9ebb 2e51 5fbd 8bfb 013c
00000240: cb8c 433d 75ff 1e3d 7bc2 43bd ac17 c5bd
00000250: a9ac 7bbd 0be1 81bd d75c a63d 8500 9c3c
00000260: bbd0 fabd ab73 b3bd db9f 5ebd 932d 93bd
00000270: e6a6 2a3d dfa2 c33d 1f85 7ebd 636b 70bb
00000280: 2953 96bd 8f01 9cbb c876 d03c b9e2 043d
00000290: fd29 e8bd a2cf 02be 2afa 9cbd 54bc 2ebd
000002a0: 2c36 5bbd 0352 943d 8d1d 42bc c1c6 d73d
000002b0: 8a3e 273a 7e30 adbc 0601 19bc 6489 98bb
000002c0: 7d8b 7bbc b254 4c3d 735f bcbd 0eda 96bd
000002d0: d2fc e13d 47e6 363d dcdd 5cbd 29bc 29bd
000002e0: a865 76bc 0cd2 f2be a448 ed3d 9583 833d
000002f0: 3c4d 0a3d 0c1e 7a3d 951f a73e f87a b33d
00000300: 12c3 c2bd 5cb6 dc3e 74a4 c93e 1dda 22bd
00000310: 5e6d d03c 8f8d 46bd c414 b6bc 52d4 693e
00000320: cc42 653e 7f6b f1bd e4a4 82be fca8 7d3d
00000330: 306f 0fbe f719 45bd fa9c 7cbd b571 bfbd
00000340: d5b5 cf3d 2b36 523e d5fc cc3e fb9d a2be
00000350: db71 65be 7635 9dbe 3893 8ebd 671b 043f
00000360: 2ac1 7ebe 863a ab3d 816a 42bd 425c 523e
00000370: 2333 68bc 98c6 fc3d 860c 65bd 74e5 b63d
00000380: 8b5e 44be 66f6 10be b042 413c 46ce 903e
00000390: db47 c0bd 9c93 a4bd bd87 aabc 2826 20bd
000003a0: 8e6e 8bbe db28 7bbe 7dea 523b 49af 293d
000003b0: cfcd 233e 37ce b23e 3ba0 5dbe 2d22 fb3c
000003c0: c646 e0bb e244 3b3c 1594 2dbe 81f5 9fbe
000003d0: c70a 27be 20cb f6be 302f ee3d 6821 c6bd
000003e0: 771f 03be 8916 9ebc 0586 88be 3e67 b0be
000003f0: 7380 dfbe af93 1abe be45 d23d 508b c0bd

feature.0.bias f4 [128]
-0.004005654 0.022159867 -0.021929037 -0.110905804 -0.11335103 -0.1524562 -0.054648273 -0.1320495
-0.080134034 -0.05078573 -0.13592602 -0.18339586 -0.08866463 -0.10822838 -0.016404737 -0.14986688
-0.03571454 -0.13158427 -0.020496562 -0.021714875 -0.081414424 -0.05736648 -0.046748128 -0.15967229
-0.09259649 -0.012232046 -0.1751416 -0.019872116 -0.059211403 -0.06697454 -0.17090526 -0.14084552
-0.13582505 0.02124987 -0.0096727675 0.009579771 -0.10948838 -0.14871237 -0.054640435 -0.102288745
-0.05828375 -0.19612871 -0.14843574 -0.09266308 0.043018445 -0.10985161 -0.032060836 -0.122699
-0.056579757 -0.019050894 -0.010837342 -0.14086832 -0.085549496 -0.124514796 -0.1891661 0.03631996
-0.08581624 -0.07045221 -0.060029816 -0.09040967 -0.043150354 -0.12708133 -0.12827756 -0.19879843
-0.116749614 -0.17978807 -0.12760568 -0.2318936 0.0427727 -0.039886538 0.16308528 -0.09888384
-0.023108345 0.31652385 0.051349215 -0.011488747 -0.030108765 -0.08028254 0.037590433 -0.1404112
0.042574752 -0.20450185 0.010090923 -0.028794857 -0.10495696 0.13617395 -0.061603386 -0.07732351
-0.0986444 -0.10458262 -0.005317037 -0.12533124 -4.036655e-05 -0.07117726 0.050313763 -0.104020126
-0.13274999 0.22350612 -0.16515043 0.066216834 -0.03000988 -0.016009286 -0.030589204 -0.0012807132
-0.034254782 -0.023161221 -1.5162064e-11 -0.06169791 -0.19485076 0.03275655 -0.063074775 -0.03447739
0.020932496 -0.10278023 -0.051770657 -0.0049123117 -0.06359953 -0.045096494 -0.1082652 -0.11751421
-0.0979442 -0.03265241 -0.08210423 -0.07508166 0.14725122 -0.09546288 0.03555504 -0.03648258
00000000: dc41 83bb 9c88 b53c 86a4 b3bc 9522 e3bd
00000010: 9624 e8bd 7a1d 1cbe ded6 5fbd fc37 07be
00000020: 501d a4bd b304 50bd 3130 0bbe 20cc 3bbe
00000030: cd95 b5bd d7a6 ddbd 3a63 86bc b476 19be
00000040: 6949 12bd 07be 06be 68e8 a7bc 65e3 b1bc
00000050: 9bbc a6bd 1df9 6abd f77a 3fbd 2281 23be
00000060: 3ba3 bdbd eb68 48bc 5258 33be d9ca a2bc
00000070: a887 72bd f329 89bd ca01 2fbe cf39 10be
00000080: b915 0bbe 3514 ae3c 877a 1ebc 79f4 1c3c
00000090: 723b e0bd 0e48 18be a6ce 5fbd c37c d1bd
000000a0: f1ba 6ebd f7d5 48be 8aff 17be 24c6 bdbd
000000b0: 1c34 303d e2f9 e0bd 3952 03bd 9d49 fbbd
000000c0: 2dc0 67bd 9f10 9cbc 1b8f 31bc c93f 10be
000000d0: 9334 afbd 9d01 ffbd c2b4 41be 3dc4 143d
000000e0: 6dc0 afbd 4049 90bd d3e1 75bd b428 b9bd
000000f0: 6dbe 30bd 9c21 02be 315b 03be d191 4bbe
00000100: 6c1a efbd 5d1a 38be 10ab 02be 8475 6dbe
00000110: 6d32 2f3d 1160 23bd d4ff 263e 9c83 cabd
00000120: b64d bdbc 6a0f a23e 8e53 523d 4c3b 3cbc
00000130: a8a6 f6bc 2c6b a4bd 6df8 193d f4c7 0fbe
00000140: dd62 2e3d ef68 51be 6654 253c 31e3 ebbc
00000150: adf3 d6bd 2f71 0b3e d553 7cbd ca5b 9ebd
00000160: 1306 cabd 6a2f d6bd 8a3a aebb d556 00be
00000170: 414f 29b8 62c5 91bd ce15 4e3d 8108 d5bd
00000180: 9def 07be cade 643e 321d 29be b19c 873d
00000190: 48d7 f5bc e825 83bc 3696 fabc 9bdd a7ba
000001a0: be4e 0cbd 9abc bdbc ef5d 85ad f3b6 7cbd
000001b0: f586 47be bb2b 063d 592d 81bd 2a38 0dbd
000001c0: a07a ab3c 717e d2bd 780d 54bd 75f7 a0bb
000001d0: 7840 82bd 1ab7 38bd 25ba ddbd 4aab f0bd
000001e0: f896 c8bd 89be 05bd 4326 a8bd 6ac4 99bd
000001f0: 06c9 163e 0b82 c3bd 29a2 113d c26e 15bd

feature.2.weight f4 [128, 128]
-0.1213799 0.27709848 0.07217961 0.05743708 0.0010882897 0.1636325 0.010235386 0.06390274
0.022855468 -5.4425078e-09 0.19040747 0.16757934 -0.037697107 0.11692849 0.17036039 0.039846394
-0.10616265 -0.051246423 0.08284859 0.06918519 -0.012566929 0.039073948 -0.028990205 0.03575252
0.031936303 -0.06251014 -0.06898879 0.05908773 -0.021569679 -0.09321729 0.05785662 9.78696e-06
0.23677836 0.21437138 0.118222244 0.17582312 0.00925396 0.109140456 0.110007964 0.24895625
0.07520316 0.07140904 0.15069814 -0.052788336 -0.019349983 0.14061697 -0.008539399 -0.029720332
-0.1977353 -0.08437233 -0.012766834 0.089244604 0.023390431 0.2630152 0.1166596 0.1153797
0.17189161 0.006813614 0.08742026 0.069361925 -0.0020417178 -0.023250097 0.013536795 0.27813867
0.47752646 0.24339598 0.00958094 0.10702362 0.1946178 -0.086289026 -0.08974544 -0.017401006
-0.046219785 -0.14660707 0.164137 0.015190478 -0.009246775 0.2162586 0.018248355 0.03321841
0.03094475 0.13504928 0.10334289 -0.0087304935 0.088635795 -0.0092924675 0.11536939 0.018711811
-0.07176053 0.18490802 -0.10177972 0.02486929 -9.570888e-39 -0.014383209 -0.047294386 0.19719252
-0.070457526 -0.0716715 0.20998287 -0.17647424 0.1372939 0.036441624 -0.03553444 -0.090211496
0.075823136 0.21964128 -1.0907746e-38 0.11932857 0.5085613 0.26836887 0.2753873 0.120794
0.15515023 -0.008724157 0.004325907 -0.04056965 0.06683384 -0.10395308 -0.12870708 0.09960432
0.07867953 -0.14628282 0.18818238 -0.07077119 0.06125781 0.024067197 -0.05647717 0.0047037182
0.025565164 -0.07471561 0.06297566 0.1323306 0.012505163 0.1685778 0.087070614 0.17543863
0.16541798 -2.1989247e-10 0.1168303 0.052116092 0.04986402 0.11177689 0.058610417 0.13030407
-0.020036284 0.024968682 0.03822835 0.102204315 -0.013512388 0.038136005 0.086611554 0.10273092
0.0597735 -0.046159998 0.28457522 0.1632914 0.054952566 0.052127358 0.22560646 7.258191e-06
0.22094275 -0.05839093 -0.014519805 -0.0026018773 0.08927344 0.11624217 0.045211095 0.10243701
-0.0063754404 0.2847899 0.079495035 0.067667395 0.1357469 0.38572803 0.0071225283 0.1797772
0.071095906 0.032790292 0.037861787 0.043078285 0.10131612 0.16754392 0.14768554 0.038352747
0.121402316 0.13918272 -0.04092566 0.08223593 -0.0284588 0.1844232 0.0047324775 -0.028078072
0.0075432276 0.09280492 -0.013994146 0.19161244 0.013315037 0.012746733 -0.045180812 0.10962375
0.012705279 -0.044044446 0.049520995 0.099407904 -0.011990917 0.15198986 -0.01181544 0.12253272
-0.056230716 -0.06813806 0.060473412 0.07972098 0.08570007 0.08404231 0.118368015 0.11982247
0.09089373 0.07451026 0.0502536 0.2337922 -2.536387e-39 0.08345258 0.049662117 0.13495642
0.106171906 0.09674099 0.11666265 0.03915741 -0.030895703 -0.033145167 -0.037826538 0.054838303
0.09622822 -0.08671863 -1.76838e-39 0.038153935 0.17758067 0.0107735 0.081472985 -0.013588689
-0.023439303 0.13609037 0.07103714 0.015815398 0.024888355 0.023791296 0.110973515 0.22756977
0.069475934 0.06595867 0.10738343 0.04364823 -0.004857894 0.1926867 0.08898483 0.11423835
00000000: 0696 f8bd dadf 8d3e e7d2 933d 2543 6b3d
00000010: f1a4 8e3a 478f 273e 52b2 273c 71df 823d
00000020: 643b bb3c ce00 bbb1 2dfa 423e eb99 2b3e
00000030: 4868 1abd 3478 ef3d f472 2e3e f935 233d
00000040: ce6b d9bd c5e7 51bd 86ac a93d f7b0 8d3d
00000050: 85e5 4dbc 010c 203d de7c edbc 3c71 123d
00000060: a4cf 023d 5105 80bd ff49 8dbd fa05 723d
00000070: e5b2 b0bc b5e8 bebd 10fb 6c3d ac32 2437
00000080: 0776 723e 2c84 5b3e 811e f23d fa0a 343e
00000090: ec9d 173c 0885 df3d db4b e13d 63ee 7e3e
000000a0: 1d04 9a3d e73e 923d 9d50 1a3e 9538 58bd
000000b0: db83 9ebc e5fd 0f3e d6e8 0bbc 0e78 f3bc
000000c0: 1f7b 4abe 66cb acbd fc2b 51bc e0c5 b63d
000000d0: 4a9d bf3c eea9 863e 3aeb ee3d 314c ec3d
000000e0: 5b04 303e bd44 df3b 6509 b33d a00d 8e3d
000000f0: 57ce 05bb fd76 bebc 6fc9 5d3c 3168 8e3e
00000100: 597e f43e cc3c 793e 60f9 1c3c 332f db3d
00000110: e349 473e 4db8 b0bd 75cc b7bd 8e8c 8ebc
00000120: f550 3dbd 2a20 16be 8813 283e 7ce1 783c
00000130: c97f 17bc e572 5d3e 937d 953c 0710 083d
00000140: d87f fd3c 5c4a 0a3e 70a5 d33d 580a 0fbc
00000150: af86 b53d 6f3f 18bc c946 ec3d 8349 993c
00000160: 2ff7 92bd 8758 3d3e e371 d0bd aeba cb3c
00000170: be37 6880 8da7 6bbc c2b7 41bd d6ec 493e
00000180: 094c 90bd 82c8 92bd c005 573e aab5 34be
00000190: c696 0c3e d043 153d 908c 11bd cec0 b8bd
000001a0: 2949 9b3d a5e9 603e 5cc6 7680 8a62 f43d
000001b0: 1331 023f a567 893e 90ff 8c3e d862 f73d
000001c0: b4df 1e3e c4ef 0ebc 57c0 8d3b 5c2c 26bd
000001d0: 2ee0 883d 5ae5 d4bd cacb 03be 5afd cb3d
000001e0: bc22 a13d 2acb 15be e2b2 403e 7cf0 90bd
000001f0: 78e9 7a3d 9228 c53c 9b54 67bd a621 9a3b
00000200: 096e d13c 7f04 99bd 62f9 803d ac81 073e
00000210: 75e2 4c3c a99f 2c3e 1452 b23d 2fa6 333e
00000220: 5563 293e 3ac6 71af b944 ef3d af77 553d
00000230: 373e 4c3d 48eb e43d 7a11 703d 6e6e 053e
00000240: 2223 a4bc 1f8b cc3c 5595 1c3d 7f50 d13d
00000250: 1063 5dbc 8034 1c3d 6661 b13d 9764 d23d
00000260: 0fd5 743d 4412 3dbd d8b3 913e dc35 273e
00000270: f115 613d 7f83 553d 6105 673e 638b f336
00000280: d13e 623e 542b 6fbd 7ae4 6dbc 4284 2abb
00000290: fed4 b63d 6010 ee3d 452f 393d 7fca d13d
000002a0: 12e9 d0bb fbcf 913e 4bce a23d 3495 8a3d
000002b0: 3c01 0b3e 257e c53e 1964 e93b 8417 383e
000002c0: bb9a 913d 1d4f 063d f614 1b3d db72 303d
000002d0: d37e cf3d a290 2b3e e13a 173e c517 1d3d
000002e0: c7a1 f83d ea85 0e3e aaa1 27bd 506b a83d
000002f0: 6e22 e9bc 6fd9 3c3e e612 9b3b fc03 e6bc
00000300: 2e2d f73b 8210 be3d b447 65bc 0d36 443e
00000310: 5027 5a3c acd7 503c 840f 39bd 6b82 e03d
00000320: cd29 503c f367 34bd 87d6 4a3d 5f96 cb3d
00000330: 8d75 44bc 3ba3 1b3e 8c95 41bc 6ff2 fa3d
00000340: 2e52 66bd f88b 8bbd f8b2 773d c144 a33d
00000350: 8583 af3d 601e ac3d ee6a f23d 7c65 f53d
00000360: 7e26 ba3d d698 983d b8d6 4d3d 3967 6f3e
00000370: 6a9e 1b80 30e9 aa3d 816a 4b3d 0432 0a3e
00000380: a870 d93d 2420 c63d d4ec ee3d 8563 203d
00000390: fc18 fdbc 3ac3 07bd 00f0 1abd 219e 603d
000003a0: 4d13 c53d 8999 b1bd 8641 1380 4d47 1c3d
000003b0: b5d7 353e 5683 303c 4fdb a63d 18a3 5ebc
000003c0: c803 c0bc 465b 0b3e ec7b 913d 4b8f 813c
000003d0: aae2 cb3c f7e5 c23c 1546 e33d 0d08 693e
000003e0: 6649 8e3d 5715 873d d8eb db3d 7dc8 323d
000003f0: f82e 9fbb aa4f 453e ae3d b63d ccf5 e93d

feature.2.bias f4 [128]
-0.03673272 -0.1616021 -3.74779e-14 -0.013866807 -0.026045404 -0.06420703 -0.06302693 -0.052501902
0.23166403 0.19771473 -2.0871368e-14 -0.044488627 -0.030257314 -0.009285639 -0.025327772 -0.1291452
0.48745242 -1.4877068e-14 -6.47131e-10 -0.11091621 -0.13044213 -0.0012041349 -5.087646e-07 -0.067496814
-0.04070011 0.32133964 -0.11663787 -0.023547465 0.046170987 0.035114966 -0.0068959715 0.34673062
-0.10781976 -0.10879007 -0.03778325 -0.064124204 -0.15641026 0.050987612 0.025001757 -0.00023338653
-0.07061209 -0.07567046 -6.632481e-15 -0.04008448 -0.012522259 -2.9740818e-15 -0.070730895 -0.009254913
0.35485986 -1.3732391e-18 -0.055079293 0.0072914506 -0.020444432 -0.03569774 -0.093915395 -0.09802866
-2.303465e-11 0.07090766 -0.01009304 -0.0684458 -2.6552432e-05 -0.009371282 0.02507809 -0.05340153
0.038336348 -0.0169903 -0.09278304 -0.102588914 0.14745271 0.51510626 -0.011843166 -0.032814458
-0.08015419 -0.072462335 -0.10969177 0.1009375 -0.12695909 -0.14616847 0.120801516 -1.1246691e-05
-6.658148e-17 -0.039570082 -0.08409363 -1.4996368e-06 -0.0062750084 -0.06458203 -4.190417e-17 0.10138793
-0.00046127985 -0.020852827 0.20575221 -0.1312116 0.08053572 -0.044420406 -0.023312265 -7.2770656e-10
-0.026770629 0.035774782 0.056915183 0.057578232 -0.009534799 -0.018939076 -0.05124887 -0.07370995
-0.0037768283 -0.09247485 -0.010639392 -0.103973314 -1.3379224e-05 -0.03194346 0.20072085 -1.4857572e-11
-0.06325334 -0.0593424 0.012282117 -0.077912204 0.15862568 -0.040637743 0.048454646 -0.054677125
0.18247446 -0.051153168 -0.02427962 0.26179558 -9.731823e-19 -9.631074e-06 -0.1453361 0.037009187
00000000: 0c75 16bd 057b 25be 14c9 28a9 9b31 63bc
00000010: 2c5d d5bc fa7e 83bd 4314 81bd 3c0c 57bd
00000020: 5639 6d3e bb75 4a3e 19fe bba8 b539 36bd
00000030: 30de f7bc cb22 18bc 307c cfbc a43e 04be
00000040: 5d93 f93e 2f00 86a8 cce1 31b0 0a28 e3bd
00000050: 9f92 05be 10d4 9dba 0992 08b5 c53b 8abd
00000060: 29b5 26bd a186 a43e d6df eebd 9de6 c0bc
00000070: ca1d 3d3d b6d4 0f3d 9af7 e1bb ad86 b13e
00000080: 9bd0 dcbd 54cd debd 9cc2 1abd 8d53 83bd
00000090: 032a 20be 63d8 503d 7cd0 cc3c 38b9 74b9
000000a0: 129d 90bd 1df9 9abd d7f5 eea7 a02f 24bd
000000b0: 292a 4dbc 204e 56a7 5cdb 90bd eba1 17bc
000000c0: 31b0 b53e 82a7 caa1 d39a 61bd 1fed ee3b
000000d0: 157b a7bc cb37 12bd b756 c0bd 40c3 c8bd
000000e0: 6c9d caad 0938 913d 475d 25bc 502d 8cbd
000000f0: eabc deb7 018a 19bc 9170 cd3c 90bb 5abd
00000100: 9306 1d3d 3e2f 8bbc 0905 bebd 231a d2bd
00000110: d8fd 163e 01de 033f d709 42bc 7468 06bd
00000120: e127 a4bd 2267 94bd 14a6 e0bd 52b8 ce3d
00000130: 9001 02be 30ad 15be c966 f73d 2cb0 3cb7
00000140: c586 99a4 3d14 22bd 4839 acbd 2147 c9b5
00000150: 969e cdbb 9543 84bd b63f 41a4 7aa4 cf3d
00000160: efd7 f1b9 8cd3 aabc b5b0 523e 555c 06be
00000170: e9ef a43d 2cf2 35bd 5df9 bebc cc07 48b0
00000180: 144e dbbc 9488 123d e51f 693d 27d7 6b3d
00000190: d837 1cbc 1f26 9bbc 56ea 51bd 3ef5 96bd
000001a0: aa84 77bb 7463 bdbd d850 2ebc f6ef d4bd
000001b0: 5477 60b7 25d7 02bd c489 4d3e 47b0 82ad
000001c0: f88a 81bd 0411 73bd ef3a 493c 6f90 9fbd
000001d0: c56e 223e c373 26bd 6178 463d 1ff5 5fbd
000001e0: 96da 3a3e fc85 51bd 0ee6 c6bc 120a 863e
000001f0: ca9d 8fa1 2695 21b7 fdd2 14be f296 173d

advantage.0.weight f4 [64, 128]
0.10479742 0.02556451 -1.3237279e-38 -0.17962778 0.2192569 0.19787014 -0.01984834 -0.00085731316
0.19140607 0.0503914 4.865076e-39 0.00943194 -0.1649897 -0.09999949 -0.062197506 0.011952837
0.03973225 -2.2392008e-38 -3.5913315e-21 0.008286387 -0.28702602 0.29710707 9.63906e-39 0.27360725
-0.03176966 -0.074059635 0.008455853 0.22371797 -0.36072794 -0.20069048 0.14241901 0.29343367
0.095864736 -0.05282047 -0.1021947 0.14286067 0.13766812 -0.03626762 0.39426062 0.32178965
0.049312636 0.061022658 -3.616463e-39 -0.09404914 -0.057843152 -1.1118987e-16 -0.16900018 -0.028757092
-0.14893168 -5.510545e-39 0.05842797 0.05350777 4.2620383e-07 0.0003870054 0.038885713 0.03423569
-5.2902744e-35 -0.066770315 -0.19959445 -0.06072244 4.328939e-05 -1.4955512e-08 -0.042555947 -0.09321317
0.22038798 -0.1507738 0.2153862 -0.120814964 0.28241387 0.13366605 -0.13718858 -0.0029821098
0.03799641 0.12973496 -0.0061350907 -0.1773568 0.065703645 -0.097791806 0.23618905 -6.613279e-33
4.35067e-39 0.06950958 -0.18989487 3.746698e-24 -0.14045098 0.11803736 6.0630118e-33 -0.13700137
-4.9284794e-21 0.048439395 0.12808524 0.25854117 -0.105927505 -0.25229535 0.267799 1.8886913e-11
0.06652245 -0.094538465 -0.40057582 0.07022451 -4.783567e-11 -0.017402375 0.0034267849 -0.046652045
-0.1385489 0.052851543 1.7035227e-05 0.05565104 -1.3677576e-34 -0.08608161 -0.22848353 -7.51277e-40
-0.2171178 -0.27114636 0.0073176553 0.05676514 -0.30418515 -0.06885434 0.114379615 -0.16080357
0.3512583 -0.074835725 0.11120052 0.021603916 4.989563e-39 6.29414e-39 -0.04265737 -0.21098177
-5.3813892e-08 -2.4030458e-09 1.3682301e-37 -9.102678e-12 -2.1569348e-33 2.6506473e-07 2.6021636e-08 -2.0522391e-13
1.2883988e-06 -2.4681304e-10 -2.395054e-38 -2.838838e-38 -3.1545852e-07 -9.976456e-10 -3.5951462e-08 -2.1351031e-08
-1.1174395e-18 2.2102053e-38 1.5306787e-38 5.6674e-41 -6.7687905e-10 -2.5683314e-06 1.7128856e-38 -7.5813226e-08
-4.407377e-15 -2.310557e-09 -1.3512282e-07 -1.6686879e-07 1.9413225e-38 -4.5568045e-14 1.4135405e-10 -7.7250055e-12
-4.8313153e-09 -9.636172e-11 5.5327853e-08 -7.798112e-17 -3.920912e-27 -3.8056538e-10 -1.4889767e-38 2.8807948e-17
-3.1339478e-09 -7.445123e-08 4.676509e-39 -7.45915e-13 -1.592044e-15 -8.278462e-39 -6.21271e-10 -1.21308705e-08
-7.480088e-32 1.01586e-40 -2.382574e-25 8.723718e-07 2.3683867e-38 -4.346954e-38 -3.1086972e-16 -1.3189565e-38
-2.157818e-38 -1.4409739e-23 -1.1885883e-09 -4.702706e-11 -7.892432e-39 -1.4816478e-38 -2.6251665e-10 -2.445995e-08
8.154184e-06 -5.888984e-12 2.4726972e-07 -6.0919048e-09 4.0532173e-09 -1.0797152e-23 -1.2768053e-10 1.6711235e-38
1.4514941e-28 -2.6275425e-11 -2.9455098e-08 -2.7126603e-08 -1.9108387e-13 -1.477598e-14 -1.4704708e-06 8.156451e-39
-3.939089e-39 4.1904438e-13 -1.0432635e-10 2.014397e-39 4.386767e-25 1.4760073e-09 6.329497e-39 1.7672376e-38
-3.2738e-39 -2.6542221e-14 -6.93517e-40 -1.3209422e-19 3.583686e-38 -5.7940337e-09 -1.6175844e-14 -3.8294113e-38
-2.1308044e-14 -3.2571674e-15 -5.759601e-37 -1.4053823e-14 1.22638e-38 -1.1634518e-16 2.2219555e-38 -8.7361407e-10
-1.1227658e-09 -6.242647e-18 3.6058784e-38 1.1636774e-22 1.4127314e-38 -1.6576225e-10 5.292132e-35 1.6983443e-38
-1.1806331e-10 -7.7299075e-17 4.1238096e-21 -1.9581194e-06 -8.479846e-35 -1.7515243e-08 -1.3978899e-13 -4.2147047e-08
-4.810663e-39 -3.0974878e-10 -4.3287257e-13 1.2517425e-38 -3.0513e-38 8.63326e-39 -2.6546587e-18 -7.921286e-15
00000000: 08a0 d63d aa6c d13c 2624 9080 58f0 37be
00000010: e184 603e 789e 4a3e fc98 a2bc 50bd 60ba
00000020: f4ff 433e 3667 4e3d daf9 3400 6c88 1a3c
00000030: 0ff3 28be 88cc ccbd d0c2 7ebd d5d5 433c
00000040: 49be 223d cfd3 f380 3aad 879d a0c3 073c
00000050: 13f5 92be 6b1e 983e c7f5 6800 4016 8c3e
00000060: e720 02bd 94ac 97bd 6b8a 0a3c 5316 653e
00000070: 55b1 b8be ce81 4dbe 4ad6 113e f03c 963e
00000080: bb54 c43d 475a 58bd 744b d1bd 114a 123e
00000090: dff8 0c3e 5b8d 14bd 87dc c93e 9dc1 a43e
000000a0: 0cfc 493d e5f2 793d 3a61 2780 d69c c0bd
000000b0: f1ec 6cbd 7531 00a5 620e 2dbe fe93 ebbc
000000c0: 8c81 18be 2801 3c80 2b52 6f3d f72a 5b3d
000000d0: 02d1 e434 fce6 ca39 a046 1f3d b93a 0c3d
000000e0: bea3 8c86 e0be 88bd 7d62 4cbe 18b8 78bd
000000f0: a191 3538 8577 80b2 254f 2ebd 8ce6 bebd
00000100: 63ad 613e 7264 1abe 338e 5c3e d66d f7bd
00000110: 8d98 903e c1df 083e 2a7b 0cbe 806f 43bb
00000120: 20a2 1b3d 3ed9 043e df08 c9bb 059d 35be
00000130: a28f 863d 1247 c8bd 8bdb 713e 395a 098a
00000140: e65f 2f00 0a5b 8e3d cd73 42be 80f1 9018
00000150: 62d2 0fbe 92bd f13d 00d9 fb09 164a 0cbe
00000160: 5431 ba9d 6368 463d c728 033e 825f 843e
00000170: 85f0 d8bd db2c 81be f31c 893e 8c21 a62d
00000180: ec3c 883d 629d c1bd 4618 cdbe ded1 8f3d
00000190: 2d62 52ae 6d8f 8ebc e993 603b 3716 3fbd
000001a0: c3df 0dbe dc7a 583d dfe6 8e37 58f2 633d
000001b0: 61ce 3587 8e4b b0bd 96f7 69be 412e 0880
000001c0: 2154 5ebe b2d3 8abe f1c8 ef3b 9082 683d
000001d0: 28be 9bbe 8103 8dbd dc3f ea3d b1a9 24be
000001e0: 21d8 b33e 7943 99bd 19bd e33d b2fa b03c
000001f0: df54 3600 8089 4400 7fb9 2ebd 9b0b 58be
00000200: 0021 67b3 d422 25b1 dc3b 3a02 d122 20ad
00000210: ee30 3389 384e 8e34 2f86 df32 c40f 67aa
00000220: 0ced ac35 d9af 87af 2e66 0281 a08f 1a81
00000230: 4a5c a9b4 891d 89b0 0d69 1ab3 6a67 b7b2
00000240: ace7 a4a1 88ab f000 18ad a600 fc9d 0000
00000250: 210f 3ab0 995b 2cb6 4884 ba00 c3ce a2b3
00000260: e1ca 9ea7 c0c7 1eb1 4716 11b4 8b2c 33b4
00000270: 2c64 d300 6138 4da9 a16b 1b2f 55e6 07ad
00000280: b300 a6b1 d3e6 d3ae 9ea1 6d33 eecf b3a4
00000290: c652 9b93 d137 d1af 9d22 a280 6cda 0424
000002a0: fe5c 57b1 ffe1 9fb3 34ec 3200 d7f4 51ab
000002b0: 0e70 e5a6 fc24 5a80 0fc6 2ab0 2268 50b2
000002c0: b631 c28b 2e1b 0100 6479 9396 ef2c 6a35
000002d0: 7ef2 0001 b2ab 6c81 4634 b3a5 249f 8f80
000002e0: 30f7 ea80 c95c 8b99 bc5b a3b0 c3d3 4eae
000002f0: e4f0 5580 5056 a180 ef51 90af 001c d2b2
00000300: f4cd 0837 4133 cfac 7ec0 8434 f650 d1b1
00000310: 7a44 8b31 e8d8 5099 e062 0caf 20f8 b500
00000320: adff 3711 ff1e e7ad 7204 fdb2 0804 e9b2
00000330: 2d24 57aa 1717 85a8 fe5c c5b5 ded0 5800
00000340: 94e4 2a80 a9e6 eb2a 846a e5ae 52ef 1500
00000350: 8dc3 0717 64dc ca30 10ec 4400 656f c000
00000360: 06a6 2380 3212 efa8 3e8d 0780 07f3 1ba0
00000370: 4b1d 4301 dc14 c7b1 f5b2 91a8 347e 5081
00000380: 01ed bfa8 22b4 6aa7 33fd 4383 d22b 7da8
00000390: 7c8a 8500 0923 06a5 14f3 f100 2023 70b0
000003a0: cf4f 9ab0 2250 e6a2 9c52 4401 12ae 0c1b
000003b0: 34d5 9900 ed41 36af 62b0 8c06 eeee b800
000003c0: decf 01af 523d b2a4 0acb 9b1d 3c68 03b6
000003d0: d76e e186 6d74 96b2 6f63 1daa 2b05 35b3
000003e0: 2c62 3480 4449 aaaf 83af f3aa 7d4d 8800
000003f0: ea20 2681 0402 5e00 16e1 43a2 7cb2 0ea8

advantage.0.bias f4 [64]
0.10677313 -0.0002343506 -0.0015483592 -0.07434751 -0.0017755957 -0.055545382 -0.011175538 -0.010562594
0.078298785 -0.04634528 -0.0011357311 -0.016780911 0.008501258 0.031406578 -4.387995e-11 -1.2507038e-12
-0.12345592 0.13457668 0.15495878 -2.7864017e-10 -0.10811227 0.019912507 -1.4379598e-08 0.12132005
-0.031077662 -0.11052009 -0.10455166 -0.17006704 -0.008211662 0.010716915 0.09221458 -1.6213851e-10
0.08300125 -0.10073867 0.12559138 0.11505747 2.1070126e-05 -1.8710278e-08 -0.070365645 0.009286144
-0.0004044917 -0.00030380828 -0.067167886 -0.02680824 -1.0766435e-05 0.108028546 -0.008736952 -0.10184327
0.05504772 -3.300122e-06 -0.07723177 -0.08878192 0.13090792 0.14606434 -7.9619417e-14 0.072246835
0.12954713 0.011124547 -4.7137637e-05 0.044533014 -0.026064722 0.055333924 0.03935141 -0.007815135
00000000: dfab da3d 03bc 75b9 50f2 caba 8243 98bd
00000010: 1bbb e8ba 8e83 63bd 9b19 37bc bb0e 2dbc
00000020: 1d5b a03d 8cd4 3dbd d0dc 94ba 1f78 89bc
00000030: dc48 0b3c 2fa4 003d 6efc 40ae 5a05 b0ab
00000040: 75d6 fcbd 78ce 093e 84ad 1e3e 1e2f 99af
00000050: f769 ddbd 8e1f a33c 240a 77b2 a576 f83d
00000060: 9596 febc 5b58 e2bd 2e1f d6bd 0e26 2ebe
00000070: 358a 06bc 0096 2f3c ffda bc3d ef45 32af
00000080: 8ffc a93d 1350 cebd 079b 003e 40a3 eb3d
00000090: c0bf b037 56b8 a0b2 dd1b 90bd e924 183c
000000a0: f511 d4b9 7548 9fb9 518f 89bd f49c dbbc
000000b0: 7ca1 34b7 123e dd3d 6f25 0fbc 3493 d0bd
000000c0: b879 613d aa77 5db6 b12b 9ebd 4cd3 b5bd
000000d0: ba0c 063e e491 153e 7849 b3a9 26f6 933d
000000e0: 01a8 043e bb43 363c a7b5 45b8 4068 363d
000000f0: af85 d5bc d3a5 623d f22e 213d 0d0b 00bc

advantage.2.weight f4 [36, 64]
-0.20536661 0.0122733265 0.0074355775 0.14603649 -0.0050907815 0.13649377 0.080476664 0.049634796
0.08803512 0.09835152 0.18092752 0.10469024 0.15641168 0.12958744 -4.2494758e-05 0.00018313622
0.010854681 -0.09999957 -0.011169568 -1.4081776e-38 0.26468033 0.14204074 9.587847e-39 0.06775521
-0.08313908 0.03126791 0.1883272 -0.00058619084 -0.0068593295 0.08959312 0.01366198 -4.797579e-05
0.050334074 0.014556531 0.051020075 0.0847155 0.11063387 0.0049255984 0.014812608 0.13201214
3.1733784e-06 -0.014026667 0.13203317 0.20680304 5.4874413e-18 -0.5300255 -0.009040209 0.16479924
0.07330859 0.00156706 0.14656165 0.04710589 -0.18527086 0.023927134 0.00056216936 0.061459668
0.023552846 0.119605295 -0.00083440635 0.1537491 -0.71707517 0.14741412 -0.07676138 0.13408872
-0.20144334 3.9310482e-08 -0.00013021003 0.03713016 0.0013508482 -0.0960604 0.04453576 -0.00021278884
0.28050175 0.3714707 0.18257928 -0.032347336 0.16360997 0.06906633 2.1433091e-11 1.3031803e-17
-0.12265564 -0.51186407 0.00018078636 -1.805155e-39 0.23526026 0.18850967 -8.510929e-39 0.0038036276
0.0054919887 0.09068779 0.18664494 -0.023295682 -0.001906198 -0.20026922 0.05847004 1.3185683e-12
-0.26433328 -0.33082333 -0.360425 0.19992554 -0.3941588 -2.5454547e-15 0.0055719293 0.13127111
2.9186869e-31 6.469839e-06 -0.10199196 -0.1545742 1.8013584e-38 -0.67762244 -0.014263021 -0.08080466
0.23403741 -4.61387e-08 0.18982121 -0.039678115 -0.4374366 -0.048230793 1.0312979e-11 -0.4638063
0.026499247 0.067841075 0.001568336 0.22950004 -0.34212273 -0.2665338 -0.15859424 -0.5468587
-0.43646425 -0.002303606 0.016875139 0.054694243 -0.019072983 0.12330921 0.14885104 -0.00021157546
0.07377305 0.24598345 0.2055983 -0.023278259 0.2346103 -0.04492466 -0.00011826754 -1.0460823e-05
0.1472901 -0.062787235 0.27808496 1.1869061e-38 0.22181472 0.18141772 3.513061e-39 -0.08676036
0.053674314 0.20872477 0.29775697 0.10545959 0.020124527 0.00018063886 0.06061278 -0.00016413552
0.0409729 -0.011616568 -0.24134633 -0.03757452 -0.37686384 1.4334288e-06 0.09153146 0.13555567
-1.3382108e-05 0.0007907095 0.13506916 0.18425915 -1.9058312e-38 -0.52456164 -0.013364831 0.2037232
0.12164036 0.0018551719 0.21327955 0.07676701 -1.0754741 0.036469176 -0.0011382442 -0.14694375
0.0044133053 -0.13431421 0.005686988 -0.2432159 0.039421435 0.03263193 0.11418648 -0.020494314
0.17553557 -2.175707e-06 -0.011416815 -0.5644977 0.0059910533 0.07329046 0.09243982 0.008872004
0.020986607 0.23786092 0.0946083 0.05125867 0.22316103 -0.16296901 5.3298798e-12 1.5641837e-16
-0.02001612 0.10751011 0.16520844 -1.993459e-39 0.17689611 0.19870529 -2.3327627e-38 -0.2831447
-0.004521136 0.12995198 0.06729009 0.08000639 0.0026304752 0.054569855 0.14617942 2.9211288e-12
0.19282581 -0.078035444 -0.4171552 0.06536552 -0.4213339 9.138727e-13 0.015031475 -0.019732941
-0.0002493303 0.0011951874 -0.09667754 0.0039411867 1.3464092e-38 -0.007120925 0.008862192 -0.20332335
0.026489092 -1.9169605e-05 0.17373107 0.063348696 -0.07320435 0.13887012 -4.3192165e-07 -0.19818975
-0.31777647 -0.44664928 -0.0051622777 -0.90354633 0.08150797 -0.04249061 0.3423716 -0.48798972
00000000: a04b 52be 1016 493c 25a6 f33b 978a 153e
00000010: 92d0 a6bb 06c5 0b3e f3d0 a43d db4d 4b3d
00000020: c24b b43d 866c c93d 1045 393e d667 d63d
00000030: 622a 203e 92b2 043e 663c 32b8 4108 4039
00000040: d5d7 313c 93cc ccbd 9000 37bc 4356 9980
00000050: 2e84 873e 2173 113e 0467 6800 3ec3 8a3d
00000060: d244 aabd c812 003d d8d8 403e 9aaa 19ba
00000070: 3ac4 e0bb 997c b73d 7fd6 5f3c 9d39 49b8
00000080: 1a2b 4e3d 847e 6e3c 6dfa 503d 527f ad3d
00000090: 0394 e23d ea66 a13b 95b0 723c 312e 073e
000000a0: 3af6 5436 1bd0 65bc b433 073e 2dc4 533e
000000b0: 6b73 ca22 c0af 07bf 631d 14bc 22c1 283e
000000c0: d022 963d cf65 cd3a 4214 163e 1bf2 403d
000000d0: a5b7 3dbe d602 c43c 8c5e 133a 22bd 7b3d
000000e0: e6f1 c03c 9ff3 f43d 10bc 5aba 6770 1d3e
000000f0: 3d92 37bf baf3 163e 1235 9dbd 8e4e 093e
00000100: 2a47 4ebe 55d6 2833 fd88 08b9 cb15 183d
00000110: f20e b13a 51bb c4bd 216b 363d 1220 5fb9
00000120: ed9d 8f3e 6831 be3e 10f6 3a3e a47e 04bd
00000130: 5f89 273e a672 8d3d 0887 bc2d f364 7023
00000140: e132 fbbd 8609 03bf 7891 3d39 0aa8 1380
00000150: 11e8 703e ae08 413e 02ad 5c80 4846 793b
00000160: 24f6 b33b 85ba b93d da1f 3f3e 96d6 bebc
00000170: 64d9 f9ba 6013 4dbe 487e 6f3d 6e92 b92b
00000180: b156 87be ad61 a9be a089 b8be 48b9 4c3e
00000190: 2fcf c9be 5a6b 37a7 bb94 b63b ef6b 063e
000001a0: 016f bd0c 7e17 d936 29e1 d0bd b348 1ebe
000001b0: 8b26 c400 aa78 2dbf 72af 69bc ea7c a5bd
000001c0: 81a7 6f3e 0a2a 46b3 7e60 423e 8585 22bd
000001d0: b1f7 dfbe a78d 45bd 876d 352d 0578 edbe
000001e0: f314 d93c 43f0 8a3d a090 cd3a 0f02 6b3e
000001f0: b62a afbe 1e77 88be 8766 22be effe 0bbf
00000200: 3e78 dfbe 18f8 16bb bb3d 8a3c 1207 603d
00000210: f23e 9cbc 8a89 fc3d 686c 183e 5bda 5db9
00000220: 5316 973d 16e3 7b3e 5c88 523e 0cb2 bebc
00000230: af3d 703e ec02 38bd 6706 f8b8 e580 2fb7
00000240: 37d3 163e 9896 80bd 2761 8e3e 1d3e 8100
00000250: 6623 633e 91c5 393e fc40 2600 6aaf b1bd
00000260: 99d9 5b3d f2bb 553e 9a73 983e 33fb d73d
00000270: 31dc a43c e069 3d39 1b45 783d cb1b 2cb9
00000280: 33d3 273d 6b53 3ebc 7e23 77be bde7 19bd
00000290: 4cf4 c0be 3d64 c035 d974 bb3d 1bcf 0a3e
000002a0: b783 60b7 9e47 4f3a 924f 0a3e 6eae 3c3e
000002b0: d286 cf80 ac49 06bf 2af8 5abc d19c 503e
000002c0: 951e f93d 3d29 f33a f465 5a3e 0638 9d3d
000002d0: 23a9 89bf b460 153d 2331 95ba 6c78 16be
000002e0: 7d9d 903b aa89 09be ea59 ba3b 970d 79be
000002f0: 5f78 213d 0fa9 053d 9ada e93d b1e3 a7bc
00000300: 99bf 333e 5d02 12b6 980d 3bbc ec82 10bf
00000310: 9950 c43b 4f19 963d 1751 bd3d e25b 113c
00000320: 1bec ab3c d091 733e ffc1 c13d 9cf4 513d
00000330: 5384 643e 59e1 26be 4a87 bb2c 8e56 3425
00000340: d9f8 a3bc 432e dc3d 672c 293e f4b4 1580
00000350: 4124 353e 6679 4b3e ef03 fe80 58f8 90be
00000360: 0a26 94bb 2212 053e 63cf 893d 64da a33d
00000370: 0d64 2c3b a484 5f3d 0fb0 153e 618e 4d2c
00000380: 2174 453e 0cd1 9fbd 5e95 d5be 5cde 853d
00000390: 14b9 d7be bc9d 802b 9346 763c faa6 a1bc
000003a0: 8cb8 82b9 d6a7 9c3a e0fe c5bd 1225 813b
000003b0: 699c 9200 a656 e9bb ba32 113c ff33 50be
000003c0: a7ff d83c 6ace a0b7 8fe6 313e f6bc 813d
000003d0: 2aec 95bd f833 0e3e dce2 e7b4 41f2 4abe
000003e0: 99b3 a2be 37af e4be 5328 a9bb d04e 67bf
000003f0: a7ed a63d a20a 2ebd 554b af3e cad9 f9be

advantage.2.bias f4 [36]
-0.03991368 0.043097477 -0.1279685 0.196915 0.122778855 -0.098172456 -0.021066843 0.121268585
0.041306213 0.12379092 0.07854208 0.03206566 0.06786385 -0.008825533 0.011830382 0.034654
0.07240571 -0.06631688 0.039777063 0.0025292486 0.39590105 0.07176919 -0.14353219 -0.17767568
-0.08313258 0.060135752 0.10436932 0.03329572 0.13902883 0.026422763 -0.17199767 0.05282544
0.07208097 -0.073351935 -0.05123609 0.21664423
00000000: 877c 23bd fb86 303d 2d0a 03be 16a4 493e
00000010: 7b73 fb3d a40e c9bd 5f94 acbc aa5b f83d
00000020: b430 293d 1886 fd3d acda a03d 4857 033d
00000030: 34fc 8a3d f898 10bc 38d4 413c 5af1 0d3d
00000040: 7249 943d 25d1 87bd 46ed 223d c0c1 253b
00000050: 8bb3 ca3e bafb 923d 1afa 12be 9df0 35be
00000060: 6a41 aabd e850 763d 95bf d53d 1861 083d
00000070: 935d 0e3e 8d74 d83c 2820 30be 7d5f 583d
00000080: 309f 933d 8a39 96bd efdc 51bd fcd7 5d3e

value.0.weight f4 [64, 128]
2.354876e-39 3.00798e-39 -1.4184316e-38 2.5779038e-38 -8.71889e-39 1.3371829e-38 1.5995177e-38 -1.2056629e-38
-6.460895e-38 2.9762666e-38 -4.467742e-38 -1.4078319e-38 -1.3299948e-38 -2.0803114e-38 -5.971513e-39 -9.417964e-39
1.9557889e-38 2.837264e-38 1.911025e-38 -1.6981106e-38 -1.245862e-38 4.984475e-39 4.711771e-39 -7.709793e-39
-2.273988e-39 -5.165948e-39 -4.984211e-39 -3.1385745e-38 8.273658e-39 -2.1860828e-38 -2.2086936e-38 8.374171e-39
9.302346e-39 1.0641e-37 -1.6228684e-38 1.8602271e-38 -6.114305e-39 -2.334153e-38 -4.33293e-39 -5.363425e-39
-1.276134e-39 -1.5421183e-38 -2.1612714e-38 -2.0514937e-38 -1.3032625e-38 -6.265676e-38 -3.645088e-39 -2.0275034e-38
-6.475479e-39 1.7563404e-38 1.9759794e-38 8.966113e-39 3.054139e-38 -1.151758e-38 1.0773359e-38 2.2051634e-38
1.929591e-39 -1.2554435e-38 1.0528505e-38 -1.4713611e-38 -1.4859164e-38 -3.06918e-39 3.148953e-38 -2.30816e-39
2.765706e-39 -5.23309e-39 1.3696487e-38 8.385684e-38 1.588512e-38 -3.4925599e-38 -2.7852954e-38 1.6899617e-38
-6.665358e-38 -5.4981784e-38 -6.839323e-39 2.2820546e-38 -1.3635514e-38 -6.619051e-38 -7.223178e-38 -2.2920476e-38
2.9092032e-38 -4.8180094e-38 1.835889e-38 7.446438e-39 5.739851e-38 -7.208775e-39 1.7585236e-38 -1.1864604e-38
3.4507462e-38 2.965591e-38 2.0647505e-38 -6.001501e-38 1.607455e-38 2.976276e-38 -5.734153e-39 -2.44137e-39
1.342495e-38 -3.624302e-39 1.5105818e-38 -2.7441006e-38 -1.7528419e-38 -3.6326992e-38 2.0122388e-38 -7.443143e-39
-2.7454083e-38 4.838703e-39 1.1976825e-38 1.1734272e-38 1.0018163e-38 -1.6962836e-38 3.6426126e-38 -9.864917e-39
2.0965897e-38 -1.5844936e-38 -4.657249e-39 -5.746408e-39 2.866611e-39 1.9190567e-38 4.283388e-39 1.5005423e-38
-3.01943e-40 -2.0715597e-38 1.9770029e-38 2.1038854e-38 -7.162799e-39 1.8266901e-38 1.2894286e-38 -1.5597595e-38
-2.224952e-38 -1.2630424e-38 -4.893575e-38 -5.280126e-39 9.33237e-39 -1.121064e-38 -3.130534e-39 -2.1334786e-38
4.226081e-39 1.8807275e-38 7.94209e-38 -1.5702816e-38 -1.202695e-39 8.951688e-39 -1.8253157e-38 -2.3827197e-38
1.824216e-38 -9.421117e-39 -1.2245914e-38 -3.4178325e-38 -3.526777e-39 1.6537889e-38 -9.29168e-39 -8.169413e-39
-6.4588234e-38 7.16288e-39 1.2567786e-38 2.3524973e-38 -2.3910157e-38 6.7243033e-38 1.4243022e-38 2.4063764e-38
2.4274424e-38 -4.606068e-39 3.366319e-38 1.4306117e-38 -1.436536e-39 4.962074e-38 9.538381e-39 1.745e-39
1.408229e-39 1.3727781e-38 -1.8871393e-38 -2.662799e-38 -7.036615e-39 1.4355042e-38 1.5510678e-38 1.348708e-39
7.371043e-39 -7.4076594e-38 -4.3785824e-38 -1.0723718e-37 -1.4222339e-38 8.739607e-39 1.018402e-38 6.602178e-39
-9.475076e-39 -4.804888e-38 -4.409653e-38 5.4893e-40 3.175157e-39 -5.500836e-39 1.2172676e-38 7.611394e-39
2.214282e-38 -9.75014e-39 -6.67965e-40 1.735931e-39 -1.8287102e-38 -1.7075999e-38 -1.9174867e-38 1.848363e-39
-2.7360072e-38 -1.8501722e-38 3.060446e-38 3.399396e-39 8.87648e-39 -2.631201e-39 1.8106626e-38 2.0741179e-38
6.589023e-39 1.0661232e-37 3.012335e-39 -4.0325272e-38 -1.367449e-38 -4.2249194e-38 6.178619e-39 4.03097e-39
-1.5079504e-38 9.322525e-39 1.9915254e-38 -1.0910947e-38 -5.3811167e-38 -1.1160075e-38 3.455129e-38 3.9863298e-38
-1.363149e-38 -3.9510344e-38 -5.570178e-39 2.2888526e-38 1.8724125e-38 2.2647267e-38 1.2708152e-38 5.767952e-39
-1.83785e-38 3.900088e-39 -1.1116534e-38 7.277383e-39 -4.9161597e-38 -7.201292e-39 2.5561623e-38 1.327299e-39
-5.172697e-38 4.248684e-39 1.0465418e-38 -1.298724e-38 3.64496e-39 3.061219e-38 2.068645e-38 -1.9676562e-38
-2.4398338e-38 1.726282e-39 -1.6618699e-38 -4.122071e-39 -3.1530353e-38 -4.803023e-39 -1.2011303e-38 -9.606086e-39
00000000: 70a4 1900 06c1 2000 1a74 9a80 bc5a 0c01
00000010: b8f0 5e80 389b 9100 0c2c ae00 fa48 8380
00000020: dee1 af81 1a0b 2201 3c3f 7381 a04c 9980
00000030: d8d2 9080 9e86 e280 2606 4180 748d 6680
00000040: 70f7 d400 b079 1a01 9a17 d000 6ae8 b880
00000050: 90a9 8780 b046 3600 804e 3300 c4f3 5380
00000060: f4c2 1880 9040 3880 f445 3680 58e1 2a81
00000070: 9817 5a00 180b ee80 6481 f080 c82f 5b00
00000080: 284b 6500 79d6 1002 f8b6 b080 908f ca00
00000090: 3294 4280 b02a fe80 722e 2f80 0c67 3a80
000000a0: 58e5 0d80 fceb a780 7457 eb80 4c63 df80
000000b0: a8e9 8d80 6491 aa81 06b1 2780 8cc6 dc80
000000c0: 0083 4680 a03f bf00 442a d700 e0a1 6100
000000d0: 7c48 2601 546a 7d80 be4f 7500 fc1e f000
000000e0: ea02 1500 a8b4 8880 30a5 7200 9037 a080
000000f0: 4ecd a180 a06b 2180 0072 2b01 3622 1980
00000100: aa1d 1e00 bafb 3880 3c24 9500 b047 e401
00000110: 40f9 ac00 2e27 3e81 5aa5 1781 4205 b800
00000120: c472 b581 b6ac 9581 4079 4a80 667e f800
00000130: 447a 9480 0e30 b481 34a2 c481 f694 f980
00000140: 6064 1e01 a028 8381 1ee9 c700 a415 5100
00000150: ec40 9c01 227f 4e80 7c7c bf00 b031 8180
00000160: 62e0 3b01 4e76 2101 d8d4 e000 5c60 a381
00000170: 4e09 af00 3c0b 2201 7c70 3e80 8c95 1a80
00000180: 4c2f 9200 1477 2780 e07c a400 2e67 1581
00000190: 1ade be80 70c8 4581 081d db00 740c 5180
000001a0: 6879 1581 56b0 3400 846a 8200 60c6 7f00
000001b0: 9016 6d00 7cb5 b880 9c52 4601 606b 6b80
000001c0: 644c e400 3c89 ac80 84b6 3280 a692 3e80
000001d0: f236 1f00 7ef7 d000 58a4 2e00 0465 a300
000001e0: b249 0380 a892 e180 cc46 d700 c417 e500
000001f0: f8fe 4d80 b0e8 c600 0668 8c00 c0d7 a980
00000200: 9c46 f280 7c88 8980 3e37 8581 d87e 3980
00000210: da9e 6500 b412 7a80 a816 2280 b450 e880
00000220: 9804 2e00 08cb cc00 4a34 d801 10fd aa80
00000230: a018 0d80 aa79 6100 60c2 c680 44ba 0181
00000240: b8a3 c600 3e96 6680 a058 8580 a215 3a81
00000250: 3867 2680 e814 b400 6c2d 6580 00f5 5880
00000260: 6ed3 af81 32ff 4d00 e0d9 8800 0715 0001
00000270: e52d 0281 8e0d b701 c017 9b00 fe03 0301
00000280: 9c29 0401 d827 3280 a447 3701 a2c7 9b00
00000290: 7aa4 0f80 9c14 8701 20dd 6700 5a00 1300
000002a0: 9255 0f00 787b 9500 c47d cd80 00fa 1081
000002b0: 389f 4c80 0450 9c00 76e5 a800 a6af 0e00
000002c0: 7843 5000 daa7 c981 8864 6e81 b4f6 1182
000002d0: 18de 9a80 782a 5f00 e8e4 6e00 30e4 4700
000002e0: a82c 6780 2fcd 8281 9815 7081 32fa 0500
000002f0: 0c93 2200 18e6 3b80 788c 8400 78e1 5200
00000300: 2c1d f100 6c2b 6a80 0446 0780 12e7 1200
00000310: 0021 c780 f0f0 b980 bacb d080 7c20 1400
00000320: 60f6 1481 4677 c980 64a0 2601 2204 2500
00000330: 04a8 6000 b8a6 1c80 e829 c500 f8d9 e100
00000340: 84bf 4700 f91c 1102 2acd 2000 3a8d 5b81
00000350: eae6 9480 c806 6681 7a47 4300 b4e4 2b00
00000360: 8633 a480 6883 6500 a0db d800 48cf 7680
00000370: e97c 9281 c085 7980 781d 3c01 5409 5901
00000380: 0c6f 9480 621d 5781 64a7 3c80 e63b f900
00000390: 3ee3 cb00 5e9b f600 2861 8a00 b4ce 3e00
000003a0: c81f c880 dc77 2a00 600c 7980 623e 4f00
000003b0: a2d4 8581 466a 4e80 b42b 0b01 f873 0e00
000003c0: 70d0 8c81 9a43 2e00 54f5 7100 246b 8d80
000003d0: aab0 2700 2aab 2601 6841 e100 4042 d680
000003e0: 52d6 0481 2ccc 1200 2cf6 b480 a8e2 2c80
000003f0: e6aa 2b81 e04c 3480 a0ca 8280 dc99 6880

value.0.bias f4 [64]
-8.7424747e-38 2.0504704e-38 -2.5357e-40 -4.385986e-39 3.1063138e-38 1.1628042e-38 -2.115187e-39 1.84051e-39
-5.613864e-38 2.841603e-39 -2.783768e-38 4.889343e-39 -5.841613e-38 1.653218e-39 -1.2242483e-38 2.1176005e-38
5.856646e-39 1.5829205e-38 -4.2088773e-38 6.575719e-39 -6.968268e-39 1.170202e-39 4.6912137e-38 -2.9795109e-38
1.0391177e-38 3.414712e-38 4.997709e-39 5.889534e-39 2.138889e-39 -7.025668e-39 4.1638508e-38 -1.6345987e-38
2.3584638e-38 -1.5097898e-38 -7.537405e-39 7.7453824e-38 3.533272e-38 -9.295858e-39 4.195947e-39 -5.045367e-38
9.114286e-38 7.02421e-39 1.3515597e-38 -8.9205e-40 -8.985378e-39 4.73145e-39 1.9317692e-38 -6.184734e-39
9.35123e-40 7.719781e-39 -2.1744632e-38 -1.4252209e-38 -1.785155e-38 -8.146076e-39 3.138115e-39 -1.521362e-39
-1.545444e-39 -2.022595e-39 1.7841298e-38 7.560061e-39 -2.2653587e-38 -3.6406e-41 -2.3092905e-38 2.811534e-39
00000000: 28fe ed81 c646 df00 dac2 0280 58c2 2f80
00000010: b21f 2901 409e 7e00 4808 1780 980a 1400
00000020: ecd2 9881 3cf1 1e00 1090 1781 803d 3500
00000030: 1a06 9f81 8000 1200 104f 8580 1696 e600
00000040: f2c5 3f00 625d ac00 3027 6581 6e9a 4700
00000050: b2e0 4b80 0cbe 0c00 fa69 7f01 5238 2281
00000060: 6026 7100 24ea 3901 946b 3600 a021 4000
00000070: 5a4a 1700 b480 4c80 9cb3 6201 f6fd b180
00000080: 3068 0001 cc66 a480 3813 5280 70d9 d201
00000090: a05e 4001 1239 6580 98b0 2d00 1459 8981
000000a0: 4e1d f801 a47c 4c00 fc2b 9300 acb6 0980
000000b0: 94d7 6180 5c85 3300 de59 d200 8658 4380
000000c0: be2e 0a00 9c0f 5400 30c7 ec80 5c31 9b80
000000d0: dc62 c280 f2b3 5880 ca2b 2200 f090 1080
000000e0: 12d4 1080 2c06 1680 4846 c200 6052 5200
000000f0: fcac f680 7c65 0080 a075 fb80 6a9d 1e00

value.2.weight f4 [1, 64]
-6.580938e-39 -5.8098804e-38 2.6406494e-38 3.357155e-39 1.744863e-39 6.9621653e-38 5.5002826e-38 -1.4722943e-38
-9.43947e-40 -3.719632e-39 1.3773102e-38 -5.011183e-39 1.4407624e-38 -1.0040819e-38 4.047286e-39 5.236324e-39
2.4418937e-38 5.67309e-39 4.340965e-39 1.3846187e-38 1.9239099e-38 -4.70755e-40 1.8771665e-38 5.692355e-39
-7.886844e-38 2.2290612e-38 -9.586336e-39 -8.315989e-39 1.9932383e-38 -5.08752e-39 -3.960411e-39 -2.269168e-38
1.4259979e-38 5.83958e-39 3.601823e-39 2.4378984e-38 6.337557e-39 -4.289799e-39 -4.89439e-39 1.4283315e-38
4.86092e-39 -1.6593148e-38 4.383985e-39 -1.0831432e-38 -1.0333681e-38 4.209543e-39 -1.2010664e-38 1.1459768e-38
3.3019536e-38 5.502483e-39 2.3825885e-38 -1.0083993e-38 4.269883e-39 5.374068e-38 -6.257839e-39 -1.036349e-38
3.267402e-39 2.12837e-38 1.6133724e-38 -1.5616014e-38 -1.8278111e-38 -1.5765132e-38 7.631684e-39 4.6269609e-38
00000000: faa8 4780 f528 9e81 48c5 0f01 628e 2400
00000010: f8ff 1200 3687 bd01 60bb 9501 9351 a080
00000020: 5747 0a80 d280 2880 cef9 9500 2491 3680
00000030: 98e2 9c00 b855 6d80 3012 2c00 be04 3900
00000040: 08f3 0401 44c6 3d00 d844 2f00 89c5 9600
00000050: c87e d100 4620 0580 c467 cc00 f8fb 3d00
00000060: 48b3 d681 28b9 f200 ce62 6880 988d 5a80
00000070: 600b d900 f065 3780 0420 2b80 2c17 f780
00000080: 0547 9b00 6096 3f00 6b38 2700 58bb 0401
00000090: 8802 4500 37b6 2e80 914b 3580 1288 9b00
000000a0: 44ee 3400 f2ae b480 c4bc 2f00 a0f1 7580
000000b0: 1986 7080 7ed6 2d00 d8c8 8280 2cc9 7c00
000000c0: 84c6 3301 afea 3b00 70b8 0101 12ce 6d80
000000d0: b27e 2e00 ca4b 9201 4f24 4480 32d9 7080
000000e0: 3094 2300 4cc2 e700 42ae af00 180b aa80
000000f0: f007 c780 c6aa ab80 081a 5300 6cea 7b01
