pre-trained/dqn_dnn10000.pth (torch_old, 650004 bytes, 44 tensors)

feature.0.weight f4 [128, 36]
-0.0050148 -0.010811856 0.028551849 0.08221062 0.006019982 0.066252895 -0.0019978816 -0.05240656
0.06783618 0.020426624 0.1217715 0.044557348 -0.16064368 -0.030773541 0.04460791 0.32475385
0.12083097 0.045001667 0.0074495617 -0.09197092 0.28657252 -2.1905665 0.09588013 0.054587655
-0.039097525 -0.009991947 0.07295538 -0.014105556 -0.076203264 -0.09257714 -0.038443703 0.1036561
0.03605615 -0.1672151 -0.11276558 0.10696232 0.036296796 0.13919622 0.077806555 -0.04040041
-0.005469721 0.0016497315 0.15847787 0.10519723 0.046031892 0.06324471 -0.029813763 0.009109559
0.000118544005 0.020439824 0.030111497 0.048946455 0.023328757 0.01186269 -0.17313148 0.019390628
-0.0015465497 0.14478736 0.14277814 0.10650142 -1.129939 -0.42168215 0.14457665 0.039927192
0.09865561 -0.09303401 -1.467385 -0.0791297 0.14602855 0.014161825 -0.14925799 0.040544935
0.051863253 -0.007272206 -0.014345252 -0.07871574 0.019652367 0.03658943 -0.08824915 0.027240854
0.08197136 -0.041939117 0.016694874 0.088960275 -0.6489276 -1.696758 0.04217625 -0.12102327
0.055873986 0.035563026 0.5334656 0.5048998 -0.07159147 -0.060552184 -0.008217502 -0.008166096
0.2381955 0.18517381 0.120846435 -0.041509908 -0.035341606 -0.0309352 -0.08969041 -0.043696098
0.0017780374 -0.02489224 -0.058899395 0.2672116 -0.03578424 0.04369184 -0.009413971 -0.094414875
0.010648084 -0.0564891 -0.09275569 -0.14411575 0.015015237 0.024525275 0.007585727 0.114183374
-0.019407328 -0.07216343 0.1372497 0.10535332 0.03591068 0.079139516 -0.03846434 0.18272607
1.4686846 -0.35161614 -0.14579962 0.06823823 -0.012474515 0.12562788 -0.12356033 0.052455857
-0.056486852 0.024278007 0.06448116 -0.1287921 -0.10083426 -0.19898559 -0.022095177 0.20394506
-0.22969234 -0.26851392 -0.32613796 -0.17743167 -0.2500418 0.16430886 -0.20993368 -0.18793115
-0.3185999 -0.29458848 0.1182671 -0.27699873 -0.3142667 -0.47751346 -0.8347932 -0.68970346
0.26128188 -0.42410702 -0.15440626 -0.25105697 -0.21478087 -0.5840749 -0.31258008 -0.066869
0.021484092 -0.0010118561 0.07912236 -0.15446198 -0.12692274 0.51511 -0.32573965 -0.059049804
-0.10724635 -0.15133682 0.59668154 0.042297807 -0.07858753 0.019247651 0.066521615 0.06602299
0.042581316 -0.09451573 -0.031624153 0.032646228 0.17652321 0.06848361 0.03647822 -0.034808543
0.084720254 0.19091433 0.0947705 0.01767272 -0.0021083227 0.05513969 -0.058475398 -0.06689324
0.098565064 -0.031723026 -0.052907277 -0.008884923 -0.16181365 -0.21260293 -0.15632953 0.014460139
0.025149457 -0.05282422 1.5978801 -0.7354728 0.1450969 0.018077986 -0.047553916 0.11548296
-0.081509925 -0.035245653 0.06566871 0.08296293 0.10932917 -0.1356082 0.013833145 -0.061023083
0.04466498 -0.037480332 0.004402713 0.23853146 0.033202097 -0.011413482 0.091625854 0.18514876
-1.296638 -1.1407527 -0.010148503 0.053798184 0.09278666 0.13101193 0.2592745 0.583506
-0.035918206 0.0094456235 0.014193548 -0.05732059 0.054207977 -0.08701635 -0.011374915 0.011131071
0.0017324483 -0.09570921 -0.27380893 -0.28211606 -0.359076 -0.049912717 0.049356323 0.10044159
00000000: 3153 a4bb 3624 31bc 91e5 e93c 0b5e a83d
00000010: 4543 c53b 99af 873d e4ee 02bb 43a8 56bd
00000020: b2ed 8a3d bc55 a73c 5663 f93d c481 363d
00000030: c77f 24be cb18 fcbc c9b6 363d 2346 a63e
00000040: 3a76 f73d ab53 383d 741b f43b 405b bcbd
00000050: a2b9 923e 3e32 0cc0 cd5c c43d 4e97 5f3d
00000060: ba24 20bd 43b5 23bc a169 953d fd1a 67bc
00000070: 7510 9cbd 1599 bdbd 2577 1dbd a649 d43d
00000080: 9daf 133d 6f3a 2bbe a4f1 e6bd 100f db3d
00000090: f3ab 143d 7489 0e3e 0b59 9f3d e67a 25bd
000000a0: 583b b3bb ce3b d83a 0648 223e a571 d73d
000000b0: f08b 3c3d 7186 813d fe3b f4bc 4240 153c
000000c0: d49a f838 6b71 a73c 63ac f63c 147c 483d
000000d0: f31b bf3c ba5b 423c 6149 31be 18d9 9e3c
000000e0: 99b5 caba 2343 143e 6f34 123e 6b1d da3d
000000f0: d7a1 90bf b9e6 d7be e70b 143e b28a 233d
00000100: f40b ca3d 9d88 bebd 46d3 bbbf c10e a2bd
00000110: 8288 153e 0007 683c 16d7 18be 7212 263d
00000120: 906e 543d af4b eebb 5908 6bbc b835 a1bd
00000130: 00fe a03c ccde 153d f8bb b4bd 3628 df3c
00000140: 9ae0 a73d 5ac8 2bbd b0c3 883c ce30 b63d
00000150: 1f20 26bf 5e2f d9bf 01c1 2c3d 0cdb f7bd
00000160: 1fdc 643d 89aa 113d 3491 083f 1d41 013f
00000170: 8c9e 92bd 9105 78bd b4a2 06bc 17cb 05bc
00000180: 85e9 733e 349e 3d3e 567e f73d 4b06 2abd
00000190: 5cc2 10bd d16b fdbc 9baf b7bd aefa 32bd
000001a0: 090d e93a d0ea cbbc 7e40 71bd f5cf 883e
000001b0: 7f92 12bd 37f6 323d 0e3d 1abc 965c c1bd
000001c0: 4d75 2e3c 1d61 67bd b2f6 bdbd 1493 13be
000001d0: 7802 763c 3be9 c83c b191 f83b f9d8 e93d
000001e0: 1efc 9ebc 6cca 93bd 2f8b 0c3e 7bc3 d73d
000001f0: 1417 133d e613 a23d c98c 1dbd 8b1c 3b3e
00000200: dbfd bb3f 0807 b4be 7f4c 15be 7cc0 8b3d
00000210: e861 4cbc 98a4 003e 330d fdbd f4db 563d
00000220: c25e 67bd ace2 c63c b30e 843d 14e2 03be
00000230: 3182 cebd e1c2 4bbe f200 b5bc f9d6 503e
00000240: 7834 6bbe a87a 89be 8efb a6be a6b0 35be
00000250: 7b05 80be 9540 283e dbf8 56be 0671 40be
00000260: 871f a3be 4dd4 96be 0536 f23d c7d2 8dbe
00000270: 91e7 a0be a57c f4be 02b5 55bf 6890 30bf
00000280: bdc6 853e 8e24 d9be ad1c 1ebe 8a8a 80be
00000290: 84ef 5bbe ef85 15bf 7f0a a0be 9df2 88bd
000002a0: 68ff af3c 42a0 84ba e70a a23d 482b 1ebe
000002b0: 09f8 01be 40de 033f 59c7 a6be 35de 71bd
000002c0: f9a3 dbbd 0af8 1abe 1fc0 183f 7740 2d3d
000002d0: 80f2 a0bd 40ad 9d3c 7c3c 883d 1037 873d
000002e0: bf69 2e3d 7791 c1bd 5488 01bd 0db8 053d
000002f0: 80c2 343e 2341 8c3d 306a 153d 6793 0ebd
00000300: d081 ad3d 0c7f 433e 0917 c23d 61c6 903c
00000310: c92b 0abb 28da 613d e683 6fbd 53ff 88bd
00000320: 7bdc c93d 01f0 01bd 4db5 58bd 1192 11bc
00000330: 7ab2 25be 95b4 59be d914 20be 38ea 6c3c
00000340: 3c06 ce3c 365e 58bd 5687 cc3f f247 3cbf
00000350: 4894 143e 4918 943c e5c7 42bd 5582 ec3d
00000360: adee a6bd bf5d 10bd 517d 863d 78e8 a93d
00000370: f9e7 df3d e0dc 0abe 6aa4 623c 57f3 79bd
00000380: a0f2 363d fa84 19bd a244 903b 9741 743e
00000390: ecfe 073d 9dff 3abc 56a6 bb3d a397 3d3e
000003a0: 3cf8 a5bf 2f04 92bf e845 26bc 7c5b 5c3d
000003b0: ef06 be3d fe27 063e a1bf 843e a660 153f
000003c0: f81e 13bd d1c1 1a3c 0e8c 683c ffc8 6abd
000003d0: 2f09 5e3d a135 b2bd da5d 3abc 185f 363c
000003e0: 5213 e33a 3103 c4bd af30 8cbe 8471 90be
000003f0: cfd8 b7be 4771 4cbd db29 4a3d 52b4 cd3d

feature.0.bias f4 [128]
-0.060970437 -0.018756783 -0.12823312 -0.013528949 -0.21176174 -0.058685094 -0.13541357 -0.08392135
-0.0241614 -0.11950787 -0.13953777 -0.04505671 -0.0810781 -0.052882895 0.04713824 -0.10542261
0.04642375 -0.073914066 -0.113157615 -0.096554115 -0.058675755 -0.26229754 -0.041898362 -0.24292263
-0.06965639 -0.20303477 -0.12498144 -0.024402581 -0.06976048 -0.012993889 -0.16632254 -1.5352604e-23
-0.12764284 0.016552856 -0.18592763 -0.11737367 -0.12704332 -0.15943268 -0.17282133 -0.019082814
0.015621045 0.00321698 -0.053880863 -0.104888275 0.0005795943 -0.034208048 -0.024587562 -0.07792648
-0.13882937 0.05896493 -0.005364205 -0.083762504 -0.14442937 0.006186174 -0.094850585 -0.064194754
-0.15177098 0.0064352336 0.010553239 -0.026509827 -0.15718822 -0.14374295 -5.602838e-10 -0.23782486
-0.020298567 -0.123487726 -0.039944977 -0.15984815 -0.03238543 -0.088823006 0.04808872 -0.10992106
0.04321807 0.35770488 0.03613491 -0.14419831 -0.11018359 -0.11739786 0.0036075301 -0.1139463
0.08609321 -0.111570805 0.14584015 -0.21265925 -0.0446246 0.09105929 -0.0023020406 -0.0858076
-0.031065816 -0.06690037 0.00027223153 -0.15276402 -0.0011393261 -0.020992104 -0.028160688 -0.24843875
-0.21181668 0.31672376 -0.110556625 0.014323715 0.06573273 -0.054109998 0.0537311 0.14014435
-0.03734672 -0.0052598966 -0.14643255 0.06318425 -0.09794922 0.051248416 -0.068042845 -0.24158542
-0.026847495 -0.021033514 0.040007316 -0.005989952 -0.12455674 -0.045903407 -0.1695079 -0.06277261
-0.12500684 0.0008587473 -0.006787008 -0.0030291302 0.07673536 -0.06217666 0.019662546 -0.1275522
00000000: 23bc 79bd d3a7 99bc 8b4f 03be 86a8 5dbc
00000010: 12d8 58be c85f 70bd dba9 0abe f5de abbd
00000020: 21ee c5bc 8bc0 f4bd fde2 0ebe 628d 38bd
00000030: 460c a6bd bc9b 58bd 0714 413d cfe7 d7bd
00000040: d526 3e3d 4260 97bd 2ebf e7bd 2abe c5bd
00000050: fd55 70bd dd4b 86be 9e9d 2bbd b6c0 78be
00000060: 02a8 8ebd 59e8 4fbe 45f6 ffbd ece7 c7bc
00000070: 95de 8ebd 52e4 54bc 7550 2abe 357b 9499
00000080: ceb4 02be db99 873c d063 3ebe 9b61 f0bd
00000090: a517 02be 5242 23be 13f8 30be 9053 9cbc
000000a0: 69ef 7f3c f8d3 523b 2eb2 5cbd aacf d6bd
000000b0: eaef 173a bd1d 0cbd db6b c9bc eb97 9fbd
000000c0: 4929 0ebe 3685 713d 37c6 afbb ad8b abbd
000000d0: 4be5 13be 64b5 ca3b 0641 c2bd 8a78 83bd
000000e0: da69 1bbe a7de d23b 7ee7 2c3c 232b d9bc
000000f0: f3f5 20be 5a31 13be 7802 1ab0 5c88 73be
00000100: 2e49 a6bc 22e7 fcbd 589d 23bd 3caf 23be
00000110: 96a6 04bd d6e8 b5bd adf8 443d 4b1e e1bd
00000120: 6e05 313d 1825 b73e 3302 143d b9a8 13be
00000130: efa7 e1bd 4a6e f0bd 506c 6c3b ae5c e9bd
00000140: a351 b03d 3c7f e4bd 1f57 153e 59c3 59be
00000150: 49c8 36bd 4b7d ba3d d5dd 16bb e5bb afbd
00000160: bd7d febc 1003 89bd 4cba 8e39 2c6e 1cbe
00000170: 7155 95ba a2f7 abbc 3eb1 e6bc ba66 7ebe
00000180: 79e6 58be 9e29 a23e 836b e2bd 04ae 6a3c
00000190: e29e 863d 72a2 5dbd 2415 5c3d 0082 0f3e
000001a0: e0f8 18bd 365b acbb 6af2 15be be66 813d
000001b0: 9a99 c8bd dce9 513d 0c5a 8bbd 2b62 77be
000001c0: 47ef dbbc 7a4e acbc b6de 233d 5c47 c4bb
000001d0: 9b17 ffbd 3605 3cbd 7b93 2dbe ed8e 80bd
000001e0: cb01 00be 8e1d 613a 8d65 debb 5f84 46bb
000001f0: 6e27 9d3d f4ac 7ebd 5913 a13c 0b9d 02be

feature.2.weight f4 [128, 128]
-0.20583802 0.0516671 0.30684903 0.13201804 -0.29481968 0.10219872 -0.05422189 0.06640823
-0.12448979 -0.007639038 0.09441459 0.12159751 -0.10495591 -0.07313906 0.60918146 -0.15216587
-0.1713457 0.115783215 0.25462234 0.39572197 0.18639754 0.32593447 0.04389122 0.5418307
0.0988344 -0.05642605 -0.013650902 0.40365398 -0.10145878 0.079134405 0.42475858 -1.4239031e-38
0.17244643 0.014486558 0.5628376 0.10883564 -0.14836855 -0.23960267 -0.010476208 0.17076081
0.106699035 0.21035545 -0.14589477 -0.012567957 -0.3856776 0.07104714 0.10190571 0.058169093
0.05801861 0.108381145 -0.21834958 -0.22291325 -0.025106458 0.3219686 0.1724306 0.09673941
-0.10256015 -0.14447606 0.018104522 -0.05709362 0.14677441 -0.12524033 -5.8891e-40 0.22609481
0.32928213 -0.14710759 -0.033025328 0.14319123 0.21446502 0.21644887 -0.23037894 -0.0013077729
0.1011339 -0.30836466 0.30808985 0.077171564 0.20007335 0.19893749 0.026980488 0.27495325
-0.08625412 0.22864166 0.41475743 0.19459037 -0.09074222 0.13335438 0.18927822 0.1141313
0.003929916 0.19241685 -0.35323283 -0.17394842 2.8344148e-38 0.13681033 -0.11910882 0.057974093
0.29553512 -0.25586313 0.10395693 -0.3684893 -0.18169406 -0.027760344 0.012690201 -0.1616847
-0.08235208 -0.013745442 0.044424355 0.032897823 0.21049428 -0.04465868 -0.0384006 -0.3085801
0.19530313 0.04460491 0.091788135 -0.2572463 0.014720791 0.124275 0.03778051 0.28320882
-0.21223603 -0.13811445 0.24386503 0.12519036 -0.057320505 0.23125261 -0.10272107 0.2111877
0.16485703 0.025796626 0.16954525 0.09071379 -0.08301086 0.28060117 -0.5509876 0.19989607
0.16810754 0.005553998 0.012894193 0.039655626 -0.3740957 0.09645194 0.09061309 0.0520564
-0.009899066 0.031227889 -0.2624943 0.08692642 0.012121635 0.031814694 0.05650948 -0.06637383
0.7831091 0.022772234 0.18700741 0.102826335 -0.44070873 -0.094981454 0.41163564 1.3539067e-38
0.6026505 0.05662261 -0.0060563567 -0.28896955 0.11829798 -0.96076995 -0.0060246205 0.23208086
-0.25088364 0.0049399096 0.111059405 0.05961408 -0.26564905 0.16886853 0.09901109 0.18909363
0.06772599 0.004199131 -0.04510189 -0.12259032 0.22739461 -0.29756027 0.10672751 -0.49713078
0.07982397 0.80084217 -0.19231656 0.15363754 -0.029024398 -0.022807304 -1.7348528e-38 -0.22703972
0.1875801 0.03230379 -0.0004752824 0.13362874 -0.53339314 -0.3706826 0.24878149 0.20388491
0.068118155 -0.12337239 0.232578 0.002404075 0.056546897 0.1281537 -0.13970223 0.33895212
0.06598432 0.09433297 0.10379745 0.021887267 0.14377189 0.50351167 0.18615535 0.0132803
-0.19989131 0.10140574 0.22872123 0.11168919 -1.909604e-39 0.22428796 -0.10966142 0.12466821
0.049125254 0.051596574 0.047388434 0.121877536 -0.08826601 0.056632604 -0.47446516 -0.11925978
0.14238873 -0.086157635 0.33320203 -0.054653496 0.30210274 -0.07721045 0.033388756 0.0017279467
0.3086314 0.026483519 0.22645152 -0.6312595 0.046041183 0.037495367 0.8649766 -0.04266898
0.23854607 0.13688128 0.17987801 0.03042974 0.015966319 0.0031678646 -1.1332147 0.03424723
00000000: 34c7 52be e2a0 533d 511b 9d3e bd2f 073e
00000010: 9bf2 96be 904d d13d c617 5ebd 0a01 883d
00000020: 81f4 febd e550 fabb 705c c13d 1e08 f93d
00000030: 20f3 d6bd eec9 95bd 51f3 1b3f 5fd1 1bbe
00000040: 3f75 2fbe c01f ed3d dc5d 823e 129c ca3e
00000050: ffde 3e3e e2e0 a63e 48c7 333d 6bb5 0a3f
00000060: b169 ca3d 001f 67bd 08a8 5fbc bcab ce3e
00000070: 9fc9 cfbd 3811 a23d f579 d93e a00c 9b80
00000080: cc95 303e 0759 6d3c 2016 103f 38e5 de3d
00000090: eded 17be 675a 75be 67a4 2bbc ecdb 2e3e
000000a0: 0685 da3d 6b67 573e 7065 15be d5e9 4dbc
000000b0: 8977 c5be 2a81 913d f1b3 d03d b742 6e3d
000000c0: eca4 6d3d eff6 dd3d 0897 5fbe 5f43 64be
000000d0: 0fac cdbc 11d9 a43e a691 303e 501f c63d
000000e0: 0e0b d2bd 88f1 13be ef4f 943c 00db 69bd
000000f0: 084c 163e 003f 00be a469 0680 6685 673e
00000100: ab97 a83e 5fa3 16be 9145 07bd b9a0 123e
00000110: b89c 5b3e c6a4 5d3e 75e8 6bbe 9469 abba
00000120: 4a1f cf3d f9e1 9dbe f4bd 9d3e 200c 9e3d
00000130: 07e0 4c3e 45b6 4b3e 2f06 dd3c acc6 8c3e
00000140: 00a6 b0bd 0a21 6a3e 165b d43e b342 473e
00000150: 0fd7 b9bd 0d8e 083e 26d2 413e acbd e93d
00000160: 86c6 803b ec08 453e efda b4be 891f 32be
00000170: fa51 1a01 0218 0c3e 53ef f3bd 3e76 6d3d
00000180: 6150 973e 7e00 83be 5fe7 d43d a1aa bcbe
00000190: 020e 3abe a969 e3bc 90ea 4f3c ad90 25be
000001a0: 35a8 a8bd 9034 61bc 50f6 353d debf 063d
000001b0: d08b 573e 05ec 36bd f349 1dbd 36fe 9dbe
000001c0: 8bfd 473e a3b3 363d 6bfb bb3d c9b5 83be
000001d0: 792f 713c e483 fe3d bcbf 1a3d bf00 913e
000001e0: 6754 59be e06d 0dbe c1b7 793e e731 003e
000001f0: e8c8 6abd 7ccd 6c3e 6d5f d2bd 9741 583e
00000200: 48d0 283e 7253 d33c 459d 2d3e 27c8 b93d
00000210: 9901 aabd f5aa 8f3e 860d 0dbf 8eb1 4c3e
00000220: 6224 2c3e 50fe b53b 2a42 533c f06d 223d
00000230: 7989 bfbe 9888 c53d 5b93 b93d 1739 553d
00000240: b12f 22bc a1d1 ff3c a765 86be 7b06 b23d
00000250: d299 463c 2050 023d 7c76 673d 01ef 87bd
00000260: d779 483f d68c ba3c df7e 3f3e 9d96 d23d
00000270: 93a4 e1be a385 c2bd e8c1 d23e 696d 9300
00000280: 4e47 1a3f 1ced 673d 6774 c6bb d1f3 93be
00000290: 3646 f23d 05f5 75bf 2e6a c5bb 9ba6 6d3e
000002a0: d273 80be f7de a13b 1d73 e33d e52d 743d
000002b0: 2703 88be dfeb 2c3e 54c6 ca3d c3a1 413e
000002c0: edb3 8a3d dd98 893b c2bc 38bd a210 fbbd
000002d0: 22da 683e d259 98be f493 da3d ed87 febe
000002e0: c07a a33d fe03 4d3f a2ee 44be 2953 1d3e
000002f0: 93c4 edbc 62d6 babc a3e8 bc80 1a7d 68be
00000300: ff14 403e fb50 043d 532f f9b9 f9d5 083e
00000310: 748c 08bf 1cca bdbe 93c0 7e3e 35c7 503e
00000320: 8881 8b3d aaaa fcbd ed28 6e3e b08d 1d3b
00000330: b89d 673d b93a 033e 1a0e 0fbe 228b ad3e
00000340: ca22 873d a531 c13d c293 d43d ed4c b33c
00000350: f038 133e 24e6 003f 829f 3e3e 9e95 593c
00000360: 4fb0 4cbe d0ad cf3d e635 6a3e 4dbd e43d
00000370: 33cb 1480 beab 653e 2b96 e0bd 0c52 ff3d
00000380: 9037 493d ee56 533d 601a 423d ee9a f93d
00000390: cfc4 b4bd 97f7 673d 19ed f2be 793e f4bd
000003a0: 5ace 113e 6a73 b0bd 7599 aa3e 58dc 5fbd
000003b0: 36ad 9a3e 8320 9ebd a6c2 083d 457c e23a
000003c0: ef04 9e3e f7f3 d83c e8e2 673e 399a 21bf
000003d0: ae95 3c3d be94 193d 1b6f 5d3f abc5 2ebd
000003e0: 6c45 743e 9b2a 0c3e f131 383e ca47 f93c
000003f0: cccb 823c f39b 4f3b 2e0d 91bf d346 0c3d

feature.2.bias f4 [128]
-0.07546061 -0.28636873 -0.0044552977 -0.06136818 -0.031832777 -0.11427185 0.17247015 -0.106044285
0.24804375 0.23433132 -0.050480176 -0.0020699757 -0.18566445 -0.040228933 -0.16378446 -0.25208858
0.819696 -7.507149e-18 -9.8594536e-32 -0.06150173 -0.4173451 -0.05057361 -1.0599638e-32 -0.25905585
-0.4902906 0.47118616 -0.06018703 -0.05688455 0.060004767 0.14662194 -0.17620341 0.5615938
-0.17448135 -0.39677057 -0.18315639 -0.18255426 -0.22053714 0.10078287 -0.23230162 -0.023299804
-0.104245245 -0.14784174 -0.100553915 -0.24003488 0.081027165 -0.06686111 -0.1950039 -0.011651362
0.60433704 -0.012403852 0.06320929 -0.10129578 -0.0024732875 -9.986155e-06 -0.27859282 -0.0016852601
-3.0520246e-21 0.065997005 0.092394985 0.03618392 -0.04635908 -0.00076312403 0.0563127 -0.14172517
-0.02758619 -0.15851471 -0.16712609 -0.11936309 0.27942717 0.6957689 0.16066329 -0.016819507
-0.27905715 0.019952074 -0.21156316 0.20885426 -0.13495325 -0.22220849 -0.033043694 -1.3451071e-23
-2.7695076e-20 -0.14091502 -0.26354662 -8.101423e-11 -0.20536588 -0.12861241 -1.0585296e-16 0.087265685
-0.0057284334 -0.09433369 0.19921494 -0.41127905 0.15723525 -0.20279138 -0.033624187 -0.034220174
-0.009746436 -0.14481261 -0.10053352 0.13621724 -2.7448894e-07 0.086371265 -1.0780064e-05 -0.16167617
0.1208617 -0.06838814 -3.4875503e-17 -0.19050203 -3.5709844e-13 -0.06487779 0.20658253 -2.1626245e-29
-0.020261105 -0.15194063 0.06317963 -0.12981078 0.23930812 -0.062265802 -0.07146343 -0.35359606
0.2863465 -0.14642034 -0.04237173 0.43686897 -0.015709095 -7.0522184e-09 -0.37614134 0.09887787
00000000: 188b 9abd ec9e 92be bffd 91bb 335d 7bbd
00000010: 1663 02bd 5c07 eabd 049c 303e bf2d d9bd
00000020: 2eff 7d3e 8df4 6f3e 4dc4 4ebd 6ea8 07bb
00000030: d21e 3ebe 18c7 24bd 1db7 27be c111 81be
00000040: 99d7 513f 827b 0aa3 4ff7 ff8b 3de9 7bbd
00000050: 42ae d5be 4626 4fbd 5825 5c8a f8a2 84be
00000060: 5f07 fbbe 503f f13e ad86 76bd c6ff 68bd
00000070: 8fc7 753d 1024 163e ab6e 34be 9cc4 0f3f
00000080: 3dab 32be 8325 cbbe 598d 3bbe 81ef 3abe
00000090: 7dd4 61be 4067 ce3d 7ae0 6dbe 3bdf bebc
000000a0: 887e d5bd d363 17be 36ef cdbd b4cb 75be
000000b0: 92f1 a53d 7aee 88bd 1aaf 47be 5be5 3ebc
000000c0: d5b5 1a3f 8739 4bbc df73 813d 2974 cfbd
000000d0: e116 22bb 368a 27b7 b8a3 8ebe f2e3 dcba
000000e0: be9a 669d 7029 873d 9539 bd3d 9735 143d
000000f0: 05e3 3dbd 630c 48ba 25a8 663d 6720 11be
00000100: 6ffc e1bc ae51 22be 1a23 2bbe a374 f4bd
00000110: 1411 8f3e e91d 323f eb84 243e 10c9 89bc
00000120: 94e0 8ebe 8872 a33c 03a4 58be e4dd 553e
00000130: 2f31 0abe 9f8a 63be d358 07bd 3d17 8299
00000140: 4bc9 029f 074c 10be 95ef 86be f526 b2ae
00000150: 6f4b 52be f9b2 03be 8f14 f4a4 5ab8 b23d
00000160: 95b5 bbbb 0632 c1bd 00ff 4b3e 2b93 d2be
00000170: 4702 213e 8ba8 4fbe 84b9 09bd 742a 0cbd
00000180: 84af 1fbc c249 14be 85e4 cdbd 887c 0b3e
00000190: 795d 93b4 6be3 b03d 06dc 34b7 708e 25be
000001a0: 5786 f73d 150f 8cbd bad5 20a4 f712 43be
000001b0: 4f07 c9aa a6de 84bd 5f8a 533e f150 db8f
000001c0: 9efa a5bc 5396 1bbe 5264 813d 1eed 04be
000001d0: 300d 753e 6d0a 7fbd 6b5b 92bd 8b0a b5be
000001e0: 029c 923e 37ef 15be fb8d 2dbd 4aad df3e
000001f0: 5cb0 80bc f84f f2b1 9995 c0be 7b80 ca3d

advantage.0.weight f4 [64, 128]
0.12923487 1.0459765 -2.71559e-05 0.194023 0.4231164 0.4765586 0.20853844 0.17083643
0.3828474 -0.43253964 0.005940717 -3.5033187e-07 0.10145132 -0.5128428 0.81727576 0.07029977
0.139106 -3.342562e-39 6.753154e-39 0.028849369 -0.27427992 -0.30728215 9.263404e-39 0.17586234
0.1461896 0.2712846 -0.036833014 -0.04309035 -0.66265506 -0.44407618 0.84371394 0.1842908
-0.16029015 0.18692727 0.38228473 -0.69333136 0.54612774 -0.4009914 0.5634123 0.418354
0.59630674 0.093272105 -0.06874912 0.07689393 0.39205194 -0.087634854 0.05413264 -0.39525333
-0.30704555 -0.00066541723 0.4784696 -0.009215482 -3.648149e-06 0.00022856264 1.0566497 0.0016914487
-1.3561832e-38 -0.30958596 -0.008199566 -0.3735069 0.0030153177 -2.6258362e-09 -0.09275332 0.23852734
0.95768887 -0.567456 0.5308704 -0.32640448 0.37597653 -0.26863784 -0.74969774 0.019404745
0.008190742 -0.14142689 0.21584027 -0.008425334 -0.1712653 0.10058928 0.370359 -1.376906e-39
-8.104555e-39 -0.035811197 -0.21548349 -2.529773e-38 -0.3947269 -0.17273518 4.18908e-40 -0.57118225
-3.3178767e-05 0.057973582 0.05754861 0.23486657 -0.0046031997 -0.3236657 -0.058218647 0.0015222953
-0.10180488 -0.38723344 -0.51321495 0.20791796 -9.750894e-12 -0.4571983 4.756741e-10 -0.068454914
-0.2740023 0.102101825 -1.934551e-39 0.29902726 -7.407334e-39 -0.50518256 -0.1361184 2.884766e-39
-0.20774472 -0.07877438 0.2917096 0.20931695 -0.018799877 -0.3217357 0.14011072 -0.8640956
0.06327945 -0.014864861 -0.062169533 0.23437619 0.002073037 -7.2613e-14 -0.10340376 -0.6863649
6.405736e-39 -1.9459892e-38 1.2223986e-38 -1.8115269e-38 1.25103e-39 -1.3747326e-38 1.8802144e-38 4.306215e-39
-1.750928e-39 -2.455955e-39 -2.395054e-38 1.1018719e-37 -2.3306742e-38 6.943217e-39 -1.4764774e-38 -1.9237573e-38
-1.1586391e-38 2.2102053e-38 1.5306787e-38 5.6674e-41 4.335316e-34 7.823304e-39 1.7128856e-38 -1.207562e-39
5.158104e-39 2.1241403e-38 9.004628e-39 -1.731227e-39 -5.567652e-39 6.246156e-39 3.364537e-39 -1.7761342e-38
-5.426618e-39 1.3854268e-38 6.630242e-39 -9.290696e-39 1.3728532e-38 1.8188e-40 -1.2975837e-38 -2.2770978e-38
-3.7576356e-37 2.4572352e-38 4.676509e-39 7.70012e-40 2.399668e-38 -8.278462e-39 -4.84698e-40 5.673084e-39
7.710135e-39 1.01586e-40 -2.5313325e-38 2.3460833e-38 2.3683867e-38 6.4479353e-38 -1.4322698e-38 -1.3189565e-38
-2.157818e-38 1.9729217e-32 -1.1794959e-38 3.309867e-39 -7.892432e-39 -1.4816478e-38 1.1358442e-38 1.3378789e-38
4.607485e-39 7.839556e-39 2.943912e-39 -1.7984835e-38 7.574568e-39 -1.851005e-39 -1.57204e-39 1.6711235e-38
-2.2985731e-38 -2.51715e-39 -2.0855912e-38 1.6544586e-38 -2.1210034e-38 6.368712e-39 -1.6024841e-38 8.156451e-39
-3.939089e-39 -6.5757e-40 3.493832e-39 2.014397e-39 -2.5016927e-38 7.47079e-39 6.329497e-39 3.43014e-39
-3.2738e-39 -3.95843e-39 -1.857331e-39 -1.6518324e-38 1.8510309e-38 -1.8829344e-38 2.3158314e-38 -5.058148e-38
-3.3755128e-37 4.868838e-39 -2.0891635e-38 -1.9841248e-23 1.22638e-38 3.273854e-39 2.2219555e-38 4.629087e-39
5.273987e-39 -2.4101707e-25 5.046281e-38 -1.1202375e-38 1.4127314e-38 2.34911e-39 -2.330515e-39 1.6983443e-38
5.583146e-39 -2.553911e-39 9.663947e-39 -5.220682e-39 -8.31445e-39 -1.4400844e-38 5.580586e-39 1.6494055e-38
-2.30973e-38 -1.54278e-39 -2.1306687e-38 -1.9447966e-38 -4.3003978e-38 8.63326e-39 -2.905214e-39 -5.458748e-39
00000000: 2556 043e 8fe2 853f dacc e3b7 f7ad 463e
00000010: b6a2 d83e 7dff f33e 1a8b 553e bfef 2e3e
00000020: 9304 c43e d675 ddbe 59aa c23b 3f15 bcb4
00000030: b6c5 cf3d aa49 03bf fc38 513f 53f9 8f3d
00000040: ce71 0e3e b465 2480 0c89 4900 8355 ec3c
00000050: 6b6e 8cbe 1654 9dbe 9ade 6400 4215 343e
00000060: bab2 153e d1e5 8a3e 37de 16bd 827f 30bd
00000070: c3a3 29bf f45d e3be a3fd 573f bab6 3c3e
00000080: 1a23 24be dd69 3f3e d3ba c33e 2a7e 31bf
00000090: 07cf 0b3f bf4e cdbe ca3b 103f 7f32 d63e
000000a0: 8fa7 183f 7205 bf3d 57cc 8cbd 917a 9d3d
000000b0: 08bb c83e e779 b3bd 30ba 5d3d a55e cabe
000000c0: 1335 9dbe 656f 2eba f8f9 f43e 88fc 16bc
000000d0: b9d2 74b6 51aa 6f39 4c40 873f 9ab3 dd3a
000000e0: dfac 9380 0d82 9ebe 7957 06bc 4c3c bfbe
000000f0: a39c 453b 3372 34b1 74f5 bdbd 8340 743e
00000100: 192b 753f cc44 11bf 1fe7 073f 7d1e a7be
00000110: ff7f c03e e68a 89be 31ec 3fbf b3f6 9e3c
00000120: 7632 063c 36d2 10be 3b05 5d3e 690a 0abc
00000130: 2c60 2fbe c101 ce3d b29f bd3e 41fe 0e80
00000140: 3440 5880 c3ae 12bd b4a7 5cbe e4bb 0981
00000150: a519 cabe 7ee1 30be bf8f 0400 0039 12bf
00000160: 6e29 0bb8 b575 6d3d 17b8 6b3d dd80 703e
00000170: 70d6 96bb 83b7 a5be ad76 6ebd c187 c73a
00000180: 147f d0bd 7643 c6be 0e62 03bf 72e8 543e
00000190: 1f8a 2bad e515 eabe 97c0 0230 1732 8cbd
000001a0: 084a 8cbe c31a d13d be10 1580 1a1a 993e
000001b0: a2a8 5080 a553 01bf 9f62 0bbe 8e69 1f00
000001c0: 08bb 54be 7654 a1bd f65a 953e 2f57 563e
000001d0: 3302 9abc 8bba a4be 2f79 0f3e 5f35 5dbf
000001e0: a898 813d bf8b 73bc 7ba5 7ebd 5000 703e
000001f0: cadb 073b 8b82 a3a9 5ac5 d3bd 9cb5 2fbf
00000200: 96c0 4500 43e6 d380 801b 8500 0042 c580
00000210: 5d9f 0d00 f4b1 9580 babc cc00 fae3 2e00
00000220: e010 1380 34be 1a80 2e66 0281 a2fa 1502
00000230: b7c9 fd80 dd9a 4b00 2fc6 a080 877a d180
00000240: 252a 7e80 88ab f000 18ad a600 fc9d 0000
00000250: ca10 1008 3030 5500 4884 ba00 3126 0d80
00000260: b22a 3800 644c e700 3d0d 6200 f5d9 1280
00000270: 59a0 3c80 be03 4400 f6a2 2400 6567 c180
00000280: 3417 3b80 10dc 9600 6b32 4800 ae2a 6580
00000290: 907d 9500 02fb 0100 5b4b 8d80 39f4 f780
000002a0: 3fbb ff82 dcc8 0501 34ec 3200 7b62 0800
000002b0: 7ea6 0201 fc24 5a80 2447 0580 40c6 3d00
000002c0: b8f4 5300 2e1b 0100 a0d1 0981 4277 ff00
000002d0: 7ef2 0001 8d87 af01 dbf5 9b80 249f 8f80
000002e0: 30f7 ea80 41e1 cc0a 8c6f 8080 900a 2400
000002f0: e4f0 5580 5056 a180 b7ae 7b00 9fae 9100
00000300: cb2b 3200 7e5d 5500 6e0e 2000 67d6 c380
00000310: d07a 5200 d927 1480 351e 1180 20f8 b500
00000320: de4a fa80 ca68 1b80 cc19 e380 9327 b400
00000330: f2f4 e680 6159 4500 bd7e ae80 ded0 5800
00000340: 94e4 2a80 0a29 0780 620b 2600 52ef 1500
00000350: 8234 0881 8659 5100 10ec 4400 d659 2500
00000360: 06a6 2380 7e1a 2b80 7c39 1480 5ede b380
00000370: 368f c900 8d08 cd80 f52b fc00 26b2 8981
00000380: bab9 e582 5704 3500 617d e380 8de4 bf99
00000390: 7c8a 8500 2ca6 2300 14f3 f100 0368 3200
000003a0: bb6d 3900 ae2e 9596 725f 8901 aafb 7980
000003b0: 34d5 9900 5d94 1900 8760 1980 eeee b800
000003c0: 8acb 3c00 44cf 1b80 273b 6900 23d9 3880
000003d0: 4e89 5a80 b2cf 9c80 67c4 3c00 b79a b300
000003e0: e081 fb80 a5cc 1080 6002 e880 04c5 d380
000003f0: cc22 6a81 0402 5e00 8ea2 1f80 c570 3b80

advantage.0.bias f4 [64]
0.22695954 -1.7241962e-12 -4.490091e-18 -0.039476752 -1.6885697e-16 0.11139168 -0.05744285 -5.446503e-05
-0.00719469 0.015401191 -0.05078673 -5.0846176e-12 0.04803186 -0.10045849 -0.00018280504 -0.0016136038
-0.022029702 0.11576258 0.2595175 -0.09742073 -0.1573429 0.09584599 -0.067118905 0.123905905
-4.0132226e-13 -0.093368806 -0.082078144 -1.6165076e-07 -2.8013648e-20 -0.083719134 0.06855296 -7.1284415e-30
0.023306975 -0.19534285 0.105554014 0.12829804 -0.018192368 -2.8801996e-30 -0.0104403775 -0.010626925
-1.8999327e-08 -1.7046876e-25 -0.14563136 -0.09148988 -5.178809e-25 0.3578482 -2.4895426e-05 -0.067624316
-0.03929405 -8.906005e-11 -0.080194354 -9.270404e-22 0.23803562 0.23203951 -1.6802422e-10 -0.025188563
0.29935232 0.06337169 -1.5106641e-27 -0.008037298 0.15196632 -0.13655123 0.2015752 -0.044760216
00000000: 1568 683e b7a8 f2ab b6a7 a5a2 60b2 21bd
00000010: c8ad 42a5 5221 e43d 3249 6bbd 6171 64b8
00000020: 6fc1 ebbb 4755 7c3c bf05 50bd 2ae6 b2ac
00000030: 0ebd 443d 2ebd cdbd 5baf 3fb9 8f7f d3ba
00000040: a277 b4bc ee14 ed3d 7adf 843e 8584 c7bd
00000050: 7f1e 21be e74a c43d a375 89bd 61c2 fd3d
00000060: a2ec e1aa 2538 bfbd 9618 a8bd 3992 2db4
00000070: 6c4a 049f f074 abbd 7f65 8c3d fc94 108f
00000080: 45ee be3c f507 48be b42c d83d 9060 033e
00000090: 2908 95bc 68ab 698e 1e0e 2bbc 8e1c 2ebc
000000a0: f633 a3b2 b507 5396 6320 15be 0c5f bbbd
000000b0: c146 2097 e137 b73e 85d6 d0b7 9e7e 8abd
000000c0: ccf2 20bd 5ad8 c3ae f03c a4bd 2317 8c9c
000000d0: 9cbf 733e c49b 6d3e 9dbe 38af 3f58 cebc
000000e0: b544 993e 04c9 813d d15f ef92 dfae 03bc
000000f0: 0f9d 1b3e 16d4 0bbe bb69 4e3e 7d56 37bd

advantage.2.weight f4 [36, 64]
0.26858923 -1.6513897e-05 -1.7006267e-18 0.23115978 -7.5970816e-24 -0.33180875 0.25964174 0.0014482094
0.20001441 0.64827985 0.34466597 -3.5458442e-07 0.13073938 0.048101366 0.00086430897 -0.0049836296
-0.0196721 -0.10769917 0.018057147 -0.04756933 0.16372064 -0.17184906 -0.0037431135 -0.058501117
-2.364359e-12 0.15086687 0.034093972 9.526661e-06 1.3577344e-23 0.15366729 -0.034791876 -1.3712262e-29
0.02629874 0.26337805 0.16546153 -0.15582609 0.28163037 -3.06591e-12 0.015352558 0.18188791
-1.6601267e-09 1.652183e-11 0.27616686 0.25807804 8.2675724e-38 -1.3613908 -0.0012581204 0.28086117
-0.0099507375 1.2559647e-11 0.2777915 1.5874487e-07 -0.31565976 -0.2195436 -6.772032e-08 0.012054911
-0.02035531 0.14354892 -2.5810327e-22 0.30545384 -1.4749242 0.23211186 -0.2597736 0.23972785
-0.0032112452 -4.93245e-36 -2.7003898e-18 -0.05727869 3.12228e-07 -0.352679 0.23933047 -2.534045e-09
0.26724184 0.46890756 0.68574387 4.2794787e-10 0.25360885 -0.21421601 -1.2053845e-05 -0.0049923747
-0.00039851578 -0.4271468 0.20662886 0.015525388 0.40562382 0.025227616 -0.041095987 -0.40200552
1.5602582e-06 0.18715759 -0.089934975 3.253271e-39 -1.5517293e-12 -0.26730707 -0.40520808 -5.640501e-39
-0.052749377 -0.5171709 -0.8963745 -0.0072395396 -0.3498056 -1.2486099e-27 7.653955e-05 -0.50505996
-1.0545253e-10 -5.7549715e-20 0.030261135 -0.065485366 2.17221e-39 -0.6567136 -8.143099e-11 -0.10332751
0.1891079 5.2153426e-31 1.265794 -1.3580968e-20 -0.34141523 -0.22342342 -3.3810992e-11 -0.23117547
0.04239863 0.027609685 -4.1400286e-31 0.8449513 -0.73660725 -0.11731141 0.21813866 -1.6031727
-0.47239405 2.4030121e-17 3.5858613e-10 -0.60629505 4.5262114e-11 -0.08607494 0.21649487 4.1824782e-07
-0.01294205 0.3164564 0.51444304 -6.064101e-11 0.312414 -0.16058598 8.195788e-06 0.006345418
0.0005214731 -0.036507767 0.3530573 -0.05229413 0.34700185 0.20315108 0.09729965 -0.22646737
-7.253115e-06 0.3105308 0.33596846 5.0758353e-25 1.3581472e-09 -0.048938125 -0.08299244 -2.2809607e-31
-0.055815954 0.14407465 -0.2887835 -0.115656875 -0.78258854 5.0279525e-24 -0.01156899 0.035841167
1.5498932e-09 -1.5951031e-18 0.30708918 0.2961438 2.987303e-39 -0.48322803 0.00028846317 0.22334394
0.32110775 -1.2547857e-15 0.07997478 1.0697792e-10 -2.3222892 0.19670519 -1.1556071e-11 -0.068419345
-0.010289953 -0.43157578 5.325423e-39 -0.3562242 0.063367955 0.08501634 0.35333607 -0.23671521
-0.23091349 -1.7757454e-18 4.967749e-08 -1.203753 4.5624567e-12 0.42739448 0.123276666 -0.0016390954
0.014267387 0.1037526 0.16319793 -3.227972e-07 0.38945404 -0.31366533 4.11148e-05 0.001048988
0.033804297 0.30653533 0.47820824 0.07092259 0.5495795 0.14516635 -0.06205995 -0.4315672
8.777671e-09 0.2635523 0.1536157 3.990091e-39 -1.7447038e-27 -0.11982869 -0.19311252 -7.6644504e-18
0.3060131 0.43021584 -0.17461327 -0.19893669 -1.3398387 -3.4401237e-15 -0.0046513146 -0.014891331
2.9535223e-09 2.4672672e-16 -0.35046187 -0.16245417 -1.467742e-39 0.02209079 -2.0743872e-05 -0.30993745
0.47633433 -1.4020164e-33 0.2821768 1.5339769e-21 -0.22617754 0.2568773 1.1550185e-13 -0.067828864
-0.22451542 -1.056913 1.5059523e-38 -1.872501 0.371801 -0.0063765384 0.64996505 -0.28373703
00000000: 8784 893e 5387 8ab7 dcf7 faa1 26b5 6c3e
00000010: edf2 1299 d6e2 a9be c3ef 843e d8d1 bd3a
00000020: 94d0 4c3e abf5 253f 0f78 b03e b65d beb4
00000030: 8be0 053e f005 453d cb92 623a b74d a3bb
00000040: 6227 a1bc 6291 dcbd 95ec 933c 0fd8 42bd
00000050: 62a6 273e 33f9 2fbe 064f 75bb de9e 6fbd
00000060: 8160 26ac d87c 1a3e 1fa6 0b3d b3d4 1f37
00000070: e04f 8319 f55a 1d3e ed81 0ebd 110f 8b8f
00000080: 7570 d73c 7dd9 863e bf6e 293e e090 1fbe
00000090: db31 903e 86be 57ac 4c89 7b3c d340 3a3e
000000a0: 842a e4b0 db53 912d be65 8d3e ce22 843e
000000b0: 9210 e101 0e42 aebf 84e7 a4ba 09cd 8f3e
000000c0: 6b08 23bc 9ff3 5c2d b03a 8e3e 7573 2a34
000000d0: 289e a1be 0ad0 60be a46d 91b3 f681 453c
000000e0: 2ec0 a6bc 7dfe 123e 8c03 9c9b 7264 9c3e
000000f0: 51ca bcbf bbae 6d3e 0c01 85be 387b 753e
00000100: c173 52bb a0cd d184 ec40 47a2 0f9d 6abd
00000110: 4aa0 a734 5892 b4be 0c13 753e 6423 2eb1
00000120: ecd3 883e a714 f03e e98c 2f3f 4f44 eb2f
00000130: 05d9 813e 715b 5bbe df3a 4ab7 1397 a3bb
00000140: e2ef d0b9 fcb2 dabe 8496 533e 325e 7e3c
00000150: edad cf3e 25aa ce3c 4454 28bd abd3 cdbe
00000160: 106a d135 3da6 3f3e d42f b8bd cc6c 2300
00000170: f162 daab 79dc 88be 6f77 cfbe 6c6b 3d80
00000180: bb0f 58bd 5065 04bf cd78 65bf a939 edbb
00000190: b819 b3be a3d9 c592 dc83 a038 9c4b 01bf
000001a0: 7fe4 e7ae abe2 879f 33e6 f73c 311d 86bd
000001b0: 3da7 1700 621e 28bf 9211 b3ae 609d d3bd
000001c0: 80a5 413e 5f3f 290d 8a05 a23f c444 809e
000001d0: facd aebe 1cc9 64be cbb3 14ae 43b9 6cbe
000001e0: 30aa 2d3d b52d e23c 035a 068d ba4e 583f
000001f0: 4b92 3cbf f740 f0bd be5f 5f3e c334 cdbf
00000200: a2dd f1be 85a3 dd23 8322 c52f 2736 1bbf
00000210: 9c10 472e 0f48 b0bd d5b0 5d3e 8b8b e034
00000220: e40a 54bc 9306 a23e 8ab2 033f db59 85ae
00000230: baf4 9f3e a770 24be a480 0937 39ed cf3b
00000240: 78b3 083a 2b89 15bd edc3 b43e 5f32 56bd
00000250: 3aaa b13e d606 503e 0a45 c73d 10e7 67be
00000260: c95f f3b6 e5fd 9e3e 0f04 ac3e e916 1d17
00000270: 8ea9 ba30 5873 48bd f1f7 a9bd f60a 948c
00000280: 459f 64bd 4e88 133e 6edb 93be 83dd ecbd
00000290: b957 48bf 6e82 c218 dc8b 3dbc 30ce 123d
000002a0: 0504 d530 4b65 eba1 cb3a 9d3e 29a0 973e
000002b0: 6387 2000 aa69 f7be df3c 9739 46b4 643e
000002c0: 3c68 a43e 6cd5 b4a6 d1c9 a33d 373f eb2e
000002d0: 63a0 14c0 166d 493e eb4b 4bad 711f 8cbd
000002e0: 3197 28bc 80f7 dcbe 1dfd 3900 0563 b6be
000002f0: 0fc7 813d 0c1d ae3d 77e8 b43e 7965 72be
00000300: 9674 6cbe e206 03a2 fa5c 5533 9414 9abf
00000310: f586 a02c 73d3 da3e 7a78 fc3d ead6 d6ba
00000320: c2c1 693c 3e7c d43d 5c1d 273e e94c adb4
00000330: 8566 c73e be98 a0be ae72 2c38 327e 893a
00000340: 6076 0a3d 33f2 9c3e b6d7 f43e dd3f 913d
00000350: 3eb1 0c3f 7da6 143e 9332 7ebd 60f6 dcbe
00000360: 9bcc 1632 54f0 863e 6f4d 1d3e c072 2b00
00000370: cc3a 0a93 bf68 f5bd 4abf 45be 5862 0da3
00000380: c0ad 9c3e 4045 dc3e d2cd 32be 0fb6 4bbe
00000390: d67f abbf 15e3 77a7 0e6a 98bb c5fa 73bc
000003a0: eaf6 4a31 703a 8e25 bd6f b3be 635a 26be
000003b0: 78fb 0f80 bff7 b43c 2003 aeb7 1fb0 9ebe
000003c0: 18e2 f33e 2ff3 e888 7a79 903e dbce e71c
000003d0: 169b 67be 6c85 833e 240b 022a dce9 8abd
000003e0: 5fe7 65be ed48 87bf d3fb a300 1dae efbf
000003f0: b35c be3e 48f2 d0bb 1c64 263f fb45 91be

advantage.2.bias f4 [36]
-0.32364208 0.030484857 -0.12802303 0.09252169 0.03453516 -0.30486608 0.18606998 0.112586364
0.17056787 0.10469132 0.2450857 -0.033108644 0.014944281 -0.18867417 0.030801546 0.14329436
0.06690339 -0.10029151 0.16726847 -0.034032155 0.3101361 0.23020099 0.13646851 -0.052227974
0.19930938 0.34293187 0.06508424 -0.13173069 0.22277717 0.068443984 -0.7008432 0.09514385
0.25984663 -0.098975174 -0.056504853 0.43255138
00000000: 6ab4 a5be 61bb f93c 7818 03be 037c bd3d
00000010: bd74 0d3d 6817 9cbe 2189 3e3e ae93 e63d
00000020: 58a9 2e3e 6768 d63d bff7 7a3e ee9c 07bd
00000030: dcd8 743c cd33 41be 8653 fc3c c2bb 123e
00000040: a504 893d a365 cdbd 6d48 2b3e 4d65 0bbd
00000050: 29ca 9e3e cfb9 6b3e 67be 0b3e 00ed 55bd
00000060: c217 4c3e c494 af3e e34a 853d 69e4 06be
00000070: b31f 643e 5c2c 8c3d 766a 33bf c7da c23d
00000080: 9e0a 853e 7fb3 cabd a271 67bd 6077 dd3e

value.0.weight f4 [64, 128]
2.354876e-39 3.00798e-39 -1.4184316e-38 2.5779038e-38 -8.71889e-39 1.3371829e-38 1.5995177e-38 -1.2056629e-38
4.6283577e-38 -8.6236244e-38 -5.2638017e-38 -1.4078319e-38 -1.3299948e-38 -2.0803114e-38 -5.971513e-39 -9.417964e-39
1.9557889e-38 -1.075671e-37 1.911025e-38 -1.6981106e-38 -1.245862e-38 4.984475e-39 4.711771e-39 -7.709793e-39
-2.273988e-39 -5.165948e-39 -4.984211e-39 -3.595974e-38 8.273658e-39 -2.1860828e-38 -2.2086936e-38 8.374171e-39
9.302346e-39 -2.8408378e-38 -1.6228684e-38 1.8602271e-38 -6.114305e-39 -2.334153e-38 -4.33293e-39 -5.363425e-39
-1.276134e-39 -1.5421183e-38 -2.1612714e-38 -2.0514937e-38 -1.3032625e-38 -8.257492e-38 -3.645088e-39 -2.0275034e-38
-6.475479e-39 1.7563404e-38 1.9759794e-38 8.966113e-39 -8.716464e-38 -1.151758e-38 1.0773359e-38 2.2051634e-38
1.929591e-39 -1.2554435e-38 1.0528505e-38 -1.4713611e-38 -1.4859164e-38 -3.06918e-39 4.2269182e-38 -2.30816e-39
2.765706e-39 -5.23309e-39 1.3696487e-38 9.370002e-38 1.588512e-38 -5.765103e-38 -3.8741923e-38 1.6899617e-38
5.079487e-38 -6.668926e-38 -6.839323e-39 2.2820546e-38 -1.3635514e-38 5.806363e-38 -7.8264604e-38 -2.2920476e-38
-7.995718e-38 8.007495e-38 1.835889e-38 7.446438e-39 7.5684265e-38 -7.208775e-39 1.7585236e-38 -1.1864604e-38
5.98411e-38 3.9734266e-38 2.0647505e-38 5.1299945e-38 1.607455e-38 4.617862e-38 -5.734153e-39 -2.44137e-39
1.342495e-38 -3.624302e-39 1.5105818e-38 9.105146e-38 -1.7528419e-38 -4.749163e-38 2.0122388e-38 -7.443143e-39
9.677075e-38 4.838703e-39 1.1976825e-38 1.1734272e-38 1.0018163e-38 -1.6962836e-38 -6.381601e-38 -9.864917e-39
2.0965897e-38 -1.5844936e-38 -4.657249e-39 -5.746408e-39 2.866611e-39 1.9190567e-38 4.283388e-39 1.5005423e-38
-3.01943e-40 -2.0715597e-38 1.9770029e-38 2.1038854e-38 -7.162799e-39 1.8266901e-38 1.2894286e-38 -1.5597595e-38
-2.224952e-38 -1.2630424e-38 -7.8496424e-38 -5.280126e-39 9.33237e-39 -1.121064e-38 -3.130534e-39 -2.1334786e-38
4.226081e-39 1.8807275e-38 -5.575504e-38 -1.5702816e-38 -1.202695e-39 8.951688e-39 -1.8253157e-38 -2.3827197e-38
1.824216e-38 -9.421117e-39 -1.2245914e-38 -5.1395586e-38 -3.526777e-39 1.6537889e-38 -9.29168e-39 -8.169413e-39
6.492754e-38 7.16288e-39 1.2567786e-38 2.3524973e-38 -2.3910157e-38 -4.1608576e-38 1.4243022e-38 2.4063764e-38
2.4274424e-38 -4.606068e-39 3.7575852e-38 1.4306117e-38 -1.436536e-39 -8.084483e-38 9.538381e-39 1.745e-39
1.408229e-39 1.3727781e-38 -1.8871393e-38 -3.6435105e-38 -7.036615e-39 1.4355042e-38 1.5510678e-38 1.348708e-39
7.371043e-39 3.497605e-38 -5.603202e-38 1.275989e-39 -1.4222339e-38 8.739607e-39 1.018402e-38 6.602178e-39
-9.475076e-39 7.384006e-38 -4.6033036e-38 5.4893e-40 3.175157e-39 -5.500836e-39 1.2172676e-38 7.611394e-39
2.214282e-38 -9.75014e-39 -6.67965e-40 1.735931e-39 -1.8287102e-38 -1.7075999e-38 -1.9174867e-38 1.848363e-39
1.0037374e-37 -1.8501722e-38 3.8603082e-38 3.399396e-39 8.87648e-39 -2.631201e-39 1.8106626e-38 2.0741179e-38
6.589023e-39 1.069761e-37 3.012335e-39 -5.4604235e-38 -1.367449e-38 -4.3885114e-38 6.178619e-39 4.03097e-39
-1.5079504e-38 9.322525e-39 1.9915254e-38 -1.0910947e-38 -9.202336e-38 -1.1160075e-38 6.7173557e-38 4.4816798e-38
-1.363149e-38 -6.809951e-38 -5.570178e-39 2.2888526e-38 1.8724125e-38 2.2647267e-38 1.2708152e-38 5.767952e-39
-1.83785e-38 3.900088e-39 -1.1116534e-38 7.277383e-39 8.8967386e-38 -7.201292e-39 2.5561623e-38 1.327299e-39
7.021077e-38 4.248684e-39 1.0465418e-38 -1.298724e-38 3.64496e-39 7.277998e-38 2.068645e-38 -1.9676562e-38
-2.4398338e-38 1.726282e-39 -1.6618699e-38 -4.122071e-39 -6.6110246e-38 -4.803023e-39 -1.2011303e-38 -9.606086e-39
00000000: 70a4 1900 06c1 2000 1a74 9a80 bc5a 0c01
00000010: b8f0 5e80 389b 9100 0c2c ae00 fa48 8380
00000020: e4fd 7b01 e4c1 ea81 584b 8f81 a04c 9980
00000030: d8d2 9080 9e86 e280 2606 4180 748d 6680
00000040: 70f7 d400 aa69 1282 9a17 d000 6ae8 b880
00000050: 90a9 8780 b046 3600 804e 3300 c4f3 5380
00000060: f4c2 1880 9040 3880 f445 3680 90c8 4381
00000070: 9817 5a00 180b ee80 6481 f080 c82f 5b00
00000080: 284b 6500 80ab 1a81 f8b6 b080 908f ca00
00000090: 3294 4280 b02a fe80 722e 2f80 0c67 3a80
000000a0: 58e5 0d80 fceb a780 7457 eb80 4c63 df80
000000b0: a8e9 8d80 52ca e081 06b1 2780 8cc6 dc80
000000c0: 0083 4680 a03f bf00 442a d700 e0a1 6100
000000d0: e348 ed81 546a 7d80 be4f 7500 fc1e f000
000000e0: ea02 1500 a8b4 8880 30a5 7200 9037 a080
000000f0: 4ecd a180 a06b 2180 a422 6601 3622 1980
00000100: aa1d 1e00 bafb 3880 3c24 9500 6213 ff01
00000110: 40f9 ac00 e7f0 9c81 5cee 5281 4205 b800
00000120: dc46 8a01 a28b b581 4079 4a80 667e f800
00000130: 447a 9480 7210 9e01 780e d581 f694 f980
00000140: 06aa d981 18fc d901 1ee9 c700 a415 5100
00000150: 3c08 ce01 227f 4e80 7c7c bf00 b031 8180
00000160: 29e7 a201 7c55 5801 d8d4 e000 d8a6 8b01
00000170: 4e09 af00 9a6b 7b01 7c70 3e80 8c95 1a80
00000180: 4c2f 9200 1477 2780 e07c a400 9bdd f701
00000190: 1ade be80 d648 8181 081d db00 740c 5180
000001a0: afb7 0302 56b0 3400 846a 8200 60c6 7f00
000001b0: 9016 6d00 7cb5 b880 45b9 ad81 606b 6b80
000001c0: 644c e400 3c89 ac80 84b6 3280 a692 3e80
000001d0: f236 1f00 7ef7 d000 58a4 2e00 0465 a300
000001e0: b249 0380 a892 e180 cc46 d700 c417 e500
000001f0: f8fe 4d80 b0e8 c600 0668 8c00 c0d7 a980
00000200: 9c46 f280 7c88 8980 06b0 d581 d87e 3980
00000210: da9e 6500 b412 7a80 a816 2280 b450 e880
00000220: 9804 2e00 08cb cc00 98c7 9781 10fd aa80
00000230: a018 0d80 aa79 6100 60c2 c680 44ba 0181
00000240: b8a3 c600 3e96 6680 a058 8580 7fe9 8b81
00000250: 3867 2680 e814 b400 6c2d 6580 00f5 5880
00000260: e4bf b001 32ff 4d00 e0d9 8800 0715 0001
00000270: e52d 0281 e489 6281 c017 9b00 fe03 0301
00000280: 9c29 0401 d827 3280 1895 4c01 a2c7 9b00
00000290: 7aa4 0f80 a014 dc81 20dd 6700 5a00 1300
000002a0: 9255 0f00 787b 9500 c47d cd80 205f 4681
000002b0: 389f 4c80 0450 9c00 76e5 a800 a6af 0e00
000002c0: 7843 5000 806d 3e01 9e88 9881 f0e4 0d00
000002d0: 18de 9a80 782a 5f00 e8e4 6e00 30e4 4700
000002e0: a82c 6780 0303 c901 b0a0 7a81 32fa 0500
000002f0: 0c93 2200 18e6 3b80 788c 8400 78e1 5200
00000300: 2c1d f100 6c2b 6a80 0446 0780 12e7 1200
00000310: 0021 c780 f0f0 b980 bacb d080 7c20 1400
00000320: 259f 0802 4677 c980 d82c 5201 2204 2500
00000330: 04a8 6000 b8a6 1c80 e829 c500 f8d9 e100
00000340: 84bf 4700 bb9b 1102 2acd 2000 99a5 9481
00000350: eae6 9480 ecee 6e81 7a47 4300 b4e4 2b00
00000360: 8633 a480 6883 6500 a0db d800 48cf 7680
00000370: ec82 fa81 c085 7980 23dd b601 8001 7401
00000380: 0c6f 9480 6f62 b981 64a7 3c80 e63b f900
00000390: 3ee3 cb00 5e9b f600 2861 8a00 b4ce 3e00
000003a0: c81f c880 dc77 2a00 600c 7980 623e 4f00
000003b0: 3831 f201 466a 4e80 b42b 0b01 f873 0e00
000003c0: c421 bf01 9a43 2e00 54f5 7100 246b 8d80
000003d0: aab0 2700 3e20 c601 6841 e100 4042 d680
000003e0: 52d6 0481 2ccc 1200 2cf6 b480 a8e2 2c80
000003f0: 1ef8 b381 e04c 3480 a0ca 8280 dc99 6880

value.0.bias f4 [64]
3.7412158e-38 2.0504704e-38 -2.5357e-40 -4.385986e-39 7.2740383e-38 1.1628042e-38 -2.115187e-39 1.84051e-39
-5.9185163e-38 2.841603e-39 -2.9705084e-38 4.889343e-39 -8.4908777e-38 1.653218e-39 -1.2242483e-38 2.1176005e-38
5.856646e-39 1.5829205e-38 -4.279052e-38 6.575719e-39 -6.968268e-39 1.170202e-39 -7.3816956e-38 6.873099e-38
1.0391177e-38 -6.635617e-38 4.997709e-39 5.889534e-39 2.138889e-39 -7.025668e-39 4.6231336e-38 -1.6345987e-38
2.3584638e-38 -1.5097898e-38 -7.537405e-39 8.829621e-38 -7.7915995e-38 -9.295858e-39 4.195947e-39 -6.9198887e-38
-3.7970547e-38 7.02421e-39 1.3515597e-38 -8.9205e-40 -8.985378e-39 4.73145e-39 1.9317692e-38 -6.184734e-39
9.35123e-40 7.719781e-39 -2.1744632e-38 -1.4252209e-38 -1.785155e-38 -8.146076e-39 3.138115e-39 -1.521362e-39
-1.545444e-39 -2.022595e-39 1.7841298e-38 7.560061e-39 -2.2653587e-38 -3.6406e-41 -2.3092905e-38 2.811534e-39
00000000: f0b0 4b01 c646 df00 dac2 0280 58c2 2f80
00000010: a604 c601 409e 7e00 4808 1780 980a 1400
00000020: 0a1e a181 3cf1 1e00 d8ba 2181 803d 3500
00000030: c824 e781 8000 1200 104f 8580 1696 e600
00000040: f2c5 3f00 625d ac00 48f9 6881 6e9a 4700
00000050: b2e0 4b80 0cbe 0c00 e9f2 c881 821a bb01
00000060: 6026 7100 80a3 b481 946b 3600 a021 4000
00000070: 5a4a 1700 b480 4c80 14b5 7b01 f6fd b180
00000080: 3068 0001 cc66 a480 3813 5280 7a5d f001
00000090: 861b d481 1239 6580 98b0 2d00 9660 bc81
000000a0: 38bb 4e81 a47c 4c00 fc2b 9300 acb6 0980
000000b0: 94d7 6180 5c85 3300 de59 d200 8658 4380
000000c0: be2e 0a00 9c0f 5400 30c7 ec80 5c31 9b80
000000d0: dc62 c280 f2b3 5880 ca2b 2200 f090 1080
000000e0: 12d4 1080 2c06 1680 4846 c200 6052 5200
000000f0: fcac f680 7c65 0080 a075 fb80 6a9d 1e00

value.2.weight f4 [1, 64]
-6.580938e-39 5.5852534e-38 -1.0676523e-37 3.357155e-39 1.744863e-39 7.5395205e-38 -7.1801244e-38 -1.4722943e-38
-9.43947e-40 -3.719632e-39 1.3773102e-38 -5.011183e-39 1.4407624e-38 -1.0040819e-38 4.047286e-39 5.236324e-39
2.4418937e-38 5.67309e-39 4.340965e-39 1.3846187e-38 1.9239099e-38 -4.70755e-40 1.8771665e-38 5.692355e-39
5.664954e-38 2.2290612e-38 -9.586336e-39 -8.315989e-39 1.9932383e-38 -5.08752e-39 -3.960411e-39 -2.269168e-38
1.4259979e-38 5.83958e-39 3.601823e-39 2.4378984e-38 6.337557e-39 -4.289799e-39 -4.89439e-39 1.4283315e-38
4.86092e-39 -1.6593148e-38 4.383985e-39 -1.0831432e-38 -1.0333681e-38 4.209543e-39 -1.2010664e-38 1.1459768e-38
-8.2122183e-38 5.502483e-39 2.3825885e-38 -1.0083993e-38 4.269883e-39 -7.3250994e-38 -6.257839e-39 -1.036349e-38
3.267402e-39 2.12837e-38 1.6133724e-38 -1.5616014e-38 -1.8278111e-38 -1.5765132e-38 7.631684e-39 -7.808969e-38
00000000: faa8 4780 890b 9801 4152 1182 628e 2400
00000010: f8ff 1200 ca3e cd01 2a76 c381 9351 a080
00000020: 5747 0a80 d280 2880 cef9 9500 2491 3680
00000030: 98e2 9c00 b855 6d80 3012 2c00 be04 3900
00000040: 08f3 0401 44c6 3d00 d844 2f00 89c5 9600
00000050: c87e d100 4620 0580 c467 cc00 f8fb 3d00
00000060: f836 9a01 28b9 f200 ce62 6880 988d 5a80
00000070: 600b d900 f065 3780 0420 2b80 2c17 f780
00000080: 0547 9b00 6096 3f00 6b38 2700 58bb 0401
00000090: 8802 4500 37b6 2e80 914b 3580 1288 9b00
000000a0: 44ee 3400 f2ae b480 c4bc 2f00 a0f1 7580
000000b0: 1986 7080 7ed6 2d00 d8c8 8280 2cc9 7c00
000000c0: cf8e df81 afea 3b00 70b8 0101 12ce 6d80
000000d0: b27e 2e00 7e68 c781 4f24 4480 32d9 7080
000000e0: 3094 2300 4cc2 e700 42ae af00 180b aa80
000000f0: f007 c780 c6aa ab80 081a 5300 9294 d481
